nTupleAnalysis/pytorchModels/FvT_ResNet+multijetAttention_9_9_9_np1955_lr0.008_epochs40_stdscale_epoch26_loss0.1496.pkl (torch_old, 81247 bytes, 224 tensors)

jetEmbed.module.weight f4 [9, 4, 1]
000000 44 63 10 bd ea 49 b3 bf d1 0d 94 be 82 3c 4c 3b
       -0.035250917 -1.4006932 -0.2891679 0.0031163995
000010 0e c2 e2 be 30 7f bc 3f 38 d9 5e 3c 79 20 85 3e
       -0.44288677 1.4726315 0.013601594 0.26001337
000020 89 44 5d be 20 04 b7 be aa db 18 3f 22 bf b7 bd
       -0.21608175 -0.35745335 0.5971018 -0.089720026
000030 c0 47 1e 3f 68 2d 34 3f 49 f6 2e 3e 81 15 cd bf
       0.6182823 0.70381784 0.17086138 -1.6022187
000040 d4 5b 9b 3e d7 8c 79 3f c9 36 fc 3e 32 db f8 3d
       0.30343497 0.9748053 0.49260548 0.12151183
000050 7d 51 98 bd a2 57 04 bf 8d ba c1 be 7f 9e 3f bf
       -0.07437418 -0.5169622 -0.3783764 -0.7485122
000060 5c ff d7 be 22 dd 5b bf f7 ec 95 be b3 4d 1f 3f
       -0.4218701 -0.85884297 -0.29282352 0.62227935
000070 df 43 89 bf b0 e6 0a 3d 4d 82 81 be 65 bb 1a 3f
       -1.0723838 0.033911407 -0.25294724 0.6044219
000080 61 11 d2 3e bb dc e1 bf 81 d6 2e 3e 90 e4 ad be
       0.41028884 -1.7645487 0.17074014 -0.33963442

jetEmbed.module.bias f4 [9]
000000 7a aa ff be 0c b5 fe 3d 2a 0b 4e be 1d 9d 58 bf
       -0.4993475 0.12436876 -0.20121446 -0.84614736
000010 23 7f 01 bf f9 bb b2 be e1 99 28 be 62 b7 e3 be
       -0.5058462 -0.34909037 -0.1646495 -0.44475847
000020 52 a7 92 be
       -0.2864328

dijetAncillaryEmbed.module.weight f4 [9, 2, 1]
000000 d7 8c a0 3e 95 04 90 bf 2c 58 01 bf 5c 49 15 bd
       0.31357452 -1.1251398 -0.50525165 -0.036446914
000010 40 f4 a0 bf a8 df ed bf 83 7e b4 bf d1 8d 15 bc
       -1.2574539 -1.858388 -1.4101108 -0.00912805
000020 9f 5b 91 3e 9c 10 9b 3f 17 bc 9c 3d 7a c9 62 3e
       0.28390214 1.2114444 0.07653063 0.2214717
000030 9d 6b 98 be 77 7d dc 3f ee 52 12 bf 1e d6 ed 3e
       -0.29769602 1.7225789 -0.5715779 0.4645242
000040 86 43 90 be 7c cf 80 3e
       -0.28176516 0.25158298

dijetAncillaryEmbed.module.bias f4 [9]
000000 4e c5 09 3f 5a e8 25 bf 8f 39 fd be aa cb 2d 3f
       0.5381669 -0.64807665 -0.49457976 0.6788889
000010 12 45 2b bf d4 04 fc be 78 ed 3e be 42 35 b4 bd
       -0.6690227 -0.49222434 -0.18645275 -0.087992206
000020 c9 0c e8 bd
       -0.113305636

dijetResNetBlock.reinforce1.conv.module.weight f4 [9, 9, 3]
000000 16 3f 32 3e 44 9c 11 3f 5c 34 94 bf c3 93 61 3f
       0.17406878 0.5687907 -1.1578479 0.8811609
000010 05 c1 e1 3e ab ed fa be 82 1f 0a 3f 75 13 a0 3c
       0.44092575 -0.4900945 0.5395433 0.019540528
000020 29 c0 1c bf 09 e7 ba bf 01 6a f2 be 74 ce 0f bf
       -0.61230713 -1.4601756 -0.473465 -0.561744
000030 45 3e 19 3e 64 b9 0b 3f 1f bc ac be 96 f2 32 bd
       0.1496516 0.5457976 -0.33737275 -0.04368838
000040 6c b2 54 3e 87 ab 17 bf 70 19 38 3b 0e e8 5f 3d
       0.20771188 -0.59246105 0.0028091334 0.054664664
000050 9b 9d 89 be 44 3e ae bb 8a 4e 37 be 64 04 94 be
       -0.26878056 -0.0053174812 -0.17901054 -0.289096
000060 04 a7 c3 bf be a0 25 3f a7 ac 59 bd fc 57 ad be
       -1.5285344 0.646984 -0.05314317 -0.3385619
000070 18 1e 8e bc e2 9b 52 bf 50 9c 32 bf 68 4a ae 3e
       -0.017348334 -0.8226911 -0.69769764 0.34041142
000080 92 a4 37 bf b3 8e 50 3e 33 4c 00 bf e5 11 0b be
       -0.7173549 0.20366935 -0.5011627 -0.13581045
000090 7a 06 91 3f 60 b1 19 c0 7e 94 cc 3d de 3d 71 3e
       1.1330101 -2.401451 0.0998926 0.23558757
0000a0 08 23 0c 3f 96 e6 2c 3e b6 5c 8a 3f 60 3a 4b bf
       0.54740953 0.16884837 1.0809543 -0.7938595
0000b0 98 af a2 be 3f cf a0 be 73 7f 2f bf 37 b7 f8 3e
       -0.31774592 -0.31408116 -0.6855385 0.48577282
0000c0 15 99 e4 be 60 05 2d 3e 99 5b 71 3c 75 af f8 be
       -0.44648042 0.16896582 0.014731311 -0.48571363
0000d0 ad 50 eb 3e 7d eb 18 3e a7 0d 12 bf b6 b3 26 3f
       0.45959988 0.14933582 -0.5705208 0.6511797
0000e0 a4 a9 2e 3b 8d 35 ca 3f e7 4f a4 bf a7 5d 90 be
       0.0026651407 1.5797592 -1.2836884 -0.2819645
0000f0 a2 87 3e bd 7f 8c 8b 3f d1 88 00 3f 20 22 e1 3d
       -0.04651607 1.0902251 0.50208765 0.10992837
000100 7e f5 34 bf 38 36 02 3f de fc f0 3e 62 bc 3a bf
       -0.7068709 0.5086398 0.47067922 -0.729437
000110 6f a2 90 be 6e f6 2f 3d 35 46 3a bc 8b 35 24 3e
       -0.28248927 0.042959623 -0.011369278 0.1603605
000120 f7 23 40 be 2b ba 83 3f d4 ba cd 3e 63 ff 34 be
       -0.1876372 1.0291189 0.401816 -0.17675547
000130 a6 56 40 be 40 e7 b1 3e d5 f2 fe bf d4 33 9b 3f
       -0.18783054 0.34746742 -1.9917856 1.2125192
000140 94 f9 be bd 1a d8 f4 3e 75 45 b7 be 86 4b 05 bf
       -0.09324947 0.47821122 -0.3579518 -0.52068365
000150 1c 00 93 be c4 0b 4c bd be b3 8d be 08 7d 11 bf
       -0.2871102 -0.049815908 -0.27676195 -0.5683141
000160 66 94 06 bf 9a 3a b4 3f e6 31 5a 3e 8a 96 df 3e
       -0.5257019 1.4080384 0.21308097 0.4366954
000170 b3 b6 e9 bb 30 8f 0d 3f 8f 13 01 be 8e d1 19 3f
       -0.007132375 0.5529661 -0.12605117 0.6008538
000180 e5 05 e8 3e ca df 6c bf 7d 1d 47 be 2c 71 fd 3e
       0.45316997 -0.92528975 -0.19444843 0.49500406
000190 c7 e1 f7 3e 2e dd b5 3f 10 52 9d 3e a2 69 4e 3d
       0.48414442 1.4208124 0.3072667 0.050393708
0001a0 cd 84 cb 3e 24 9f 40 3e d2 9c a8 be 81 ab d8 3e
       0.39749756 0.18810707 -0.32932144 0.42318347
0001b0 29 5f 14 bf c3 0f c4 3e 80 57 50 3f 09 83 92 3e
       -0.579577 0.38293275 0.81383514 0.28615597
0001c0 a1 63 b5 be 3d 18 09 bf 62 3a 71 3d c9 96 b4 3e
       -0.35427573 -0.5355261 0.05889357 0.3527129
0001d0 3b 4f 93 bf a8 f4 d2 3e 8e 11 f2 bd 64 e3 5b c0
       -1.1508554 0.41202283 -0.118197545 -3.4357538
0001e0 6b 91 36 bd e0 d3 9d 3e d8 2f 5e be 30 0d 10 bf
       -0.044572275 0.3082571 -0.21697938 -0.5627012
0001f0 37 32 1e 3e d5 25 c7 3e 75 20 31 bf 94 e2 a9 be
       0.15448843 0.3889605 -0.6919015 -0.33180678
000200 43 b5 e0 3d a5 e1 ff be 19 7e 34 bf 41 e3 7c be
       0.10972073 -0.4997684 -0.7050491 -0.24696065
000210 3a f6 13 be c3 9b fe 3e 9b a4 98 bd f2 d0 76 bf
       -0.14449397 0.49728212 -0.07453271 -0.96412575
000220 b6 44 43 3e 06 cf 81 3f 76 08 1c 3f 3f 3c ef be
       0.1906918 1.0141304 0.6095041 -0.46725652
000230 41 a0 04 bf 2e f3 f1 bf dc 89 62 3f b2 49 6f 3e
       -0.5180703 -1.8902338 0.88491607 0.23367956
000240 1c 8c 32 3f 9b 86 ae bd ce f2 5f bf 4d b6 90 3e
       0.6974504 -0.08521768 -0.87479866 0.28264084
000250 3a 6a 02 c0 d0 b3 32 be b7 74 eb bf c7 ef 1d 3f
       -2.0377336 -0.17451406 -1.8394994 0.61693996
000260 94 74 df bc be 02 44 bf c8 12 eb 3d 11 00 1d be
       -0.027277268 -0.76566684 0.114781916 -0.15332057
000270 c2 8c 0f be e4 b5 af 3f 29 ac c0 be b7 78 c9 be
       -0.14018539 1.3727384 -0.37631348 -0.3934991
000280 f3 b9 8b 3e 68 43 98 be 78 0d e5 be 97 80 9b 3e
       0.27290305 -0.29738927 -0.44736838 0.30371544
000290 cb 9f de bd 0f 69 c0 3e 40 b3 60 3f cb 82 0f bf
       -0.10870322 0.37580153 0.87773514 -0.5605895
0002a0 84 12 07 bf dc cc 40 be 9a 99 7a be aa c5 5b bf
       -0.5276263 -0.18828148 -0.24472657 -0.85848486
0002b0 b6 ff 94 3f 08 eb 00 be 66 e5 21 3f 91 ca a5 bf
       1.1640537 -0.12589657 0.6324066 -1.2952443
0002c0 df 34 e5 be b5 c8 2d 3f f6 88 9c 3f db 0b b0 bd
       -0.447669 0.6788438 1.2229297 -0.08596011
0002d0 00 58 1a bf 28 41 a9 3d db 61 d6 be de f8 62 3f
       -0.6029053 0.08264381 -0.41871533 0.8866099
0002e0 ab 25 c7 3f 2a c9 87 be 20 96 59 3f 03 32 e8 3e
       1.555837 -0.26520663 0.849947 0.45350656
0002f0 64 bd c0 3d 33 3a 38 bf 0a 4e 2c 3e 3d eb de be
       0.094111234 -0.71963805 0.16826645 -0.43538848
000300 f8 84 e5 3e 50 9d 26 be 86 05 4d bf 06 9f dc bf
       0.4482801 -0.16270947 -0.80086553 -1.723603
000310 ca 43 11 bf 15 de 29 bf c0 86 1e 3f e3 36 16 3f
       -0.5674406 -0.66354495 0.6192436 0.586775
000320 5f 05 7c bf 8d 1a 2f 3f 95 dc 71 bd 8e fc 01 bf
       -0.98445696 0.6839989 -0.059048254 -0.5077599
000330 4e 31 24 bf ef 53 bc 3e 68 6b 2e bf 3d 3c c4 be
       -0.64137733 0.36782786 -0.6813264 -0.38327208
000340 8a 0d 2d 3a f1 4b ce be b8 a5 b2 bf 91 31 48 be
       0.0006601444 -0.40292314 -1.3956823 -0.19550158
000350 a1 9e 2f bf 05 8e f6 bf d3 1b 28 be ff 19 33 bd
       -0.68601424 -1.9262091 -0.16416864 -0.043725964
000360 89 19 ec 3c be 48 c1 be 69 31 ac bf ea 20 72 bc
       0.02882077 -0.3775081 -1.3452579 -0.014778355
000370 85 e8 d2 be 6c 3a d2 be e4 87 f8 be fe 9a 1c 3e
       -0.41193023 -0.41060197 -0.48541176 0.152935
000380 e9 36 89 bf e8 27 6f be 50 09 11 bf 29 dc 09 bf
       -1.0719882 -0.23355067 -0.56654835 -0.5385156
000390 03 9c cf bd 9b 69 a8 3e 0d 7a db be d8 86 cd be
       -0.10137179 0.3289307 -0.42866555 -0.4014194
0003a0 5d d6 6e bf 4b 68 11 bf b5 17 3d bf 20 df 12 bf
       -0.9329584 -0.56799763 -0.738643 -0.5737171
0003b0 20 5b 61 3f 53 00 fa be 85 09 b9 bf fd 32 ac 3e
       0.8802967 -0.48828372 -1.445603 0.3363265
0003c0 23 6f e8 3c 49 94 3a 3f 0f 58 33 3e
       0.028373307 0.72882515 0.1751406

dijetResNetBlock.reinforce1.conv.batchNorm.gamma f4 [9]
000000 3c 5f a9 3f bf 22 cc 3f 32 3f 0d 40 ad 04 bb 3f
       1.3232188 1.5948104 2.2069821 1.4610802
000010 74 e0 69 40 23 e3 d4 3f 5a e4 9b 3f 64 c6 a8 3f
       3.6543245 1.6631817 1.2179062 1.3185544
000020 fb 91 f5 3f
       1.9185175

dijetResNetBlock.reinforce1.conv.batchNorm.bias f4 [9]
000000 6a 67 60 be b2 bc a6 bd 9d d0 2a be 25 3a f9 be
       -0.2191445 -0.081414595 -0.16681142 -0.48677173
000010 20 f6 48 bf 75 2f 85 be bc d4 29 bf e1 0a d3 3e
       -0.78500557 -0.2601277 -0.6634023 0.41219237
000020 2d de 08 3d
       0.03341501

dijetResNetBlock.reinforce1.conv.batchNorm.m f4 [1, 9, 1]
000000 d0 10 9d be 8b 91 94 bd 73 0c ea 3d 2d 78 94 3e
       -0.3067689 -0.072543226 0.11428156 0.28997937
000010 4c 91 64 bf 69 5c 6f 3f a7 b3 53 3f 24 08 d6 bd
       -0.89284205 0.9350038 0.82696 -0.104507715
000020 70 4b 03 bf
       -0.51286983

dijetResNetBlock.reinforce1.conv.batchNorm.s f4 [1, 9, 1]
000000 17 48 92 3f 14 3c 89 3f 7d ef d7 3f d3 f7 8d 3f
       1.142825 1.0721459 1.6869961 1.1091255
000010 4c 1f 0e 40 fc 7d 95 3f 89 e9 7f 3f 2a 41 c7 3f
       2.2206602 1.1679072 0.9996572 1.5566761
000020 ae 63 b9 3f
       1.4483545

dijetResNetBlock.reinforce1.conv.batchNorm.m_biased f4 [1, 9, 1]
000000 00 00 00 00 00 00 00 00 00 00 00 00 00 00 00 00
       0.0 0.0 0.0 0.0
000010 00 00 00 00 00 00 00 00 00 00 00 00 00 00 00 00
       0.0 0.0 0.0 0.0
000020 00 00 00 00
       0.0

dijetResNetBlock.reinforce1.conv.batchNorm.s_biased f4 [1, 9, 1]
000000 00 00 00 00 00 00 00 00 00 00 00 00 00 00 00 00
       0.0 0.0 0.0 0.0
000010 00 00 00 00 00 00 00 00 00 00 00 00 00 00 00 00
       0.0 0.0 0.0 0.0
000020 00 00 00 00
       0.0

dijetResNetBlock.reinforce1.conv.batchNorm.m_biased_first_moment f4 [1, 9, 1]
000000 00 00 00 00 00 00 00 00 00 00 00 00 00 00 00 00
       0.0 0.0 0.0 0.0
000010 00 00 00 00 00 00 00 00 00 00 00 00 00 00 00 00
       0.0 0.0 0.0 0.0
000020 00 00 00 00
       0.0

dijetResNetBlock.reinforce1.conv.batchNorm.s_biased_first_moment f4 [1, 9, 1]
000000 00 00 00 00 00 00 00 00 00 00 00 00 00 00 00 00
       0.0 0.0 0.0 0.0
000010 00 00 00 00 00 00 00 00 00 00 00 00 00 00 00 00
       0.0 0.0 0.0 0.0
000020 00 00 00 00
       0.0

dijetResNetBlock.reinforce1.conv.batchNorm.m_biased_second_moment f4 [1, 9, 1]
000000 00 00 00 00 00 00 00 00 00 00 00 00 00 00 00 00
       0.0 0.0 0.0 0.0
000010 00 00 00 00 00 00 00 00 00 00 00 00 00 00 00 00
       0.0 0.0 0.0 0.0
000020 00 00 00 00
       0.0

dijetResNetBlock.reinforce1.conv.batchNorm.s_biased_second_moment f4 [1, 9, 1]
000000 00 00 00 00 00 00 00 00 00 00 00 00 00 00 00 00
       0.0 0.0 0.0 0.0
000010 00 00 00 00 00 00 00 00 00 00 00 00 00 00 00 00
       0.0 0.0 0.0 0.0
000020 00 00 00 00
       0.0

dijetResNetBlock.reinforce1.conv.batchNorm.m_first_moment f4 [1, 9, 1]
000000 00 00 00 00 00 00 00 00 00 00 00 00 00 00 00 00
       0.0 0.0 0.0 0.0
000010 00 00 00 00 00 00 00 00 00 00 00 00 00 00 00 00
       0.0 0.0 0.0 0.0
000020 00 00 00 00
       0.0

dijetResNetBlock.reinforce1.conv.batchNorm.s_first_moment f4 [1, 9, 1]
000000 00 00 00 00 00 00 00 00 00 00 00 00 00 00 00 00
       0.0 0.0 0.0 0.0
000010 00 00 00 00 00 00 00 00 00 00 00 00 00 00 00 00
       0.0 0.0 0.0 0.0
000020 00 00 00 00
       0.0

dijetResNetBlock.reinforce1.conv.batchNorm.m_second_moment f4 [1, 9, 1]
000000 00 00 00 00 00 00 00 00 00 00 00 00 00 00 00 00
       0.0 0.0 0.0 0.0
000010 00 00 00 00 00 00 00 00 00 00 00 00 00 00 00 00
       0.0 0.0 0.0 0.0
000020 00 00 00 00
       0.0

dijetResNetBlock.reinforce1.conv.batchNorm.s_second_moment f4 [1, 9, 1]
000000 00 00 00 00 00 00 00 00 00 00 00 00 00 00 00 00
       0.0 0.0 0.0 0.0
000010 00 00 00 00 00 00 00 00 00 00 00 00 00 00 00 00
       0.0 0.0 0.0 0.0
000020 00 00 00 00
       0.0

dijetResNetBlock.convJ.module.weight f4 [9, 9, 1]
000000 d8 2c d0 bf 71 38 97 bf 4a 2f 85 3e 87 19 0c 3e
       -1.6263685 -1.18141 0.2601264 0.13681613
000010 81 27 65 bf 26 aa 78 bf 99 6e 8d be b1 4c ab 3e
       -0.89513403 -0.97134626 -0.27623442 0.33456948
000020 ae 25 ae bf 9f b8 00 3e 1e 79 9d 3e 06 92 9e be
       -1.3605249 0.12570427 0.30756468 -0.30970782
000030 7c db a4 3e 0b 54 95 bf 04 50 7b 3c ad c9 48 be
       0.32198703 -1.1666273 0.015338901 -0.19608183
000040 b0 fa ab 3e 1a 5a c7 3e 7a a2 70 bf 90 05 80 3f
       0.33589697 0.3893593 -0.9399792 1.0001698
000050 b1 22 c2 bf fd cd 75 be c5 68 fc 3e ae 9c 5e bf
       -1.5166837 -0.2400436 0.49298683 -0.86957824
000060 4d 46 6f bf 18 66 58 bf aa 8a 3b bf 33 66 50 bf
       -0.93466645 -0.8453078 -0.7325846 -0.81405944
000070 a2 26 8a be 8d 2a 22 3e 60 fe 0e bf 87 35 36 3f
       -0.269826 0.15836544 -0.55856895 0.71175426
000080 85 dc ff be 61 be f3 bf 86 45 67 bf eb 6c b2 be
       -0.4997293 -1.9042474 -0.9034046 -0.34848723
000090 2f b7 59 3e 82 7f 32 bf e2 8e 70 3f 1e 8a 00 40
       0.21261285 -0.6972581 0.9396802 2.00843
0000a0 ed 4e 76 bd eb f8 2d 40 d2 d7 73 3f bb 92 ac bf
       -0.060133863 2.7183177 0.9525119 -1.3482279
0000b0 ef 85 16 bf fb 90 2c 3d 14 ba ea be c9 4e ad be
       -0.58798116 0.04213045 -0.4584509 -0.3384917
0000c0 e6 0b 5b bf cc 3a c9 be 22 17 a8 be c4 a1 3a bf
       -0.8556503 -0.3930267 -0.3283015 -0.72903085
0000d0 1b 2c 8a bf 7b c6 c3 3c 0d 9d 10 3e 57 33 6a 3e
       -1.079471 0.023898354 0.1412241 0.22871147
0000e0 1e 83 2a bf 3c 72 f7 bf cb e0 3a bf 4d 7e 0d be
       -0.6660632 -1.9331737 -0.72999257 -0.13817711
0000f0 25 ca a9 3d e8 d9 1a 3d 6d aa 78 bd 40 05 6c bf
       0.08290509 0.037805468 -0.060709406 -0.9219551
000100 6c 15 f8 bd 18 a5 01 3e 5c 75 dc ba 18 67 06 bf
       -0.12113461 0.12660635 -0.0016819644 -0.5250106
000110 4e a0 90 3e 4d 96 56 bf 11 30 19 3f 8c 58 0e bf
       0.28247303 -0.8382309 0.5983897 -0.5560386
000120 b4 4c be 3f c6 c9 2f 3e 84 df 7c 3f bd 12 8b 3f
       1.4867158 0.17166814 0.9877856 1.0865093
000130 84 5c 75 bf 0d cc 14 3c b3 af 82 3f 1f a5 00 3e
       -0.9584429 0.009081853 1.0209869 0.12562989
000140 74 56 04 3f
       0.51694417

dijetResNetBlock.convJ.module.bias f4 [9]
000000 52 c7 05 be 5d be f1 3e 6a 7e da 3e c5 cd 99 3f
       -0.13064316 0.47215548 0.4267457 1.2015921
000010 dd 51 be bf 83 1c 9f 3f 3b 0e 07 be 04 c8 d2 3d
       -1.4868733 1.2430576 -0.13189022 0.10292056
000020 6e b7 40 bf
       -0.7527989

dijetResNetBlock.reinforce2.conv.module.weight f4 [9, 9, 3]
000000 a5 bc 0c 3e 91 5b 6f bf 3e f9 97 3e d4 60 c7 3d
       0.13743837 -0.93499094 0.29682344 0.097352654
000010 45 51 89 bf d8 a1 04 3f 97 a3 5a 3f 3b 8f b3 bb
       -1.0727926 0.51809454 0.8540587 -0.005479721
000020 19 e8 8e bf 0d 54 e6 3d fa c4 cd 3d 74 be 5b bf
       -1.116458 0.112465 0.10047336 -0.85837483
000030 36 14 8a 3f 65 eb 98 3f fc 05 af bf 17 8c 87 bf
       1.0787418 1.1946837 -1.3673701 -1.0589627
000040 52 a0 94 3d 32 da cb be 98 cc 83 3b 85 38 50 3f
       0.07257141 -0.39814907 0.004022192 0.8133624
000050 bd ff b4 3e a7 c3 0d bf 4b 2d 6f bf e1 00 22 3f
       0.35351363 -0.55376667 -0.93428487 0.6328259
000060 71 63 18 3d cb 96 aa 3e d6 de 90 be fb 6b 1f bf
       0.03720421 0.3331817 -0.2829501 -0.6227414
000070 66 00 18 bf 2e 3f 9a be 53 de 77 be e7 d9 86 3f
       -0.5937561 -0.30126327 -0.24205904 1.0535249
000080 e1 d7 09 bf 31 b7 d3 be 47 ad 9b 3f 7b 1d 0f 3f
       -0.5384503 -0.413507 1.2162255 0.5590436
000090 b0 b1 da bd ec 40 08 bf ce 37 b0 3f 0a 49 6b be
       -0.106784225 -0.5322406 1.376703 -0.22977081
0000a0 b2 a2 43 bf 73 5b 62 bf 35 e0 83 bf 1b 91 7f bf
       -0.7642013 -0.8842079 -1.0302798 -0.9983079
0000b0 19 bd aa 3e cb 96 52 bf d5 0a c4 3e a4 55 33 3f
       0.33347395 -0.8226134 0.38289514 0.7005255
0000c0 0f 8b 12 bf 22 1d 94 be b1 e3 d0 3c 4e 85 b8 3c
       -0.57243437 -0.28928477 0.025499197 0.022524502
0000d0 01 cc b1 3e 12 93 3e be ce 37 4c bf cf bd 37 bf
       0.34725955 -0.1861079 -0.7977265 -0.71774
0000e0 3f aa cf bf ab 95 89 be c1 0c 01 bf c9 e2 1d bf
       -1.622383 -0.26872 -0.50410086 -0.6167417
0000f0 52 25 a0 3c f2 82 24 bf 56 f5 69 3e 84 90 7f be
       0.019549046 -0.64262307 0.22847494 -0.24957472
000100 51 38 83 3d 25 43 8f 3f 6a f6 3a 3f fe 9a 55 bf
       0.06407226 1.1192366 0.7303225 -0.83439624
000110 81 5c e9 3e dd fc fa 3e d5 ee 30 3f 16 95 06 bf
       0.45578387 0.49021044 0.6911443 -0.5257124
000120 14 fe 2d 3f a6 7e 13 bf 4a 5c 2d 3f 8e 1a 99 be
       0.6796582 -0.57615125 0.67718947 -0.29903072
000130 56 1d 1c be bc 81 7b bf 5f c9 30 3f 9a 7b 37 3f
       -0.15245566 -0.98244834 0.6905727 0.71672976
000140 57 c1 c5 3e 80 30 88 be b7 bc 2e bf fa 4a 03 3e
       0.3862407 -0.26599503 -0.68256706 0.1282157
000150 15 2b 9b bd 79 91 0c 3f b6 fb f4 3d eb 07 5c be
       -0.075765766 0.54909474 0.119620726 -0.21487395
000160 ff cc 8f 3f b3 6f 87 3e f5 cb 1d 3f 1d f4 ab 3f
       1.1234435 0.26452407 0.6163934 1.3433872
000170 76 f3 83 bd 2f c2 89 3d 46 24 9f 3f 0a 0f 94 bf
       -0.06442921 0.06726491 1.2432945 -1.156709
000180 0c ea d3 3d 23 31 11 bf 6d 96 cb be 9a f3 b2 be
       0.10347375 -0.567156 -0.39763203 -0.34951478
000190 eb 14 f5 be 6f 25 c6 be 12 c1 2c be 72 05 0e be
       -0.47867522 -0.38700435 -0.16870525 -0.13869265
0001a0 a2 ad c0 be 1a b9 40 3f b0 83 9f 3f 91 d2 ba bf
       -0.3763247 0.7528244 1.2462063 -1.459551
0001b0 dc eb 9b bd 16 77 31 bf 62 c1 42 bf 61 7d bc 3f
       -0.07613346 -0.69322336 -0.7607633 1.4725763
0001c0 eb 31 fd 3c ec 12 5c 3e 6e 58 ad be a8 97 04 bf
       0.030907592 0.21491593 -0.3385653 -0.5179391
0001d0 d1 1a 36 bf a6 d2 a2 be 28 4f ab 3e b3 bc 32 bf
       -0.7113467 -0.31801337 0.3345883 -0.6981918
0001e0 0b 80 e9 be fa f0 d2 3e ed db ec be 98 a1 01 40
       -0.45605502 0.41199476 -0.4626154 2.025488
0001f0 ee a4 48 bf 18 95 79 bf f7 64 22 bf f9 a2 35 bf
       -0.7837666 -0.97493124 -0.6343531 -0.709518
000200 c5 f4 e3 3e 66 97 92 3f 55 1d 54 3f bd c2 8b be
       0.44522682 1.1452453 0.8285726 -0.2729701
000210 9b cf 22 3f d5 3e 16 3f ed bb 9a 3e 8c c1 4e bf
       0.6359803 0.58689624 0.302215 -0.8076408
000220 ca 21 16 bf 61 5d 50 3e 0b 0f 63 3e c8 64 c0 bf
       -0.5864531 0.20348121 0.22173707 -1.5030756
000230 7f 13 d7 be 31 d9 19 bc 46 00 a7 be ef fe ab bf
       -0.42007062 -0.009390161 -0.32617396 -1.3437175
000240 2e d4 81 3f aa 57 28 3f 9c df ca be 6e e7 0d 3f
       1.0142877 0.65758765 -0.39623725 0.5543126
000250 64 27 c9 be f6 56 30 bf f5 21 22 3f ab 28 93 3e
       -0.39287865 -0.6888269 0.63333064 0.28741965
000260 24 83 16 bf 41 47 4e bf dc 91 c5 be 1e 16 56 bf
       -0.58793855 -0.80577475 -0.38587844 -0.836275
000270 c3 d0 fb be db 61 63 bf b1 f5 ea 3e 6f 3f 13 bf
       -0.4918271 -0.8882119 0.45890573 -0.57518667
000280 71 6e a1 3e 6c f6 36 3f 6f 57 47 3f a2 0e 2a bf
       0.31529573 0.7146976 0.7786779 -0.6642858
000290 de af ab 3e 1d ea 10 3e 8f e8 02 3f 50 04 0f bd
       0.33532614 0.14151807 0.51136106 -0.034916222
0002a0 e4 14 1a be aa 88 98 be 47 b9 1b 3f f4 4b db bf
       -0.15047032 -0.29791766 0.60829586 -1.7132554
0002b0 3c b4 b8 bf a3 19 ba be b0 5d a4 be 37 f4 18 3f
       -1.4430003 -0.36347684 -0.32102728 0.5974764
0002c0 68 74 1d 3f de f1 cf be 09 b8 58 bf a0 64 23 bf
       0.61505747 -0.40614218 -0.84655815 -0.63825417
0002d0 34 d8 cb 3e ea 3e 38 3d 91 25 eb 3e 7b 39 7f 3f
       0.39813387 0.044981875 0.45927098 0.99697083
0002e0 9b 94 76 3f 21 dc 9f be e1 82 a6 3f a6 14 2e 3e
       0.96320504 -0.31222633 1.3008691 0.17000064
0002f0 1e d9 fb 3e 7f 77 2f 3f e5 9e 91 bd 2e d2 0d be
       0.49189085 0.6854171 -0.07110385 -0.13849708
000300 1e 7c 2f 3d cb 57 fe 3e 48 6f d6 3f a3 2f 27 3f
       0.042842977 0.49676356 1.675271 0.6530706
000310 cd 8c be 3d a4 54 8a be dd 84 1a bf 81 14 b1 bd
       0.09304199 -0.270177 -0.60358983 -0.08646489
000320 9d e6 2e bf a6 a1 2d 3c 4f 83 dc 3f 2e 11 2c bf
       -0.6832064 0.010597622 1.7227572 -0.67213714
000330 41 2f 45 be b6 92 8f be 74 74 8d be a3 cd 06 3f
       -0.19256307 -0.2804162 -0.2762791 0.52657527
000340 a3 2f 96 3e bd f2 04 3f d8 8b 62 be 30 99 dc 3b
       0.2933322 0.5193289 -0.22123659 0.0067321286
000350 22 7b 89 3f 3e ab ad 3f 72 f2 72 3f d4 80 0d 3f
       1.0740702 1.3567884 0.9490119 0.552747
000360 a7 82 a7 bf 06 7f d8 3d 07 c3 26 3e 37 9b c1 be
       -1.3086747 0.10571103 0.16285335 -0.37813732
000370 5c a5 84 3f e3 35 01 3e 23 4f d2 3f 5a d1 15 40
       1.0362964 0.12618212 1.6430401 2.3409028
000380 9a fc 0a 3f b5 a2 ca 3e c2 60 7d 3e ed 3d 19 3f
       0.5429169 0.3957726 0.24743941 0.59860116
000390 45 3a 0e 3f aa 4e a2 bf a5 96 08 be cc 48 67 3e
       0.5555766 -1.2680256 -0.13338716 0.22586364
0003a0 f3 9f 96 be 3b 4b 7f 3e 80 d8 07 c0 ea 71 b5 bf
       -0.29418907 0.24931042 -2.122589 -1.4175389
0003b0 ba 35 66 3e d6 10 13 bf f3 40 a7 be 5a 13 b6 3e
       0.22481433 -0.57447565 -0.3266674 0.3556164
0003c0 f2 08 86 bf 9e 69 a9 be 07 1a bb 3b
       -1.047148 -0.33088392 0.00570989

dijetResNetBlock.reinforce2.conv.batchNorm.gamma f4 [9]
000000 de 37 bb 3f ac 93 93 3f dc c3 94 3f 30 72 99 3f
       1.4626424 1.1529441 1.1622272 1.1987972
000010 c4 91 33 3f 99 29 b9 3f 95 7d 8a 3f 06 da 8d 3f
       0.70144296 1.446582 1.0819575 1.108216
000020 0b 5b 76 3f
       0.9623267

dijetResNetBlock.reinforce2.conv.batchNorm.bias f4 [9]
000000 9a a8 63 bd 8c cf 75 be 7d 19 cb be 07 a3 01 3f
       -0.055580713 -0.24004954 -0.39667884 0.50639385
000010 3c 0b 38 3f 5d f1 2a 3e fa 76 3c 3f 47 89 1b be
       0.7189214 0.16693635 0.73619044 -0.15189086
000020 aa 89 8f 3e
       0.28034717

dijetResNetBlock.reinforce2.conv.batchNorm.m f4 [1, 9, 1]
000000 06 91 61 c0 c8 b1 c3 bf 5d 6d ab 3e 90 12 1d bf
       -3.5244765 -1.528863 0.33481875 -0.6135645
000010 b2 67 c2 3e 56 e3 62 bf 06 08 c3 bf b3 1c f6 be
       0.37969738 -0.8862814 -1.5236824 -0.4806877
000020 54 8a 49 40
       3.1490679

dijetResNetBlock.reinforce2.conv.batchNorm.s f4 [1, 9, 1]
000000 a2 21 13 40 ec c4 34 40 71 75 3b 40 e9 ad 63 40
       2.2989278 2.8245192 2.929043 3.5574896
000010 ac b4 32 40 da 99 22 40 b7 31 27 40 37 0a ef 3f
       2.7922773 2.5406404 2.6124094 1.8674992
000020 72 8d 85 40
       4.1735163

dijetResNetBlock.reinforce2.conv.batchNorm.m_biased f4 [1, 9, 1]
000000 00 00 00 00 00 00 00 00 00 00 00 00 00 00 00 00
       0.0 0.0 0.0 0.0
000010 00 00 00 00 00 00 00 00 00 00 00 00 00 00 00 00
       0.0 0.0 0.0 0.0
000020 00 00 00 00
       0.0

dijetResNetBlock.reinforce2.conv.batchNorm.s_biased f4 [1, 9, 1]
000000 00 00 00 00 00 00 00 00 00 00 00 00 00 00 00 00
       0.0 0.0 0.0 0.0
000010 00 00 00 00 00 00 00 00 00 00 00 00 00 00 00 00
       0.0 0.0 0.0 0.0
000020 00 00 00 00
       0.0

dijetResNetBlock.reinforce2.conv.batchNorm.m_biased_first_moment f4 [1, 9, 1]
000000 00 00 00 00 00 00 00 00 00 00 00 00 00 00 00 00
       0.0 0.0 0.0 0.0
000010 00 00 00 00 00 00 00 00 00 00 00 00 00 00 00 00
       0.0 0.0 0.0 0.0
000020 00 00 00 00
       0.0

dijetResNetBlock.reinforce2.conv.batchNorm.s_biased_first_moment f4 [1, 9, 1]
000000 00 00 00 00 00 00 00 00 00 00 00 00 00 00 00 00
       0.0 0.0 0.0 0.0
000010 00 00 00 00 00 00 00 00 00 00 00 00 00 00 00 00
       0.0 0.0 0.0 0.0
000020 00 00 00 00
       0.0

dijetResNetBlock.reinforce2.conv.batchNorm.m_biased_second_moment f4 [1, 9, 1]
000000 00 00 00 00 00 00 00 00 00 00 00 00 00 00 00 00
       0.0 0.0 0.0 0.0
000010 00 00 00 00 00 00 00 00 00 00 00 00 00 00 00 00
       0.0 0.0 0.0 0.0
000020 00 00 00 00
       0.0

dijetResNetBlock.reinforce2.conv.batchNorm.s_biased_second_moment f4 [1, 9, 1]
000000 00 00 00 00 00 00 00 00 00 00 00 00 00 00 00 00
       0.0 0.0 0.0 0.0
000010 00 00 00 00 00 00 00 00 00 00 00 00 00 00 00 00
       0.0 0.0 0.0 0.0
000020 00 00 00 00
       0.0

dijetResNetBlock.reinforce2.conv.batchNorm.m_first_moment f4 [1, 9, 1]
000000 00 00 00 00 00 00 00 00 00 00 00 00 00 00 00 00
       0.0 0.0 0.0 0.0
000010 00 00 00 00 00 00 00 00 00 00 00 00 00 00 00 00
       0.0 0.0 0.0 0.0
000020 00 00 00 00
       0.0

dijetResNetBlock.reinforce2.conv.batchNorm.s_first_moment f4 [1, 9, 1]
000000 00 00 00 00 00 00 00 00 00 00 00 00 00 00 00 00
       0.0 0.0 0.0 0.0
000010 00 00 00 00 00 00 00 00 00 00 00 00 00 00 00 00
       0.0 0.0 0.0 0.0
000020 00 00 00 00
       0.0

dijetResNetBlock.reinforce2.conv.batchNorm.m_second_moment f4 [1, 9, 1]
000000 00 00 00 00 00 00 00 00 00 00 00 00 00 00 00 00
       0.0 0.0 0.0 0.0
000010 00 00 00 00 00 00 00 00 00 00 00 00 00 00 00 00
       0.0 0.0 0.0 0.0
000020 00 00 00 00
       0.0

dijetResNetBlock.reinforce2.conv.batchNorm.s_second_moment f4 [1, 9, 1]
000000 00 00 00 00 00 00 00 00 00 00 00 00 00 00 00 00
       0.0 0.0 0.0 0.0
000010 00 00 00 00 00 00 00 00 00 00 00 00 00 00 00 00
       0.0 0.0 0.0 0.0
000020 00 00 00 00
       0.0

dijetResNetBlock.multijetAttention.attention.q_linear.module.weight f4 [8, 9, 1]
000000 34 7c 2f bf 94 eb ef be aa 53 07 3e 24 b4 74 3f
       -0.68548894 -0.4685942 0.13215509 0.9558737
000010 17 20 34 bf b3 69 13 be 45 9a 12 bd 21 a0 de 3e
       -0.70361465 -0.1439579 -0.035791654 0.43481544
000020 18 92 5a bf 55 e7 3e 3f 52 f9 84 bd d4 b9 91 3c
       -0.8537917 0.74571735 -0.064928666 0.017788805
000030 c1 89 35 bf 22 76 d1 3e 51 a6 bd be da fb ef bd
       -0.7091332 0.4091044 -0.37040952 -0.11717959
000040 62 b4 03 3f 88 27 5c 3f e0 d7 62 3d a9 75 5a bf
       0.5144712 0.8599782 0.055381656 -0.85335785
000050 e3 21 d3 3e 7d dd 06 bf de fa 1b 3f 1c a0 e5 bb
       0.4123679 -0.52681714 0.6092967 -0.007007612
000060 7d 5a ae bd d7 a9 b0 3e 6d d9 d8 be 33 31 da bb
       -0.08513353 0.34504578 -0.42353383 -0.006658697
000070 44 5f ac 3f 95 65 fa bd 91 31 37 3f 35 c0 77 bf
       1.3466573 -0.122264065 0.7156001 -0.9677766
000080 7b 26 4d 3e 7d 5e d9 3e 0c 75 47 bf 01 c0 95 bd
       0.2003421 0.424549 -0.77912974 -0.073120125
000090 51 cf dc bd a2 04 1e be 63 a2 a9 3e 03 6c c4 bf
       -0.1078173 -0.15431455 0.33131704 -1.5345463
0000a0 34 fb 3c 3f 29 01 a8 bd 22 1b 04 3f 0e 9e 6c be
       0.73820806 -0.08203346 0.516039 -0.23107168
0000b0 64 2f 43 bf 22 d0 62 3f f4 8b 5b bf 82 a6 da bf
       -0.7624419 0.88598835 -0.85760427 -1.7082064
0000c0 ea f5 63 3f 8a a9 b5 be 18 3f 05 bf 3c e0 ed be
       0.8904711 -0.3548091 -0.520494 -0.4646014
0000d0 22 8c eb 3e 6a b5 e3 3e 23 3c 84 3e 16 7f fe 3e
       0.4600535 0.44474345 0.2582713 0.49706334
0000e0 d4 5c c8 3e 08 37 3b 3f 94 90 4a bf 61 6a 59 3f
       0.39133322 0.73130846 -0.7912686 0.84927946
0000f0 d5 fc 05 40 af c8 20 be be 41 0f 3f 8a 5c 6e 3f
       2.0935566 -0.15701555 0.5595969 0.93109953
000100 a3 db a9 bf 57 7d c5 3c ef b6 d1 be c0 39 be bf
       -1.3270153 0.024107618 -0.4095988 -1.4861374
000110 70 24 0a bf 02 1e ef 3e c0 4d 17 bf 02 3e d7 3d
       -0.5396185 0.46702582 -0.5910301 0.10509874

dijetResNetBlock.multijetAttention.attention.q_linear.module.bias f4 [8]
000000 1b b6 9c 3e 08 61 b7 3f a8 6a 1c bf 5f 3a 12 bf
       0.30607685 1.4326487 -0.61100245 -0.5712032
000010 ed 5f 8e be e7 e9 9b 3c 02 2d 6e 3f bd f3 a0 bc
       -0.2780756 0.019032432 0.93037426 -0.019647473

dijetResNetBlock.multijetAttention.attention.k_linear.module.weight f4 [8, 5, 1]
000000 c2 24 06 3f 3f 36 9b bc b2 11 51 be 36 14 84 bd
       0.5239984 -0.018946765 -0.20416906 -0.064491674
000010 09 6e 46 be f3 f5 2a bf 2c 09 0c 3f 81 53 23 bf
       -0.19377913 -0.6678154 0.54701495 -0.6379929
000020 ad cc 4c 3f 42 22 6a 3f 15 d8 49 bd 8a bb 80 bf
       0.7999981 0.91458523 -0.049278338 -1.0057232
000030 36 0c 54 3f 09 57 27 be f9 84 00 3e c8 34 f7 3e
       0.8283113 -0.16341795 0.12550725 0.48282456
000040 6a c2 79 3f 5c a6 b6 be 06 a9 ee be 4e 3b 2c bf
       0.9756228 -0.35673797 -0.4661333 -0.6727799
000050 29 47 c8 be b9 26 3d bf 25 01 61 3f 1d 45 a7 3f
       -0.3911679 -0.7388721 0.8789237 1.3067967
000060 18 05 c6 3d 8e 42 9b be 6e 75 0d 40 98 f5 88 be
       0.0966894 -0.30324215 2.2102923 -0.26749873
000070 ff 10 ac 3e 97 01 e7 3e 02 7a bc 3e 54 f6 4a bf
       0.33606717 0.451184 0.36811835 -0.79282117
000080 f7 6b b3 bf eb ff a9 bf 49 1f aa 3f ec 79 06 bf
       -1.4017323 -1.3281225 1.3290797 -0.5252979
000090 df b1 cf bd a2 c3 85 3f e9 96 88 3c c2 77 a1 3f
       -0.10141348 1.0450327 0.016673522 1.2614672

dijetResNetBlock.multijetAttention.attention.k_linear.module.bias f4 [8]
000000 0e e8 d2 bd 54 fa 34 3e 76 df b3 be e7 9c 7f 3d
       -0.10298167 0.17673618 -0.35131425 0.062405493
000010 59 58 dd be 82 f3 8e 3e a6 b8 ec 3e 1d af 29 be
       -0.43231466 0.27920157 0.46234626 -0.16570707

dijetResNetBlock.multijetAttention.attention.v_linear.module.weight f4 [6, 5, 1]
000000 db 5e dd bd 05 0b 31 bf 73 b3 e0 3d d0 c5 27 bf
       -0.10809108 -0.6915744 0.10971727 -0.6553621
000010 3e b4 39 3f 2d c0 bf 3e 80 5a 6e be b5 67 ff 3d
       0.7254065 0.37451306 -0.2327671 0.124709524
000020 ab fb c5 be fc 27 c6 bf 0f 4f 1b bf f5 b3 85 bf
       -0.3866857 -1.5480952 -0.6066751 -1.0445544
000030 7e fd a6 3e 0e af 36 3e 1a 59 84 be c9 d6 39 bf
       0.32615274 0.17840216 -0.2584923 -0.7259336
000040 83 2a a3 bf 0a 56 19 3f 62 24 76 3f b3 56 93 3c
       -1.2747349 0.5989691 0.96149266 0.017985677
000050 01 31 2e 3f c1 f8 06 c0 a4 fe 4e bf f4 ca c9 be
       0.68043524 -2.1089327 -0.808573 -0.39412653
000060 e9 94 33 be 83 8b 76 3f ce c5 82 bf 59 06 5f 3f
       -0.17537273 0.9630663 -1.0216615 0.8711906
000070 b8 cd 85 3d df a3 1e be
       0.06533378 -0.154922

dijetResNetBlock.multijetAttention.attention.v_linear.module.bias f4 [6]
000000 29 49 27 bf 09 76 84 3f e4 bf b2 bf d8 dd 59 bf
       -0.6534601 1.0348521 -1.396481 -0.8510413
000010 16 44 5d 3d be 7f d6 3e
       0.05402001 0.41894335

dijetResNetBlock.multijetAttention.attention.o_linear.module.weight f4 [9, 6, 1]
000000 7d 17 41 3d 9a 17 62 3f 45 c2 20 bf f1 9f c4 3d
       0.04714154 0.88317263 -0.6279643 0.09600819
000010 cf 7d 87 3f b8 f2 80 3f 5d 68 3e 3f c5 f9 16 be
       1.0585269 1.0074072 0.74377996 -0.14743717
000020 2e 55 0f 40 6b c8 15 be 51 5c 64 bf 43 8c 69 be
       2.239574 -0.14627235 -0.89203364 -0.22807412
000030 de d3 74 3e 03 ea 7d be 72 73 41 bf 3d e8 b6 3d
       0.23908946 -0.247963 -0.7556678 0.08931015
000040 18 fb c4 bf 8d 3a e2 3d 75 57 4a 3f d7 ef 6f 3f
       -1.5389128 0.11046324 0.790397 0.9372534
000050 1c 37 37 3f 30 05 87 bf 1d 09 22 3f 4c 10 29 3e
       0.71568465 -1.0548458 0.63295156 0.16510123
000060 3c 32 94 3f 8b ad 99 bf 08 47 11 3f 73 12 8e 3f
       1.157783 -1.2006086 0.5674901 1.109938
000070 15 b1 a2 bd 1c d0 a6 3e 99 b5 64 bf 79 9f bc 3e
       -0.07943932 0.3258065 -0.89339596 0.36840418
000080 4e 1b 00 bf 34 f0 db bf 5e 50 d1 be 87 3b dd 3c
       -0.50041664 -1.7182679 -0.40881628 0.027005924
000090 82 ec c0 3e 39 c6 83 3f 50 ea 5c be e8 03 8c bf
       0.3768044 1.0294868 -0.21573758 -1.0938692
0000a0 22 5a 18 bf ed 83 44 3f 46 a4 05 3e f4 46 49 3f
       -0.5951253 0.767638 0.13050947 0.7862389
0000b0 ab 3b 35 bf 69 2b 6d bf 4c 1a 2a be 56 a7 6b bf
       -0.7079417 -0.92644364 -0.16611594 -0.9205221
0000c0 37 b5 8c 3e de 29 59 3d 1d 62 da be b4 3d 16 3f
       0.27482006 0.053018443 -0.4265298 0.586879
0000d0 1a de af 3f ef 7f c5 3f
       1.3739655 1.5429667

dijetResNetBlock.multijetAttention.attention.o_linear.batchNorm.gamma f4 [9]
000000 eb f4 b5 3e f2 4e fb 3f cc 8d 9f 3f 20 27 3f 3f
       0.3553842 1.9633467 1.2465148 0.74669075
000010 f1 0c b4 3f f8 4a 68 3f ff cf 48 3f 99 e4 18 3f
       1.4066449 0.90739393 0.78442377 0.5972381
000020 64 30 ea 3f
       1.8296018

dijetResNetBlock.multijetAttention.attention.o_linear.batchNorm.bias f4 [9]
000000 00 00 00 00 00 00 00 00 00 00 00 00 00 00 00 00
       0.0 0.0 0.0 0.0
000010 00 00 00 00 00 00 00 00 00 00 00 00 00 00 00 00
       0.0 0.0 0.0 0.0
000020 00 00 00 00
       0.0

dijetResNetBlock.multijetAttention.attention.o_linear.batchNorm.m f4 [1, 9, 1]
000000 00 00 00 00 00 00 00 00 00 00 00 00 00 00 00 00
       0.0 0.0 0.0 0.0
000010 00 00 00 00 00 00 00 00 00 00 00 00 00 00 00 00
       0.0 0.0 0.0 0.0
000020 00 00 00 00
       0.0

dijetResNetBlock.multijetAttention.attention.o_linear.batchNorm.s f4 [1, 9, 1]
000000 cd ba 13 40 28 71 22 40 98 64 fe 3f 53 49 c6 3f
       2.3082764 2.5381565 1.9874449 1.5491127
000010 3a 87 00 40 36 48 1b 40 83 09 ae 3f ba 5a 0a 40
       2.0082536 2.4262824 1.3596653 2.1617875
000020 26 b4 5d 40
       3.4641204

dijetResNetBlock.multijetAttention.attention.o_linear.batchNorm.m_biased f4 [1, 9, 1]
000000 00 00 00 00 00 00 00 00 00 00 00 00 00 00 00 00
       0.0 0.0 0.0 0.0
000010 00 00 00 00 00 00 00 00 00 00 00 00 00 00 00 00
       0.0 0.0 0.0 0.0
000020 00 00 00 00
       0.0

dijetResNetBlock.multijetAttention.attention.o_linear.batchNorm.s_biased f4 [1, 9, 1]
000000 00 00 00 00 00 00 00 00 00 00 00 00 00 00 00 00
       0.0 0.0 0.0 0.0
000010 00 00 00 00 00 00 00 00 00 00 00 00 00 00 00 00
       0.0 0.0 0.0 0.0
000020 00 00 00 00
       0.0

dijetResNetBlock.multijetAttention.attention.o_linear.batchNorm.m_biased_first_moment f4 [1, 9, 1]
000000 00 00 00 00 00 00 00 00 00 00 00 00 00 00 00 00
       0.0 0.0 0.0 0.0
000010 00 00 00 00 00 00 00 00 00 00 00 00 00 00 00 00
       0.0 0.0 0.0 0.0
000020 00 00 00 00
       0.0

dijetResNetBlock.multijetAttention.attention.o_linear.batchNorm.s_biased_first_moment f4 [1, 9, 1]
000000 00 00 00 00 00 00 00 00 00 00 00 00 00 00 00 00
       0.0 0.0 0.0 0.0
000010 00 00 00 00 00 00 00 00 00 00 00 00 00 00 00 00
       0.0 0.0 0.0 0.0
000020 00 00 00 00
       0.0

dijetResNetBlock.multijetAttention.attention.o_linear.batchNorm.m_biased_second_moment f4 [1, 9, 1]
000000 00 00 00 00 00 00 00 00 00 00 00 00 00 00 00 00
       0.0 0.0 0.0 0.0
000010 00 00 00 00 00 00 00 00 00 00 00 00 00 00 00 00
       0.0 0.0 0.0 0.0
000020 00 00 00 00
       0.0

dijetResNetBlock.multijetAttention.attention.o_linear.batchNorm.s_biased_second_moment f4 [1, 9, 1]
000000 00 00 00 00 00 00 00 00 00 00 00 00 00 00 00 00
       0.0 0.0 0.0 0.0
000010 00 00 00 00 00 00 00 00 00 00 00 00 00 00 00 00
       0.0 0.0 0.0 0.0
000020 00 00 00 00
       0.0

dijetResNetBlock.multijetAttention.attention.o_linear.batchNorm.m_first_moment f4 [1, 9, 1]
000000 00 00 00 00 00 00 00 00 00 00 00 00 00 00 00 00
       0.0 0.0 0.0 0.0
000010 00 00 00 00 00 00 00 00 00 00 00 00 00 00 00 00
       0.0 0.0 0.0 0.0
000020 00 00 00 00
       0.0

dijetResNetBlock.multijetAttention.attention.o_linear.batchNorm.s_first_moment f4 [1, 9, 1]
000000 00 00 00 00 00 00 00 00 00 00 00 00 00 00 00 00
       0.0 0.0 0.0 0.0
000010 00 00 00 00 00 00 00 00 00 00 00 00 00 00 00 00
       0.0 0.0 0.0 0.0
000020 00 00 00 00
       0.0

dijetResNetBlock.multijetAttention.attention.o_linear.batchNorm.m_second_moment f4 [1, 9, 1]
000000 00 00 00 00 00 00 00 00 00 00 00 00 00 00 00 00
       0.0 0.0 0.0 0.0
000010 00 00 00 00 00 00 00 00 00 00 00 00 00 00 00 00
       0.0 0.0 0.0 0.0
000020 00 00 00 00
       0.0

dijetResNetBlock.multijetAttention.attention.o_linear.batchNorm.s_second_moment f4 [1, 9, 1]
000000 00 00 00 00 00 00 00 00 00 00 00 00 00 00 00 00
       0.0 0.0 0.0 0.0
000010 00 00 00 00 00 00 00 00 00 00 00 00 00 00 00 00
       0.0 0.0 0.0 0.0
000020 00 00 00 00
       0.0

dijetEmbed.module.weight f4 [9, 9, 1]
000000 52 81 21 bd 2d c1 3c bf 07 e8 1a 3e 13 a4 e7 3c
       -0.03942997 -0.7373226 0.15127574 0.028276479
000010 04 a1 1f bd 4f 5d 49 3d 2d d7 f6 bd f4 4e c3 3d
       -0.038971916 0.04916125 -0.1205276 0.095365435
000020 1d a5 01 be 61 4b c1 3e 12 12 04 3c 6e a0 0d bf
       -0.12660642 0.37752822 0.008060949 -0.5532292
000030 db db 59 3e 99 28 86 be 89 dd 14 be 41 32 b6 bd
       0.21275274 -0.2620285 -0.14537634 -0.08896304
000040 11 61 d4 be 5e ea 9d bf 53 33 a2 3e 83 6b a2 be
       -0.41480306 -1.2337148 0.31679782 -0.3172265
000050 f7 df 35 be cc a9 b7 bd 74 f1 48 bd cb 46 a3 3e
       -0.17761217 -0.08967933 -0.049058393 0.31889948
000060 6b 73 32 3e e8 46 3a bb 8b 06 03 3f 0f 31 2e 3f
       0.17426841 -0.002842361 0.5118186 0.6804361
000070 51 89 a8 3d 19 98 b1 be ef 3c 56 be ec 28 44 3f
       0.08229316 -0.34686354 -0.20921682 0.7662494
000080 40 6f 46 be 42 cf 5e 3e 92 0a 41 bf e0 7d 3e bf
       -0.19378376 0.2175875 -0.75406754 -0.7441082
000090 bc fc 35 3e 58 80 10 3f 77 4d 68 bf 0b 1a df be
       0.17772192 0.5644584 -0.907432 -0.43574557
0000a0 81 6e 7b be 26 c6 69 bf df 5c e4 be 13 4a bb b9
       -0.24553873 -0.91317976 -0.44602105 -0.0003572261
0000b0 82 89 27 3f d9 8a 79 3e bb 4e 80 3f 20 65 6a bf
       0.65444195 0.24369372 1.0024027 -0.91560555
0000c0 c7 74 b1 be 93 68 a0 3f b7 0b a6 be 89 e1 0b 3f
       -0.34659407 1.2531914 -0.32430813 0.54641014
0000d0 67 0f 0c 3c 18 8c 7c be 02 c6 97 be 8a 75 1a be
       0.008548594 -0.24662817 -0.29643255 -0.150839
0000e0 f8 35 1e be c2 ad c5 3e 03 68 a2 be 95 c6 d3 3e
       -0.15450275 0.3860913 -0.3171998 0.41362444
0000f0 d6 5d 4b bf 92 62 50 3e 05 43 54 bf 44 ae 40 bf
       -0.7944006 0.20350102 -0.82914764 -0.7526591
000100 59 25 43 bf 3c b2 98 3e 12 3b 20 bf cf c4 89 be
       -0.76228863 0.29823482 -0.62590134 -0.26907966
000110 bd df 78 bf 80 21 b0 3e ac c7 f1 be f3 f0 0d 3f
       -0.972164 0.34400558 -0.4722265 0.55445784
000120 34 02 de be fb ef 46 be cb d1 45 be de 28 39 3e
       -0.43361056 -0.19427483 -0.19318311 0.18081996
000130 9b fd 93 be 9a 0c 15 3f 4b 8b 11 3f 2f 8a fc 3e
       -0.28904423 0.58222353 0.5685317 0.49324176
000140 aa 4d bf bf
       -1.4945576

dijetEmbed.module.bias f4 [9]
000000 a9 77 04 3f 48 4a 2e bf e4 6f ef 3e 46 a6 ca 3e
       0.51745087 -0.68082094 0.46765053 0.39579982
000010 a4 47 c2 3c 63 f7 2d 3e 23 fb 3a 3f c5 58 52 3e
       0.023715802 0.16988902 0.73039454 0.20541675
000020 bd 33 09 3f
       0.5359457

quadjetAncillaryEmbed.module.weight f4 [9, 2, 1]
000000 e8 85 14 40 34 31 01 3c a3 3c 96 3e ed 5a 8c bd
       2.320673 0.007885266 0.29343137 -0.0685328
000010 08 96 a8 be 30 34 13 bf d5 32 bb be 3f 13 84 be
       -0.32926965 -0.57501507 -0.3656222 -0.25795934
000020 bd e0 40 bf 02 04 b5 3e 46 50 28 3f ea aa 28 bf
       -0.75342923 0.3535462 0.6574749 -0.65885794
000030 00 3a e6 bd 32 b4 13 3d 97 b1 b5 3e c4 ac 19 bf
       -0.11241531 0.03606052 0.35487053 -0.60029244
000040 6a e9 c8 be 24 e6 30 3e
       -0.3924058 0.17275292

quadjetAncillaryEmbed.module.bias f4 [9]
000000 2a 4b b8 3e d2 0c c0 3c da 8f f0 3e 26 cb 9d bd
       0.35994846 0.023443613 0.4698475 -0.07704763
000010 4b 7f c9 be 02 32 5e 3f 3f e3 2b 3d 4c cb 03 3e
       -0.3935493 0.86795056 0.041964766 0.1287052
000020 dc 69 aa 3e
       0.3328389

quadjetResNetBlock.reinforce1.sym.weight f4 [9, 1, 2]
000000 00 00 00 3f 00 00 00 3f 00 00 00 3f 00 00 00 3f
       0.5 0.5 0.5 0.5
000010 00 00 00 3f 00 00 00 3f 00 00 00 3f 00 00 00 3f
       0.5 0.5 0.5 0.5
000020 00 00 00 3f 00 00 00 3f 00 00 00 3f 00 00 00 3f
       0.5 0.5 0.5 0.5
000030 00 00 00 3f 00 00 00 3f 00 00 00 3f 00 00 00 3f
       0.5 0.5 0.5 0.5
000040 00 00 00 3f 00 00 00 3f
       0.5 0.5

quadjetResNetBlock.reinforce1.antisym.weight f4 [9, 1, 2]
000000 00 00 00 3f 00 00 00 bf 00 00 00 3f 00 00 00 bf
       0.5 -0.5 0.5 -0.5
000010 00 00 00 3f 00 00 00 bf 00 00 00 3f 00 00 00 bf
       0.5 -0.5 0.5 -0.5
000020 00 00 00 3f 00 00 00 bf 00 00 00 3f 00 00 00 bf
       0.5 -0.5 0.5 -0.5
000030 00 00 00 3f 00 00 00 bf 00 00 00 3f 00 00 00 bf
       0.5 -0.5 0.5 -0.5
000040 00 00 00 3f 00 00 00 bf
       0.5 -0.5

quadjetResNetBlock.reinforce1.conv.module.weight f4 [9, 9, 3]
000000 74 59 41 bf 32 99 eb 3d 71 ff 93 3e e6 bf 9b be
       -0.7552712 0.11503829 0.28905824 -0.30419844
000010 b0 49 2f 3f e0 db 9d 3f 10 0d 0a bf 1e 45 46 bd
       0.68471813 1.2332726 -0.5392618 -0.04840576
000020 e9 e4 fc 3e b9 bf 1a 3f 12 5a 5e 3f 5d 68 0a 3d
       0.49393395 0.60448796 0.86856186 0.033790935
000030 0d 8d 6b bf a7 18 2b be 58 af 89 3e 71 3d e4 3b
       -0.920121 -0.16708623 0.2689159 0.006965332
000040 56 28 7f bf a7 1e c2 bc fa e6 5d bf 05 db 8e bf
       -0.9967092 -0.023696257 -0.8668057 -1.116059
000050 96 79 ec 3e c4 ee 99 bf 90 70 fb be 25 b6 1b 3f
       0.46186513 -1.202599 -0.49109316 0.60824805
000060 f0 fb 29 bf fd cd 6f 3e 3a 65 81 bf 28 78 51 bf
       -0.6640005 0.23418422 -1.0109017 -0.8182397
000070 e5 8f 9b 3e 5b 38 0b bf 57 f5 4d 3f 11 f2 09 3f
       0.3038322 -0.54382867 0.80452484 0.5388499
000080 b3 f0 94 be 77 ee 77 3f 21 77 f9 3e af c1 c5 3e
       -0.2908989 0.96848243 0.487237 0.3862433
000090 51 44 33 3f fb 12 68 3f 7f e2 5b bf bf 08 02 be
       0.7002612 0.9065396 -0.8589248 -0.12698649
0000a0 01 31 8d bf b5 93 4c 3e 2a 86 16 bf 84 20 8f bf
       -1.103058 0.19978221 -0.5879847 -1.1181798
0000b0 00 fc cc be ef 0a 90 bb 07 50 a6 bf 43 70 fb be
       -0.4003601 -0.0043958346 -1.2993172 -0.49109086
0000c0 b9 7f 4d bf ef 5c 49 3e f1 99 f4 3e 80 2e c0 3e
       -0.80273014 0.19664358 0.47773698 0.37535477
0000d0 3d 66 5e 3f b1 e5 de 3e d5 24 ad 3e 84 87 ac 3e
       0.86874753 0.43534616 0.33817163 0.3369714
0000e0 e7 d9 94 3c 2e 2e be bf af 3e ab be e3 c6 9f 3f
       0.01817031 -1.4857843 -0.3344626 1.248257
0000f0 da b6 a7 be b3 63 f3 3e 1a 43 0c 40 b3 15 5e be
       -0.32756692 0.47537002 2.1915956 -0.21687965
000100 96 c9 27 3d 90 7d 71 3f ab fa 3f 3f dd ec 22 be
       0.04096373 0.9433222 0.74991864 -0.15910669
000110 b5 0a e7 3c 9c 8d 4b 3e 7d 3f a1 3e 77 7e 13 40
       0.028203348 0.19878238 0.3149375 2.3045938
000120 cc a4 9c 3d 09 67 72 be 46 7e ca 3e d7 a0 ba 3e
       0.0764862 -0.23672117 0.39549464 0.36450836
000130 c9 ab 1a 3f 17 37 0b 3f 5e 13 41 bf 7f b2 d1 bf
       0.60418373 0.54380935 -0.75420177 -1.6382598
000140 cb 30 6a 3f 95 74 bb be 3a 50 8f 3e 6a 1e a0 c0
       0.914807 -0.36612383 0.27990896 -5.0037127
000150 3e 74 c4 bf ee 91 bf 3e 15 a6 9d bf c8 a7 11 bf
       -1.5347974 0.37416023 -1.2316309 -0.5689664
000160 52 33 53 be e0 10 a1 3d 1e 18 1c 3f b7 bd f2 bd
       -0.20625046 0.07864547 0.609743 -0.118525915
000170 55 cd b2 bd a5 93 eb bb 09 2c 18 bf c2 76 dd be
       -0.0873057 -0.0071892315 -0.5944219 -0.43254668
000180 fd 51 f2 be cb 79 07 3e 66 70 14 bf 45 25 96 be
       -0.47328177 0.13230054 -0.57984006 -0.2932531
000190 02 55 88 be 69 f1 b6 3e 72 37 07 bf 8b 09 0a bf
       -0.26627356 0.35731056 -0.5281898 -0.5392081
0001a0 33 ec a2 bf a2 31 03 bf 17 1b 6b 3c 3e d5 8b 3f
       -1.2728332 -0.5124761 0.01434972 1.0924451
0001b0 d9 7b 4d bf 5b 28 84 3e e4 45 9e 3e de 38 9e bf
       -0.802671 0.2581204 0.30912697 -1.2361104
0001c0 d6 0a 47 bf 31 ba dd bf 6c 31 de be 4f 5c 4e 3e
       -0.7775091 -1.7322446 -0.4339708 0.201524
0001d0 c5 15 03 bf 45 3b 91 3f fe 20 69 3e bd de 96 3e
       -0.5120509 1.1346213 0.22766492 0.2946681
0001e0 28 45 96 3e 07 a7 19 be 9c f5 a4 be 7c cf 2b bf
       0.29349637 -0.15005122 -0.32218635 -0.6711347
0001f0 1a 3d 34 3f 38 d8 0d bf 61 20 45 3f da 77 46 3e
       0.70405734 -0.5540805 0.7700253 0.19381657
000200 87 ce b6 3d db b5 11 bf 62 7d 39 3f 7e 89 c9 bf
       0.08926111 -0.56918114 0.72456944 -1.5745084
000210 ee df b6 3e d2 23 65 3e 4a c0 c3 3f 7a fc 2b be
       0.3571772 0.22376946 1.5293057 -0.16795531
000220 3a 02 15 3f 26 a9 91 be da aa 60 3e c7 3f 98 3f
       0.5820652 -0.28449363 0.21940175 1.1894463
000230 53 72 80 3e 99 86 2b bf 56 67 b3 bf 82 45 44 3f
       0.25087222 -0.67002255 -1.4015911 0.7666856
000240 a4 cd 36 bf 17 c4 20 3e ce 56 5d 3e 6b 60 39 bd
       -0.7140753 0.15699802 0.21615145 -0.045257967
000250 5e 2b f0 be 48 e0 ff 3e d5 36 5a 3d 34 4a b9 3e
       -0.46908087 0.499758 0.05327495 0.36189425
000260 1a 9a 4d be 6e d3 f8 bc 18 0f c1 3f c2 8c d2 3e
       -0.20078316 -0.030374255 1.5082731 0.41123015
000270 1f e0 2e 3e af 58 78 be 88 cf 27 3e ee cc c2 bf
       0.17077683 -0.2425258 0.1638776 -1.521879
000280 3e 46 62 be a6 d8 e6 bd e5 17 f6 3f fc 88 a2 3d
       -0.22097108 -0.11271791 1.9226042 0.07936284
000290 71 74 05 3f fc 80 a1 3f 61 f4 65 bf 2e cf 16 3f
       0.521308 1.2617488 -0.8982602 0.5890988
0002a0 6f dc 05 be 14 ef 9e 3c a2 83 0b 3f 9b f5 2b 3d
       -0.1307237 0.01940111 0.5449773 0.041982275
0002b0 10 7c f8 3e cb 20 89 3e f2 4e fd be c0 73 76 3e
       0.48532152 0.26782832 -0.49474293 0.24067593
0002c0 d1 5e 90 bf 2d 35 32 3f 21 4a 31 be 2a bf d5 3f
       -1.1278936 0.6961239 -0.17313434 1.6698964
0002d0 40 bb 04 3e a7 b3 19 bf 20 7b 85 be 4d 5b b1 3e
       0.12962055 -0.6003975 -0.260705 0.3463997
0002e0 b0 57 cd be 7d a6 48 3f d6 52 a7 bd 6d 76 32 3e
       -0.40105963 0.7837904 -0.081700966 0.17427988
0002f0 05 e3 4b 3f 9b 47 d7 3e b0 7f 5e 3d c4 c4 a2 be
       0.7964328 0.42046818 0.05432099 -0.31790745
000300 61 d1 14 3f c3 46 8d 3f 0e dc 19 3f 17 83 5e bf
       0.58131987 1.103722 0.601014 -0.8691878
000310 31 08 a3 3e c8 f9 9f be 61 fe d8 3e 4d d8 55 3e
       0.31842187 -0.31245255 0.42381576 0.20883293
000320 f8 d9 61 bf b0 90 03 c0 1f 10 ed bf f9 41 5b 3e
       -0.8822322 -2.055706 -1.8520545 0.21411885
000330 df c3 3f be 94 20 da be 37 a9 07 bf f7 4b 5a bf
       -0.18727063 -0.4260298 -0.52992576 -0.85272163
000340 0f 06 e9 3e fe 13 0d 3e a8 f3 08 bd 65 78 df 3e
       0.45512435 0.13777158 -0.033435494 0.4364654
000350 70 92 f0 3e e4 fc 9a be 1a e9 19 3e 16 75 ac bf
       0.46986723 -0.30271065 0.15030327 -1.3473232
000360 64 3a ab be 9d 72 9b 3c 35 f2 d3 be 25 f0 0a 3f
       -0.33442986 0.01897555 -0.41395727 0.5427268
000370 98 cd c1 be dc 39 84 3e 1c ad 6f bf 83 00 95 bf
       -0.37852168 0.25825393 -0.9362352 -1.1640781
000380 37 31 7c 3f 84 b9 39 be 65 2a 96 be d6 77 65 3f
       0.98512596 -0.18137175 -0.2932922 0.8963598
000390 1e d9 41 3f 08 ca 93 3f 41 8e 8e bc 2a fe d3 3f
       0.7572192 1.154603 -0.017401816 1.656194
0003a0 7a a5 21 bf 74 f0 59 be a1 22 a0 3e 30 87 15 3f
       -0.6314312 -0.21283132 0.3127642 0.58409405
0003b0 54 e8 b3 3e 44 1f 09 bf 50 73 00 bf 3d 9d 5d be
       0.3513819 -0.5356333 -0.5017595 -0.21642013
0003c0 32 1d e4 3d ea 84 19 be ca 9b 3c bf
       0.11138381 -0.14992109 -0.73675215

quadjetResNetBlock.reinforce1.conv.batchNorm.gamma f4 [9]
000000 ef 4c a0 3f e7 5c ba 3f 36 be ad 3f d5 62 18 40
       1.2523478 1.4559602 1.3573673 2.3810322
000010 83 bc ba 3f d8 c7 f5 3f 53 6d e1 3f 12 e6 ad 3f
       1.4588779 1.9201612 1.7611488 1.3585837
000020 8b 69 11 40
       2.2720668

quadjetResNetBlock.reinforce1.conv.batchNorm.bias f4 [9]
000000 19 e0 38 be 65 b8 97 bf c4 f4 22 bf f9 8c 08 bf
       -0.18054236 -1.1853148 -0.6365473 -0.5334011
000010 55 c3 73 be ee 1c f9 bd 37 21 9d 3d e2 5a 91 be
       -0.23804982 -0.12163721 0.07672351 -0.2838965
000020 9e 33 fd bd
       -0.12363361

quadjetResNetBlock.reinforce1.conv.batchNorm.m f4 [1, 9, 1]
000000 98 ef 35 c0 9b 8f 22 be c8 9a 19 40 0d 7b 12 c0
       -2.8427486 -0.15875094 2.400072 -2.2887604
000010 a3 a4 dc 3f 00 a0 fa bf 6f a0 84 40 a1 8f 0c c0
       1.7237743 -1.9580078 4.144584 -2.1962664
000020 9f c6 83 3f
       1.0294989

quadjetResNetBlock.reinforce1.conv.batchNorm.s f4 [1, 9, 1]
000000 ed fe f7 3f d0 55 ee 3f b9 99 ec 3f be ac 3c 40
       1.9374672 1.8619938 1.8484412 2.9480433
000010 92 d0 b7 3f 11 85 d2 3f c3 04 06 40 93 26 e9 3f
       1.4360526 1.6446859 2.0940406 1.8214897
000020 de f8 40 40
       3.0151896

quadjetResNetBlock.reinforce1.conv.batchNorm.m_biased f4 [1, 9, 1]
000000 00 00 00 00 00 00 00 00 00 00 00 00 00 00 00 00
       0.0 0.0 0.0 0.0
000010 00 00 00 00 00 00 00 00 00 00 00 00 00 00 00 00
       0.0 0.0 0.0 0.0
000020 00 00 00 00
       0.0

quadjetResNetBlock.reinforce1.conv.batchNorm.s_biased f4 [1, 9, 1]
000000 00 00 00 00 00 00 00 00 00 00 00 00 00 00 00 00
       0.0 0.0 0.0 0.0
000010 00 00 00 00 00 00 00 00 00 00 00 00 00 00 00 00
       0.0 0.0 0.0 0.0
000020 00 00 00 00
       0.0

quadjetResNetBlock.reinforce1.conv.batchNorm.m_biased_first_moment f4 [1, 9, 1]
000000 00 00 00 00 00 00 00 00 00 00 00 00 00 00 00 00
       0.0 0.0 0.0 0.0
000010 00 00 00 00 00 00 00 00 00 00 00 00 00 00 00 00
       0.0 0.0 0.0 0.0
000020 00 00 00 00
       0.0

quadjetResNetBlock.reinforce1.conv.batchNorm.s_biased_first_moment f4 [1, 9, 1]
000000 00 00 00 00 00 00 00 00 00 00 00 00 00 00 00 00
       0.0 0.0 0.0 0.0
000010 00 00 00 00 00 00 00 00 00 00 00 00 00 00 00 00
       0.0 0.0 0.0 0.0
000020 00 00 00 00
       0.0

quadjetResNetBlock.reinforce1.conv.batchNorm.m_biased_second_moment f4 [1, 9, 1]
000000 00 00 00 00 00 00 00 00 00 00 00 00 00 00 00 00
       0.0 0.0 0.0 0.0
000010 00 00 00 00 00 00 00 00 00 00 00 00 00 00 00 00
       0.0 0.0 0.0 0.0
000020 00 00 00 00
       0.0

quadjetResNetBlock.reinforce1.conv.batchNorm.s_biased_second_moment f4 [1, 9, 1]
000000 00 00 00 00 00 00 00 00 00 00 00 00 00 00 00 00
       0.0 0.0 0.0 0.0
000010 00 00 00 00 00 00 00 00 00 00 00 00 00 00 00 00
       0.0 0.0 0.0 0.0
000020 00 00 00 00
       0.0

quadjetResNetBlock.reinforce1.conv.batchNorm.m_first_moment f4 [1, 9, 1]
000000 00 00 00 00 00 00 00 00 00 00 00 00 00 00 00 00
       0.0 0.0 0.0 0.0
000010 00 00 00 00 00 00 00 00 00 00 00 00 00 00 00 00
       0.0 0.0 0.0 0.0
000020 00 00 00 00
       0.0

quadjetResNetBlock.reinforce1.conv.batchNorm.s_first_moment f4 [1, 9, 1]
000000 00 00 00 00 00 00 00 00 00 00 00 00 00 00 00 00
       0.0 0.0 0.0 0.0
000010 00 00 00 00 00 00 00 00 00 00 00 00 00 00 00 00
       0.0 0.0 0.0 0.0
000020 00 00 00 00
       0.0

quadjetResNetBlock.reinforce1.conv.batchNorm.m_second_moment f4 [1, 9, 1]
000000 00 00 00 00 00 00 00 00 00 00 00 00 00 00 00 00
       0.0 0.0 0.0 0.0
000010 00 00 00 00 00 00 00 00 00 00 00 00 00 00 00 00
       0.0 0.0 0.0 0.0
000020 00 00 00 00
       0.0

quadjetResNetBlock.reinforce1.conv.batchNorm.s_second_moment f4 [1, 9, 1]
000000 00 00 00 00 00 00 00 00 00 00 00 00 00 00 00 00
       0.0 0.0 0.0 0.0
000010 00 00 00 00 00 00 00 00 00 00 00 00 00 00 00 00
       0.0 0.0 0.0 0.0
000020 00 00 00 00
       0.0

quadjetResNetBlock.convD.module.weight f4 [9, 9, 1]
000000 20 86 8f be 77 f0 7d 3f c8 9b 09 3f d6 f0 b7 bd
       -0.28032017 0.99195045 0.5375333 -0.08981483
000010 b1 8e a2 3d e9 cb e3 3d cf 23 97 be 39 81 b8 3e
       0.079373725 0.11122877 -0.29519507 0.3603609
000020 97 d7 23 bf 3b df 2e 3d 4d 6e 83 bd 8b 72 d2 3e
       -0.6400084 0.042693358 -0.064175226 0.41103014
000030 5b d1 d3 3e 4f 68 bb bf 94 0c 4f bf 2a 35 99 be
       0.41370663 -1.4641207 -0.8087857 -0.29923373
000040 43 79 a0 be e5 8b 68 3d e6 66 e0 be fd bb 42 3d
       -0.31342515 0.05677404 -0.43828505 0.04754256
000050 7f c6 10 3f 1a 12 43 be 27 a7 8d bf 75 9a 0a 3f
       0.5655288 -0.19049874 -1.1066636 0.5414193
000060 cf 53 1f 3f ac 8a ea bd 35 fb c5 3e 10 40 0a 3f
       0.62237257 -0.11452231 0.38668218 0.54004
000070 28 2b 11 be 28 59 0a 3f 15 eb 15 bf cd 56 d5 3d
       -0.14176619 0.5404229 -0.5856183 0.104169466
000080 79 7c a0 3e 8f 1e f2 3a 64 b3 20 bd 00 09 7f bf
       0.31344965 0.0018472242 -0.03923358 -0.9962311
000090 3c 95 72 3e 75 df 8f be 4d 3d 06 3f ea ec c8 3e
       0.23689741 -0.28100172 0.5243729 0.3924325
0000a0 72 89 ac be 6c 8f d6 3c 74 b4 64 3f b3 eb fe 3d
       -0.33698612 0.026191436 0.8933785 0.124473
0000b0 a7 45 dc bd 94 60 9e 3e d5 6a 4a bf d2 c8 19 bd
       -0.10755473 0.30933058 -0.7906926 -0.037545033
0000c0 aa 57 e8 3e 60 ea 6d 3f 07 7c f3 bd 1c 8a 53 3f
       0.45379382 0.9293575 -0.11888891 0.82632613
0000d0 d1 ca 13 bf 25 48 ce 3e 72 ca 4f 3e 6f 50 42 bf
       -0.5773135 0.40289417 0.2029207 -0.7590398
0000e0 4f b5 32 bf d3 f0 21 3d 1f 63 0d 3e 69 10 19 be
       -0.69807905 0.03953631 0.13807343 -0.14947666
0000f0 99 02 e9 3e 77 a5 c2 3e 50 42 7f be 70 37 19 3e
       0.45509794 0.38016865 -0.2492764 0.14962554
000100 39 5e 99 be 24 fa 20 be e5 73 59 3e 24 66 7d 3e
       -0.299547 -0.15720421 0.21235617 0.24745995
000110 aa 71 c6 bd bc 31 01 3e ec 10 b3 3e 93 bb 32 3f
       -0.096896484 0.12616628 0.34973848 0.69817466
000120 2d d6 51 be 2c 5f f1 3e bf 1b 42 3d b9 f7 ea 3e
       -0.20491858 0.47142923 0.047389742 0.45892122
000130 94 26 16 3f ae 0e b3 3e a2 23 a8 be f2 90 53 bf
       0.58652616 0.34972137 -0.32839686 -0.82643044
000140 7d 70 63 be
       -0.2221088

quadjetResNetBlock.convD.module.bias f4 [9]
000000 99 bc a4 bd 33 2a de 3d 2f 6a 82 3e 24 86 f6 3f
       -0.08043785 0.108478926 0.25471637 1.9259686
000010 f7 b7 4b 3f ce 1f 30 40 c8 a2 3a 40 3a 5b b1 3f
       0.79577583 2.7519412 2.9161854 1.3855965
000020 1c e2 ce be
       -0.40406883

quadjetResNetBlock.reinforce2.sym.weight f4 [9, 1, 2]
000000 00 00 00 3f 00 00 00 3f 00 00 00 3f 00 00 00 3f
       0.5 0.5 0.5 0.5
000010 00 00 00 3f 00 00 00 3f 00 00 00 3f 00 00 00 3f
       0.5 0.5 0.5 0.5
000020 00 00 00 3f 00 00 00 3f 00 00 00 3f 00 00 00 3f
       0.5 0.5 0.5 0.5
000030 00 00 00 3f 00 00 00 3f 00 00 00 3f 00 00 00 3f
       0.5 0.5 0.5 0.5
000040 00 00 00 3f 00 00 00 3f
       0.5 0.5

quadjetResNetBlock.reinforce2.antisym.weight f4 [9, 1, 2]
000000 00 00 00 3f 00 00 00 bf 00 00 00 3f 00 00 00 bf
       0.5 -0.5 0.5 -0.5
000010 00 00 00 3f 00 00 00 bf 00 00 00 3f 00 00 00 bf
       0.5 -0.5 0.5 -0.5
000020 00 00 00 3f 00 00 00 bf 00 00 00 3f 00 00 00 bf
       0.5 -0.5 0.5 -0.5
000030 00 00 00 3f 00 00 00 bf 00 00 00 3f 00 00 00 bf
       0.5 -0.5 0.5 -0.5
000040 00 00 00 3f 00 00 00 bf
       0.5 -0.5
