nTupleAnalysis/pytorchModels/FvT_ResNet+multijetAttention_9_9_9_np1881_lr0.008_epochs40_stdscale_epoch40_loss0.1551.pkl (torch_old, 70702 bytes, 166 tensors)

canJetScaler.m f4 [1, 4, 1]
0	0x00000000	0.0
1	0x00000000	0.0
2	0x00000000	0.0
3	0x00000000	0.0

canJetScaler.s f4 [1, 4, 1]
0	0x3f800000	1.0
1	0x3f800000	1.0
2	0x40490fdb	3.1415927
3	0x3f800000	1.0

othJetScaler.m f4 [1, 5, 1]
0	0x00000000	0.0
1	0x00000000	0.0
2	0x00000000	0.0
3	0x00000000	0.0
4	0x00000000	0.0

othJetScaler.s f4 [1, 5, 1]
0	0x3f800000	1.0
1	0x3f800000	1.0
2	0x40490fdb	3.1415927
3	0x3f800000	1.0
4	0x3f800000	1.0

dijetScaler.m f4 [1, 2, 1]
0	0x00000000	0.0
1	0x00000000	0.0

dijetScaler.s f4 [1, 2, 1]
0	0x3f800000	1.0
1	0x3f800000	1.0

quadjetScaler.m f4 [1, 6, 1]
0	0x00000000	0.0
1	0x00000000	0.0
2	0x00000000	0.0
3	0x00000000	0.0
4	0x00000000	0.0
5	0x00000000	0.0

quadjetScaler.s f4 [1, 6, 1]
0	0x3f800000	1.0
1	0x3f800000	1.0
2	0x3f800000	1.0
3	0x3f800000	1.0
4	0x3f800000	1.0
5	0x3f800000	1.0

jetEmbed.module.weight f4 [9, 4, 1]
0	0x3e9f2e3b	0.3108996
1	0xb994e4ba	-0.00028399174
2	0xbd539cb1	-0.051663104
3	0x3db991f2	0.0906104
4	0xbf437363	-0.7634794
5	0x3ec528a7	0.38507578
6	0xbe4d0adb	-0.20023672
7	0x3ead6fb1	0.33874276
8	0x3ece2896	0.4026534
9	0x3f2e1dff	0.6801452
10	0x3e516fdf	0.20452832
11	0xbe9665c6	-0.29374522
12	0x3f27271d	0.6529406
13	0x3eb20708	0.3477099
14	0xbebdb155	-0.37049356
15	0xbf63da75	-0.89005214
16	0xbe7f68d8	-0.24942338
17	0xbf1d4b5a	-0.614431
18	0x3f16f28a	0.58963835
19	0xbdc04362	-0.09387852
20	0x3e912e27	0.28355524
21	0xbe570980	-0.20999718
22	0x3c88e0a2	0.016708676
23	0xbfca4e4d	-1.5805146
24	0xbdbea438	-0.09308666
25	0x3e08776c	0.13326806
26	0x3dfb1dc9	0.122615404
27	0x3f0b09ef	0.5431203
28	0xbfa050a8	-1.2524614
29	0x3e40be7f	0.18822668
30	0x3e40bc3d	0.18821807
31	0x3d67c53a	0.056584574
32	0x3de3cc8a	0.11122997
33	0xbf93b161	-1.1538507
34	0xbeae3065	-0.34021297
35	0x3d8690ce	0.06570588

jetEmbed.module.bias f4 [9]
0	0xbf7db691	-0.991067
1	0x3e5b8192	0.21436146
2	0x3e3094da	0.17244282
3	0xbeee7d99	-0.46580198
4	0xbedad454	-0.42740119
5	0xbeb74389	-0.35793713
6	0xbdda9eaa	-0.10674794
7	0xbeb31efe	-0.34984583
8	0xbf56d143	-0.8391306

dijetGBN.gamma f4 [2]
0	0x3f82ba71	1.0213147
1	0x3f675757	0.90367645

dijetGBN.bias f4 [2]
0	0x3e5af835	0.21383746
1	0x3efeef42	0.49791914

dijetGBN.m f4 [1, 2, 1]
0	0x43381a92	184.10379
1	0x400c0ac9	2.1881583

dijetGBN.s f4 [1, 2, 1]
0	0x42d9bb3f	108.865715
1	0x3f6d02c9	0.92582375

dijetEmbed1.module.weight f4 [9, 2, 1]
0	0x3eecb09c	0.46228492
1	0xbef08f10	-0.46984148
2	0x3c298b56	0.010348162
3	0xbf4464e8	-0.7671647
4	0xbf914ffe	-1.1352537
5	0xbf7ab28a	-0.9792868
6	0xbfca92e3	-1.5826076
7	0xbdfbe6da	-0.12299891
8	0xbcc62f85	-0.024192581
9	0x3ec03ff4	0.37548792
10	0x3ef78caa	0.48349506
11	0xbdf1ce49	-0.11806924
12	0xbdda1327	-0.10648184
13	0x3f52d8e6	0.8236221
14	0xbe86fe46	-0.2636587
15	0xbf4375d9	-0.76351696
16	0xbe0f8433	-0.14015274
17	0x3ee8bf7c	0.4545859

dijetEmbed1.module.bias f4 [9]
0	0x3e9c52e8	0.30532002
1	0xbe7d91bc	-0.24762625
2	0xbf38c50d	-0.72175676
3	0x3ed08131	0.40723565
4	0xbe79d027	-0.2439581
5	0xbf139e5a	-0.576635
6	0xbf02e3c8	-0.51128817
7	0x3e49f0f2	0.1972082
8	0xbf2735c8	-0.6531644

dijetResNetBlock.reinforce1.conv.module.weight f4 [9, 9, 3]
0	0x3e37fca8	0.17967474
1	0xbf48fabe	-0.785076
2	0x3d7095f4	0.058736756
3	0x3ebbc266	0.36671752
4	0x3e4ab808	0.19796765
5	0x3f4b90f2	0.79518044
6	0xbe90f19a	-0.28309327
7	0xbe103dc9	-0.14086069
8	0xbfaaa69f	-1.3332099
9	0x3f0c0f8a	0.5471121
10	0x3f2f88c4	0.6856806
11	0xbfc2b072	-1.5210097
12	0xbf2155fe	-0.6302184
13	0xbf013a51	-0.5047961
14	0xbf243d27	-0.6415581
15	0xbe894bfc	-0.26815784
16	0x3f07cc17	0.5304579
17	0xbe8768e9	-0.26447228
18	0x3f051bb2	0.51995385
19	0xbf7ca64f	-0.98691267
20	0xbf12b6f4	-0.57310414
21	0x3ec51bd4	0.38497794
22	0x3e32b337	0.17451178
23	0x3eb336d7	0.35002777
24	0xbd5cf768	-0.053946882
25	0xbeac3419	-0.33633497
26	0xbe92bfa0	-0.28661823
27	0xbeda46ed	-0.42632237
28	0x3e67da95	0.22641976
29	0x3f75dfc7	0.9604458
30	0x3d9d2f49	0.076750346
31	0xbf5b7e07	-0.8573918
32	0xbf376cb4	-0.7165024
33	0x3d88ce58	0.06679982
34	0x3ead83a6	0.33889502
35	0xbf4aaa7f	-0.79166406
36	0xbc01436c	-0.00788961
37	0xbbad6cf1	-0.005292528
38	0xbf0a5ecd	-0.54050905
39	0xbebfa524	-0.3743068
40	0x3cf7a7a6	0.030231308
41	0xbfcdbc93	-1.6073173
42	0xbdf90220	-0.121586084
43	0xbe919439	-0.28433397
44	0x3e60844f	0.21925472
45	0xbfa71f91	-1.3056508
46	0xbf92a41f	-1.1456336
47	0xc01d56fb	-2.4584339
48	0xbee2d0d7	-0.44299957
49	0xbf1190df	-0.5686168
50	0x3e71cc1c	0.23613018
51	0x3e58d571	0.21175171
52	0x3f19fd3b	0.60152024
53	0xbf7240f0	-0.94630337
54	0x3f2def43	0.6794321
55	0xbeab7f33	-0.33495483
56	0xbec8be46	-0.39207667
57	0x3ed0589d	0.40692607
58	0x3f4928ad	0.7857769
59	0xbf241f99	-0.64110714
60	0xbe38811e	-0.18018004
61	0xbee202cf	-0.44142768
62	0x3f24b0c2	0.6433221
63	0xbf8352c8	-1.0259638
64	0xbf517df0	-0.8183279
65	0x4007fc42	2.1247716
66	0x3e1b432e	0.15162346
67	0xbf4c646a	-0.7984072
68	0x3e0a5768	0.13509905
69	0x3e0ddc69	0.13853611
70	0xbeff6ac8	-0.49886155
71	0xbda4679f	-0.08027577
72	0x3f02c979	0.5108867
73	0x3f4eb759	0.80748516
74	0x3f0ea926	0.5572685
75	0xbf36446b	-0.7119815
76	0x3ed8112f	0.4220061
77	0x3e617fe3	0.22021441
78	0x3eefd5a8	0.46842694
79	0xbd72c75d	-0.05927216
80	0x3e40ab4a	0.18815342
81	0x3c490049	0.012268134
82	0xbe3c0836	-0.18362507
83	0xbe7a9743	-0.24471764
84	0x3f6017cf	0.8753633
85	0x3f56d4a4	0.83918214
86	0xbf2a999c	-0.6664064
87	0xbfb99c3b	-1.4500803
88	0xbe058d77	-0.13042246
89	0x3ea3346d	0.31875935
90	0xbf17f60c	-0.5935981
91	0xbed18be3	-0.40927038
92	0x3eafe503	0.3435441
93	0xbf0086e2	-0.50205815
94	0xbee4b10d	-0.4466633
95	0xbd934b1c	-0.0719206
96	0xbd36fbd9	-0.044673774
97	0xbdc61445	-0.09671835
98	0x3ea8e4c8	0.32987046
99	0x3f25679f	0.6461124
100	0x3f216201	0.6304017
101	0xbd90e944	-0.07075742
102	0x3f3255de	0.6966227
103	0x3f76e7e3	0.9644758
104	0xbcab02d5	-0.020875374
105	0x3e7124d5	0.23549207
106	0x3ee5c775	0.44878736
107	0x3e191fca	0.14953533
108	0xbf404d2b	-0.7511775
109	0x3f229f12	0.6352397
110	0x3da9c658	0.08289784
111	0x3eb529f7	0.3538358
112	0x3d0947e8	0.03351584
113	0x3f09e594	0.53865933
114	0x3fcbd520	1.5924416
115	0xc0022143	-2.0332801
116	0xbe01eb2c	-0.12687367
117	0xbef55da1	-0.47922996
118	0xbf36fee7	-0.714827
119	0xbe19ffbf	-0.15038966
120	0xbfd98f08	-1.6996775
121	0x3f0ca891	0.5494471
122	0xbf387d53	-0.7206623
123	0x3e43ffeb	0.19140594
124	0xbe1a54fa	-0.15071478
125	0xbf9d1812	-1.2272971
126	0x3e97579b	0.29559025
127	0xbf8c7c43	-1.0975422
128	0xbf1df31d	-0.61699086
129	0xbec40446	-0.3828451
130	0x3f2c82a6	0.67386854
131	0x3eacec88	0.3377421
132	0xbf87f130	-1.062048
133	0x3f7724ad	0.9654034
134	0xbe6b8c66	-0.23002777
135	0x3e4b0fc6	0.19830236
136	0x3e12e513	0.14345197
137	0x3f8b7d25	1.0897566
138	0x3df55757	0.119795494
139	0xbf047a27	-0.5174889
140	0x3e9e0a2d	0.30867139
141	0x3f705263	0.9387571
142	0xbe8ac040	-0.270998
143	0xbf91fd0c	-1.1405349
144	0xbda039e8	-0.07823545
145	0xbefef676	-0.4979741
146	0xbfe3d427	-1.7799119
147	0x3cc37bb9	0.023862706
148	0xbeb81edc	-0.35961044
149	0xbea12c21	-0.3147898
150	0xbf1cbd25	-0.6122611
151	0x3cb3e831	0.021961303
152	0xbe299106	-0.16559228
153	0xbea28242	-0.31740004
154	0xbf49d42d	-0.7883938
155	0xbec326db	-0.38115582
156	0x3f86c6f8	1.052947
157	0x3d978050	0.073975205
158	0xbecf2105	-0.4045488
159	0xbe546f46	-0.20745572
160	0xbf190a7d	-0.5978163
161	0xbe69e355	-0.22840627
162	0x3e8941ac	0.26807916
163	0x3e634395	0.22193749
164	0xbf283088	-0.6569905
165	0x3f737bc8	0.9511075
166	0xbea90216	-0.33009404
167	0xbf125853	-0.5716602
168	0xbeb327d0	-0.34991312
169	0xbe954c47	-0.29159757
170	0x3fdf9528	1.7467394
171	0xbf023296	-0.5085844
172	0xbe135218	-0.14386785
173	0x3ef2b202	0.47401434
174	0x3e23f5ba	0.16011706
175	0xbefc45aa	-0.492719
176	0x3e4ef82a	0.20211855
177	0x3ed26e11	0.410996
178	0xbd53c862	-0.05170477
179	0xbed2bf02	-0.41161352
180	0x3f169d77	0.5883402
181	0x3f85158f	1.0397204
182	0xbc089cf6	-0.008338204
183	0xbf23327a	-0.63748896
184	0xbf36ca70	-0.71402645
185	0x3d3e05ce	0.046392255
186	0xbe190423	-0.14942984
187	0x3e313355	0.17304738
188	0x3edacff5	0.42736784
189	0xbe81ff82	-0.2539025
190	0xbf96c88b	-1.1779951
191	0x3ec83a9f	0.39107224
192	0x3e2299dc	0.15879005
193	0x3f2c87fc	0.67394996
194	0xbed496bd	-0.41521254
195	0xbfbb30a1	-1.4624215
196	0x3f845ba3	1.0340465
197	0xbf236414	-0.6382458
198	0xbf64a72d	-0.8931759
199	0x3d92ee82	0.07174398
200	0xbe9b7e76	-0.3036992
201	0xbecba55b	-0.39774594
202	0xbf8f814b	-1.1211332
203	0xbe9e4366	-0.30910796
204	0xbf095009	-0.5363775
205	0x3e34f808	0.17672741
206	0xbdb22eb0	-0.08700311
207	0xbf3f29c9	-0.74673134
208	0xbeaa685d	-0.33282748
209	0xbed0e46a	-0.40799266
210	0xbe45effb	-0.19329827
211	0xbdfb0241	-0.12256289
212	0xbf22c283	-0.6357805
213	0x3f04e5ec	0.5191333
214	0xbe42dfb8	-0.19030654
215	0x3eb63114	0.3558432
216	0xbe8743b1	-0.26418832
217	0x3e4cd31c	0.20002407
218	0x3ea0ffa7	0.31445047
219	0xbfa4384f	-1.2829684
220	0xbef481b0	-0.47755194
221	0x3e68d779	0.22738446
222	0x3f01bac9	0.50675637
223	0x3eae5f69	0.34057167
224	0xbe88fe4c	-0.26756513
225	0xbd533468	-0.05156365
226	0x3eeaf349	0.45888737
227	0xc002ecc1	-2.0457003
228	0x3eff2911	0.4983602
229	0xbd8d8c6b	-0.06911548
230	0xbdbbb2c2	-0.09164955
231	0xbee539f8	-0.4477079
232	0xbed31d8c	-0.4123348
233	0xbf9f621b	-1.2451814
234	0xbdb980ae	-0.09057747
235	0xbf349cb3	-0.70551604
236	0xbe0c67b9	-0.13711442
237	0xbf311707	-0.6917576
238	0xbef2731a	-0.4735344
239	0xbf2de8e1	-0.6793347
240	0x3d945b48	0.07243973
241	0xbf14a8e0	-0.5807018
242	0xbdd15566	-0.102213666

dijetResNetBlock.reinforce1.conv.batchNorm.gamma f4 [9]
0	0x3fa3a541	1.2784806
1	0x3f700168	0.93752146
2	0x3f6f5557	0.93489593
3	0x3f1ccffe	0.6125487
4	0x3fedfff9	1.8593742
5	0x3f837072	1.026869
6	0x3fbbab7a	1.4661705
7	0x3f501072	0.81275094
8	0x3fff7acb	1.9959348

dijetResNetBlock.reinforce1.conv.batchNorm.bias f4 [9]
0	0xbfaa2fb2	-1.3295805
1	0xbf1426e0	-0.5787182
2	0xbefa140e	-0.48843426
3	0xbfd696c7	-1.6764764
4	0xbf80ca41	-1.0061723
5	0xbe8f69a4	-0.28010285
6	0xbfae5236	-1.3618839
7	0xbebb7d65	-0.36619106
8	0xbf2072a3	-0.6267492

dijetResNetBlock.reinforce1.conv.batchNorm.m f4 [1, 9, 1]
0	0xbe9351e3	-0.28773412
1	0xbe516201	-0.20447542
2	0x3fa243d9	1.2676955
3	0x3e9ddce7	0.30832598
4	0x3f3e4b8f	0.74334043
5	0xbf059eef	-0.5219564
6	0xbd8c20f9	-0.068422265
7	0x3f03c4db	0.5147225
8	0xbf3b0da4	-0.7306769

dijetResNetBlock.reinforce1.conv.batchNorm.s f4 [1, 9, 1]
0	0x3f8b5ded	1.0888039
1	0x3f823fdb	1.0175737
2	0x3fc4a7bb	1.5363687
3	0x3f48774c	0.7830703
4	0x3f9eafe5	1.2397429
5	0x3fc9a98f	1.575487
6	0x3f688bbf	0.90838236
7	0x3f8307ce	1.0236757
8	0x3fddcf6a	1.7328923

dijetResNetBlock.convJ.module.weight f4 [9, 9, 1]
0	0xbf1ab93a	-0.60438883
1	0xbdbb8d77	-0.09157842
2	0x3e3675bb	0.17818348
3	0x3d56f4f3	0.052479696
4	0xbe3a8d5b	-0.18217985
5	0x3fe8e859	1.8195907
6	0x3e35f5cb	0.17769544
7	0xbe827073	-0.25476417
8	0xbe8e8853	-0.27838382
9	0xbe33825a	-0.17530194
10	0xbd146da6	-0.03623738
11	0xbed951ab	-0.4244512
12	0xbfc3d262	-1.5298579
13	0xbd37149a	-0.04469738
14	0xc0016a9e	-2.0221324
15	0x3e306a96	0.1722816
16	0x3e22f655	0.1591428
17	0xbdcfe009	-0.10150153
18	0xbf2467b7	-0.64220756
19	0x3ee1a5ce	0.4407181
20	0xbe5672ff	-0.20942305
21	0xbf6e8332	-0.9316894
22	0xbf1bf620	-0.6092243
23	0x3f18d16e	0.59694564
24	0x3ec8ffef	0.39257762
25	0xbecea6d7	-0.40361664
26	0xbfaf1387	-1.3677834
27	0xbf57d0c2	-0.84302914
28	0x3f03f4b7	0.5154528
29	0x3ec4198d	0.38300744
30	0xbf9a4d58	-1.2054853
31	0xbfcbc985	-1.5920874
32	0xbf7018d0	-0.9378786
33	0xbf294d73	-0.66133803
34	0xbe14c48d	-0.14528103
35	0xbdd1a6af	-0.102368705
36	0x3d2c1fe9	0.04202262
37	0x3d566a52	0.05234749
38	0x3dbd555e	0.09244798
39	0x3de4f709	0.11179931
40	0xbf24e7d7	-0.6441626
41	0x3f6e0c64	0.92987657
42	0xbe73eb97	-0.23820339
43	0xbdf219ad	-0.118213035
44	0x3f9df56c	1.2340522
45	0x3e8923e6	0.267852
46	0xbf999cac	-1.2000937
47	0x3eb6469f	0.35600755
48	0xbf517dc9	-0.8183256
49	0x3dfd5924	0.12370518
50	0xbf2b7b99	-0.6698547
51	0x3f4c788b	0.79871434
52	0xbfa3aefa	-1.2787774
53	0xbeb6ac71	-0.35678437
54	0x3e4e7cf0	0.20164847
55	0xc004d34b	-2.0753963
56	0x3e8bfe79	0.27342585
57	0x3f946f57	1.1596478
58	0x3dee907c	0.11648652
59	0xbeb27e56	-0.34862012
60	0xbe9a36b6	-0.30119866
61	0xbf8cbe88	-1.0995646
62	0x3e8c94bb	0.27457222
63	0x3eb5e09e	0.35522932
64	0x3f229cfd	0.63520795
65	0xbe6a709c	-0.2289452
66	0xbed06855	-0.407046
67	0xbe0fc2b0	-0.14039111
68	0x3ca21da2	0.01978952
69	0xbe90c7bc	-0.28277385
70	0x4014e5e2	2.326531
71	0x3cdd9a13	0.027051007
72	0x3e56968a	0.20955864
73	0x3f842ba8	1.0325823
74	0xbb7b5db2	-0.0038355407
75	0x3e96c752	0.29448944
76	0xbf17602b	-0.59131116
77	0xbf3d9a0d	-0.7406319
78	0xbf5c0048	-0.8593793
79	0x3f66ad71	0.901084
80	0x3eec1dd5	0.4611651

dijetResNetBlock.convJ.batchNorm.gamma f4 [9]
0	0x3f8881f5	1.066466
1	0x3f6a4758	0.9151511
2	0x3ece99f3	0.4035183
3	0x3ec31f3b	0.38109764
4	0x3f0cb37b	0.54961365
5	0x3f8b307b	1.087417
6	0x3f43eaba	0.7653004
7	0x3f4158ea	0.755263
8	0x3eba4c99	0.36386564

dijetResNetBlock.convJ.batchNorm.bias f4 [9]
0	0xbf899916	-1.0749843
1	0xbd4f4686	-0.050604366
2	0xbe61555e	-0.22005221
3	0x3e430c6e	0.1904771
4	0xbf1d5d18	-0.61470175
5	0x3e2ce1fd	0.16883083
6	0xbeae233f	-0.34011266
7	0xbf34eef4	-0.70677114
8	0x3ec3bb87	0.3822901

dijetResNetBlock.convJ.batchNorm.m f4 [1, 9, 1]
0	0x3e6965f8	0.22792804
1	0x3e1451d7	0.14484344
2	0x3f0976a5	0.5369666
3	0x3f297f8e	0.6621026
4	0xbd968911	-0.07350362
5	0xbdf8024a	-0.121098116
6	0xbf14208a	-0.5786215
7	0x3d704536	0.058659755
8	0x3dcf1256	0.10110919

dijetResNetBlock.convJ.batchNorm.s f4 [1, 9, 1]
0	0x3ed3f968	0.4140122
1	0x3f217081	0.6306229
2	0x3ec81a28	0.39082456
3	0x3f157064	0.5837462
4	0x3eb4b988	0.352978
5	0x3f3ec2b0	0.7451582
6	0x3f4633ea	0.77422965
7	0x3f2d50a0	0.6770115
8	0x3f072cba	0.5280262

dijetResNetBlock.reinforce2.conv.module.weight f4 [9, 9, 3]
0	0xbe4a1254	-0.19733554
1	0x3e0d489e	0.13797233
2	0x3f135ec5	0.5756648
3	0x3ecc9204	0.3995515
4	0xbd9c3a10	-0.07628262
5	0xbf2ced6e	-0.6754979
6	0xbea4e297	-0.32204124
7	0xbf61743e	-0.88067997
8	0xbfc7f26a	-1.5620854
9	0x3e45fc21	0.19334461
10	0xbee75feb	-0.45190367
11	0xbf5738ff	-0.84071344
12	0x3e64bc64	0.2233749
13	0xbeb87c8a	-0.36032516
14	0xc013d913	-2.3101242
15	0x3e09ffe7	0.13476525
16	0x3e897c30	0.2685256
17	0xbfa034b5	-1.2516085
18	0x3eb4b81a	0.35296708
19	0x3f5b0811	0.85559183
20	0xbf05a6ea	-0.52207816
21	0xbebde88a	-0.37091476
22	0xbee5ed78	-0.44907737
23	0xbf58e443	-0.847233
24	0xbdceae85	-0.10091881
25	0x3f375d55	0.7162679
26	0xbe79793c	-0.24362653
27	0xbe92c3f0	-0.28665113
28	0xbf11e36d	-0.5698765
29	0xbf191bfb	-0.5980832
30	0xbeccd834	-0.400087
31	0xbf475be2	-0.7787458
32	0x3ea7cdb1	0.32774118
33	0x3e59dc13	0.21275358
34	0xbf155301	-0.5832978
35	0x3f0af661	0.54282194
36	0x3f0dd05c	0.55396056
37	0x3db95fed	0.090514995
38	0x3ea0a1af	0.31373355
39	0x3daff139	0.085909314
40	0x3e26299c	0.1622681
41	0x3ded4143	0.11584713
42	0x3f1c1bb7	0.6097979
43	0x3e513307	0.20429622
44	0xbec10d51	-0.37705472
45	0xbe9b5120	-0.3033533
46	0xbf4760fc	-0.7788236
47	0x3f505096	0.81372964
48	0x3d318fae	0.043349914
49	0xbdd2bcaa	-0.10289891
50	0xbe99086a	-0.29889232
51	0xbed44015	-0.4145514
52	0x3e941618	0.28923106
53	0x3e4220e4	0.1895786
54	0x3fb34a84	1.4007115
55	0x3fa94aab	1.3225912
56	0x3e3d6982	0.1849728
57	0xbe7bbbac	-0.2458331
58	0xbe90b1a9	-0.28260544
59	0x3f15ac46	0.58465993
60	0x3f09dac6	0.53849447
61	0x3e83fc1a	0.25778276
62	0xbeb05cf9	-0.34445933
63	0x3dfd4b07	0.12367826
64	0xbf075edf	-0.52879137
65	0xbef3a829	-0.47589234
66	0x3eae2100	0.34009552
67	0x3e892243	0.26783952
68	0xbf70b9f1	-0.94033724
69	0x3f14ffdc	0.5820291
70	0x3e1ef8ad	0.1552455
71	0xbfbb381c	-1.4626498
72	0x3e99b480	0.30020523
73	0xbd6f14b5	-0.058369357
74	0xbf849b0b	-1.0359815
75	0xbf538870	-0.8263006
76	0xbe88a245	-0.26686302
77	0xbe40fbdd	-0.18846078
78	0x3ee84a7b	0.45369324
79	0x3f876ee7	1.058072
80	0xc00885f5	-2.133176
81	0xbe005e5f	-0.12536
82	0x3ce71007	0.028205885
83	0xbe020e5a	-0.12700787
84	0xbe52295d	-0.20523591
85	0xbdb6fac0	-0.089345455
86	0xbf866ebf	-1.0502547
87	0x3ef8ec9a	0.48618013
88	0xbdeb087e	-0.11476229
89	0xbec3b9e5	-0.38227764
90	0x3f2efc51	0.68353754
91	0xbf806f40	-1.0033951
92	0x3d8352bb	0.06412264
93	0xbdc5b8db	-0.09654399
94	0x3ee8faca	0.45503837
95	0xbf5e6d57	-0.8688559
96	0xbe2951da	-0.1653513
97	0xbc87d317	-0.016580148
98	0xbd3e67aa	-0.04648558
99	0xbf784a54	-0.96988416
100	0x3d0752f5	0.0330381
101	0xbf7c8ae4	-0.9864943
102	0x3ed667a4	0.41875947
103	0x3ec728a2	0.38898188
104	0xbe9d2b41	-0.30697063
105	0xbef6f412	-0.48233086
106	0xbf41ca3b	-0.75699204
107	0xbf5ea104	-0.8696444
108	0xbdfa70eb	-0.12228569
109	0xbee660be	-0.44995683
110	0xbe030528	-0.12794936
111	0xbec06694	-0.3757826
112	0xbdb72d15	-0.089441456
113	0x3f63a199	0.88918453
114	0x3f8b65c9	1.0890437
115	0x3f37ee7f	0.7184829
116	0x3f2ea9a5	0.68227607
117	0x3f3b3010	0.7312021
118	0x3f425e09	0.75924736
119	0x3e66b3a1	0.2252946
120	0xbf02b158	-0.51051855
121	0xbe9e3ac1	-0.309042
122	0x3f356baf	0.7086744
123	0xbe7bd66e	-0.24593517
124	0xbeb455d6	-0.35221738
125	0x3e680218	0.22657049
126	0xbe86747e	-0.2626075
127	0xbdbc6522	-0.09198977
128	0x3ec918ad	0.3927664
129	0xbed858af	-0.4225516
130	0x3edb94c9	0.42886952
131	0x3e8e54c4	0.27799046
132	0xbf7daaa9	-0.9908853
133	0xbf4d463c	-0.80185294
134	0x3f088c21	0.5333882
135	0xbf07a30c	-0.52983165
136	0xbe09177d	-0.13387866
137	0xbdbec806	-0.09315495
138	0x3e21bdcf	0.15795062
139	0x3e8f770c	0.28020513
140	0xbe50b352	-0.20380905
141	0xbca618aa	-0.020275433
142	0xbeb7920b	-0.3585361
143	0x3e95918b	0.29212603
144	0xbee30ace	-0.4434418
145	0xbeb98e08	-0.36241174
146	0xbf155775	-0.58336574
147	0x3e29a566	0.16567001
148	0xbbf48219	-0.007461798
149	0xbe61aaf3	-0.22037868
150	0xbe9586d1	-0.2920442
151	0xbd08b8a3	-0.03337921
152	0xbf08bc1d	-0.5341204
153	0x3ea3dd9b	0.3200501
154	0x3e0488ce	0.12942812
155	0x3c7b23da	0.015328372
156	0xbe45294c	-0.19254035
157	0x3e542af5	0.20719512
158	0xbf0e3e6d	-0.55564004
159	0xbed9edbd	-0.42564192
160	0xbeaca401	-0.33718875
161	0x3ea459d2	0.32099777
162	0x3cfd3aab	0.030911764
163	0x3f161439	0.5862461
164	0xbe0a6eba	-0.13518801
165	0x3f70775a	0.93932116
166	0x3f2ce73a	0.67540324
167	0xbf0c6944	-0.5484812
168	0x3f11bb91	0.5692683
169	0x3c6f80bc	0.014618095
170	0x3bb069e6	0.005383718
171	0xbf334a2e	-0.70035064
172	0x3f0bd98f	0.54628843
173	0x3e526a5e	0.20548388
174	0x3f756f9f	0.95873445
175	0x3f0a15e9	0.5393968
176	0xbe077281	-0.13227274
177	0xbef57d9c	-0.47947395
178	0xbf345a46	-0.70450246
179	0x3e966f41	0.29381755
180	0x3ea38783	0.31939325
181	0xbda169d9	-0.07881517
182	0xbe162618	-0.14662969
183	0x3f306c07	0.68914837
184	0x3f1ea2bd	0.6196707
185	0xbb99e2a8	-0.004696209
186	0x3f8711fc	1.0552363
187	0x3f083789	0.5320974
188	0xbe9df36c	-0.3084978
189	0xbec53592	-0.38517433
190	0xb9f87aec	-0.0004739383
191	0x3f56d6e4	0.8392165
192	0x3e8c4de5	0.2740318
193	0x3e4118b9	0.18857087
194	0x3ef3f6e6	0.47649306
195	0x3e86bd5b	0.26316342
196	0x3cd9d88b	0.026592514
197	0xbe1e8b04	-0.15482718
198	0xbe0883b9	-0.13331498
199	0x3dcf54eb	0.10123619
200	0xbdc40747	-0.095717005
201	0xbd0f8fb9	-0.035049174
202	0x3cfa6279	0.030564534
203	0x3aae1d88	0.0013283947
204	0xbea97bc8	-0.3310225
205	0x3ea58b96	0.32333058
206	0x3ee32c7f	0.44369885
207	0x3f3c5aab	0.7357585
208	0xbd400964	-0.046883956
209	0xbf1d6682	-0.6148454
210	0x3f0cbe15	0.5497754
211	0x3dc200f7	0.0947284
212	0xbf0ab45c	-0.54181457
213	0x3ddcc505	0.10779766
214	0x3e0c7a15	0.13718446
215	0xbf7d4a8e	-0.98941886
216	0xbf5dd941	-0.8665963
217	0xbe1cddfb	-0.15319054
218	0xbf4b3268	-0.7937379
219	0x3e46e556	0.19423422
220	0x3e3563fb	0.17713921
221	0xbf7e01ea	-0.9922167
222	0x3f72639c	0.9468324
223	0x3edfd2c0	0.43715477
224	0xbe5a165a	-0.21297589
225	0xbe8d3718	-0.27581096
226	0x3f16a5ca	0.58846724
227	0xbd05ea85	-0.03269436
228	0xbe8eba9a	-0.2787674
229	0xbe2b7570	-0.16744018
230	0x3f34bab4	0.70597386
231	0x3e0444ba	0.12916842
232	0x3ec429d4	0.38313162
233	0x3e953432	0.29141384
234	0xbe0213a6	-0.12702808
235	0x3f2a520a	0.6653143
236	0x3ef52311	0.47878316
237	0x3f066c67	0.5250916
238	0x3ed14949	0.40876225
239	0xbe60dd01	-0.21959306
240	0x3f503703	0.8133394
241	0x3e6022a4	0.21888214
242	0x3dde97cb	0.10868796

dijetResNetBlock.reinforce2.conv.module.bias f4 [9]
0	0x3e377deb	0.17919128
1	0x3f18a445	0.59625655
2	0x3f7cb82f	0.9871854
3	0x3ec5f6c6	0.38664836
4	0x3dce5c5b	0.10076209
5	0x3e87f8ff	0.26557156
6	0x3fa1aed0	1.2631474
7	0x3e9fd43e	0.31216615
8	0x3eb829f8	0.3596952

dijetResNetBlock.multijetAttention.attention.q_linear.module.weight f4 [4, 9, 1]
0	0xbf4189ac	-0.75600696
1	0xbf35d7da	-0.7103249
2	0xbf51dc4d	-0.8197678
3	0xbeb06315	-0.34450594
4	0x3fe0aaa6	1.7552078
5	0xbf3f5475	-0.74738246
6	0xbe050134	-0.1298874
7	0x3f102aeb	0.5631549
8	0x3e1ebe12	0.15502194
9	0x3e267221	0.16254474
10	0xbeadfc8c	-0.3398174
11	0x3dd1e429	0.10248596
12	0xbfad487c	-1.3537745
13	0x3f1b687e	0.6070632
14	0x3f8a108b	1.0786299
15	0xbcd23870	-0.025661677
16	0xbef8c442	-0.48587233
17	0xbedd849b	-0.43265232
18	0x3e8e4258	0.2778499
19	0xbf78e1ab	-0.9721934
20	0xc024b14c	-2.5733213
21	0xbf42bd67	-0.76070255
22	0x3f73c307	0.95219463
23	0x3e596d09	0.21233
24	0xbea99f4a	-0.3312934
25	0xbd9e6265	-0.07733611
26	0xbf860dcf	-1.0472964
27	0xbe9f8dab	-0.31162772
28	0xbef72516	-0.48270482
29	0xbf7280bc	-0.94727683
30	0x3fb69185	1.4263159
31	0x3d56ed71	0.052472536
32	0x3f5c794e	0.86122596
33	0x3ec48cfd	0.38388816
34	0xbeb7ed66	-0.35923308
35	0x3f13745c	0.57599425

dijetResNetBlock.multijetAttention.attention.q_linear.module.bias f4 [4]
0	0xbe89a4d3	-0.26883563
1	0xbfe4ff0f	-1.7890338
2	0xbe0814dc	-0.13289207
3	0xbf73653c	-0.95076346

dijetResNetBlock.multijetAttention.attention.k_linear.module.weight f4 [4, 5, 1]
0	0xbebdc74c	-0.37066114
1	0x3f4527bc	0.77013755
2	0xbf542303	-0.82865924
3	0x3ec3afd5	0.38220087
4	0x3f55a176	0.83449495
5	0xbece4c2e	-0.40292495
6	0xbeb2285a	-0.3479641
7	0xbf871d99	-1.0555907
8	0x3fad3a42	1.3533404
9	0xbf6bb011	-0.9206553
10	0x3d68b6b9	0.056814883
11	0x3f4a700e	0.7907723
12	0xc00ecd7a	-2.2312913
13	0xbe255520	-0.16145754
14	0xbef1e44b	-0.47244486
15	0x3f2605b5	0.6485246
16	0xbe249ec1	-0.16076185
17	0xbf779277	-0.9670786
18	0x3ee50fa3	0.44738492
19	0xbf827287	-1.0191201

dijetResNetBlock.multijetAttention.attention.k_linear.module.bias f4 [4]
0	0x3eaeb5c3	0.34123048
1	0xbeb23554	-0.3480631
2	0xbde513db	-0.11185428
3	0xbda7e228	-0.08197433

dijetResNetBlock.multijetAttention.attention.v_linear.module.weight f4 [6, 5, 1]
0	0x3fd92e3c	1.6967235
1	0xbe55a91d	-0.20865293
2	0xbdf8041c	-0.12110159
3	0xbf11fe0a	-0.5702826
4	0xbe8b4aa0	-0.27205372
5	0x3e2cd526	0.16878185
6	0x3f9edd7b	1.241134
7	0xbf30f58a	-0.6912466
8	0x3fa3fdea	1.2811863
9	0xbe96525d	-0.29359713
10	0xbea4408e	-0.320805
11	0xbfbfbad2	-1.4978888
12	0xbf07e067	-0.53076786
13	0x3ec0fd18	0.37693095
14	0x3e9c7f5f	0.30565926
15	0xbf04f582	-0.51937115
16	0x3e39bad4	0.18137676
17	0xbf80d85f	-1.0066031
18	0x3f002f64	0.5007231
19	0x3fb7fb0c	1.4373488
20	0x3f7184dd	0.9434336
21	0xbe527785	-0.20553406
22	0x3f08152f	0.53157324
23	0xbdc5384f	-0.09629881
24	0xbf09c283	-0.53812426
25	0xbdaecb77	-0.085349016
26	0x3f378a34	0.71695256
27	0xbee48738	-0.44634414
28	0xbec86345	-0.39138237
29	0xbedb86dd	-0.4287633

dijetResNetBlock.multijetAttention.attention.v_linear.module.bias f4 [6]
0	0x3e8734e3	0.26407537
1	0xbda8ca9c	-0.0824177
2	0xbf416fc9	-0.75561196
3	0xbe901ded	-0.28147832
4	0x3f5400c6	0.8281368
5	0x3f79717b	0.9743878

dijetResNetBlock.multijetAttention.attention.o_linear.module.weight f4 [9, 6, 1]
0	0xbdc75430	-0.09732854
1	0x3f30f15b	0.6911828
2	0x3f8ae33d	1.0850598
3	0x3e4f5a47	0.20249282
4	0xbe70f11a	-0.23529473
5	0xbe1fd328	-0.15607893
6	0xbe614956	-0.22000632
7	0x3e9cd8e1	0.30634215
8	0xbe7f8798	-0.24954069
9	0x3fb929e8	1.4465914
10	0xbf7103af	-0.94146246
11	0x3e3230c9	0.17401423
12	0xbef7ca8e	-0.48396724
13	0x3ed0ff3a	0.40819722
14	0x3f3c503b	0.7355992
15	0xbe097aea	-0.13425794
16	0x3e8e9a60	0.27852154
17	0x3fbdf14b	1.4839262
18	0xbf61ba93	-0.88175315
19	0x3f35b9a6	0.709864
20	0xbed47940	-0.41498756
21	0xbefcd42d	-0.49380627
22	0xbf3c9d5c	-0.7367761
23	0x3e803861	0.25043014
24	0xbe0eb1f4	-0.13935071
25	0xbef03a68	-0.4691956
26	0x402e0b08	2.7194233
27	0x3ecef99e	0.40424818
28	0x3ef021ea	0.46900874
29	0xbd34fd16	-0.044186674
30	0xc0424f96	-3.0361075
31	0xbef05368	-0.46938634
32	0x3e3e51c4	0.18585879
33	0x3d3c5b5a	0.045985557
34	0x3e02bff6	0.1276854
35	0xbe336c9f	-0.17521904
36	0xbf2b8c4b	-0.67010945
37	0x3c4c9f9b	0.012489225
38	0x3e11630e	0.14197943
39	0x3e98dafa	0.29854566
40	0x3d91be9c	0.07116434
41	0x3ff9fa9a	1.9529603
42	0x3e2be98e	0.16788313
43	0xbea22efe	-0.31676477
44	0xbf179155	-0.59206134
45	0x3e921bbc	0.28536785
46	0x3fd41e6e	1.6571786
47	0xbeeff191	-0.46863988
48	0x3dd27e35	0.10277978
49	0xbff117f2	-1.8835433
50	0x3e47d306	0.19514093
51	0xbf24f3a7	-0.64434284
52	0x3d9b3969	0.075793095
53	0x3e714be9	0.23564114

dijetResNetBlock.multijetAttention.attention.o_linear.batchNorm.gamma f4 [9]
0	0x3ea5a38d	0.32351342
1	0x3f637227	0.8884606
2	0x3e659c5d	0.22422929
3	0x3f1dda65	0.6166137
4	0x400dc663	2.2152336
5	0x40258916	2.586492
6	0x3eb0bb21	0.34517768
7	0x3fa5107f	1.2895659
8	0x3fdbc0ea	1.7168248

dijetResNetBlock.multijetAttention.attention.o_linear.batchNorm.bias f4 [9]
0	0x00000000	0.0
1	0x00000000	0.0
2	0x00000000	0.0
3	0x00000000	0.0
4	0x00000000	0.0
5	0x00000000	0.0
6	0x00000000	0.0
7	0x00000000	0.0
8	0x00000000	0.0

dijetResNetBlock.multijetAttention.attention.o_linear.batchNorm.m f4 [1, 9, 1]
0	0x00000000	0.0
1	0x00000000	0.0
2	0x00000000	0.0
3	0x00000000	0.0
4	0x00000000	0.0
5	0x00000000	0.0
6	0x00000000	0.0
7	0x00000000	0.0
8	0x00000000	0.0

dijetResNetBlock.multijetAttention.attention.o_linear.batchNorm.s f4 [1, 9, 1]
0	0x4022ff7e	2.546844
1	0x40189ed0	2.3846931
2	0x3fa812e8	1.313077
3	0x4022e1b3	2.5450256
4	0x40a62526	5.1920347
5	0x4099c925	4.805804
6	0x401cf5dd	2.4525063
7	0x404ad0fe	3.1690059
8	0x407bf854	3.9370317

dijetEmbed2.module.weight f4 [9, 9, 1]
0	0x3f0f134e	0.5588883
1	0x3e23c510	0.15993142
2	0xbf0d00c9	-0.55079323
3	0x3f45e128	0.77296686
4	0x3f8ff691	1.1247121
5	0x3ee6717a	0.4500845
6	0x3e09c232	0.13452986
7	0x3ed8afb1	0.42321542
8	0xbeb9ecd9	-0.36313513
9	0x3e1b4de9	0.15166439
10	0x3ed7936b	0.42104658
11	0x3e61e14f	0.22058605
12	0xbf2f2c51	-0.68426996
13	0x3e82562d	0.25456372
14	0x3f36a250	0.7134142
15	0x3edc44d2	0.43021256
16	0xbea453f5	-0.32095304
17	0xbc4a7f13	-0.012359398
18	0x3f6d66d8	0.9273505
19	0x3efc9a0d	0.4933628
20	0xbe0c389d	-0.13693471
21	0xbf4637aa	-0.77428687
22	0x3f569da2	0.8383428
23	0xbe127a70	-0.14304519
24	0x3ed4163f	0.41423222
25	0xbdba075e	-0.090834364
26	0xbf884950	-1.0647373
27	0x3f056b09	0.5211645
28	0xbe92f4d1	-0.28702405
29	0xbdbcb21b	-0.092136584
30	0xbd110aba	-0.03541062
31	0xbeb74dfc	-0.35801685
32	0x3df1b732	0.1180252
33	0x3eb6ead4	0.35726035
34	0x3c5be617	0.013421557
35	0x3e2132a7	0.15741979
36	0x3e836c49	0.25668553
37	0xbf1f9487	-0.6233601
38	0xbf829175	-1.020064
39	0xbeaf6e87	-0.34264013
40	0xbf49997c	-0.78749824
41	0x3d898976	0.06715672
42	0xbf9f76ba	-1.2458107
43	0xbf327fa0	-0.6972599
44	0x3c83dd06	0.016096603
45	0xbec5d801	-0.3864136
46	0x3e4efdde	0.2021403
47	0x3e8f2241	0.2795582
48	0x3c804edf	0.015662609
49	0x3d85c415	0.0653154
50	0x3f34b7bb	0.7059285
51	0xbd67750e	-0.056508116
52	0x3e48fb7c	0.19627184
53	0x3e85bae5	0.26119152
54	0xbfb2ca96	-1.3968074
55	0x3de9c48c	0.114144415
56	0xbf7624a5	-0.96149665
57	0xb9c62c0d	-0.00037798323
58	0x3e004a52	0.12528351
59	0x3e23ec9d	0.1600823
60	0xbe22fecd	-0.15917511
61	0xbd7a9b07	-0.061183
62	0x3d744dc8	0.05964449
63	0xbeb62230	-0.35572958
64	0xbe55fa6c	-0.2089631
65	0xbc85bad7	-0.016324444
66	0xbec248c3	-0.37946138
67	0xbd10b683	-0.035330307
68	0x3e6950f7	0.22784792
69	0xbe612e94	-0.21990424
70	0x3df3c0be	0.11901997
71	0xbe3e6703	-0.18593983
72	0xbf4b6678	-0.7945323
73	0xbe63d84a	-0.22250476
74	0xbd6346a8	-0.055487305
75	0xbe8f6b90	-0.2801175
76	0xbfcad7b6	-1.584708
77	0xbf8ff489	-1.1246501
78	0xbf039377	-0.5139689
79	0xbd923770	-0.0713948
80	0x3e1fb0c1	0.1559477

dijetEmbed2.module.bias f4 [9]
0	0xbf29d808	-0.6634526
1	0x3e875a8b	0.26436266
2	0xbf3ab061	-0.7292538
3	0x3f919b0c	1.1375442
4	0x3f61722c	0.8806484
5	0x3fc23271	1.5171643
6	0x3f0b8c29	0.5451074
7	0x407a19fa	3.9078355
8	0x3f0d2ee5	0.5514968

quadjetGBN.gamma f4 [6]
0	0x3eccbd1b	0.39988026
1	0x3ebef417	0.372956
2	0x3f9a2d21	1.2045022
3	0x3fa91e70	1.3212414
4	0x3f49b8c6	0.78797567
5	0x3f94ff91	1.1640493

quadjetGBN.bias f4 [6]
0	0xbd9ea302	-0.07745935
1	0x3e48065a	0.19533673
2	0x3f131001	0.57446295
3	0x3e223b09	0.15842833
4	0xbe29fea7	-0.16601048
5	0xbea73263	-0.3265563

quadjetGBN.m f4 [1, 6, 1]
0	0x40295aa8	2.6461582
1	0x43f5df46	491.74432
2	0x40428593	3.0394027
3	0x3f7f2d8a	0.9967886
4	0x40a37dc8	5.109104
5	0x44fc1ed8	2016.9639

quadjetGBN.s f4 [1, 6, 1]
0	0x3f554db6	0.833217
1	0x432e3041	174.18849
2	0x404c1702	3.1889043
3	0x404c94ee	3.19659
4	0x3f89b065	1.0756956
5	0x3f665f81	0.8998948

quadjetEmbed.module.weight f4 [9, 6, 1]
0	0x3e078eaa	0.13238016
1	0xbdc1e300	-0.09467125
2	0xbfed3d6a	-1.8534367
3	0xbf39ad0d	-0.7252968
4	0x3e97f086	0.29675692
5	0x3dbf6fc1	0.09347487
6	0xbf29b82e	-0.6629666
7	0x3ea6dd2c	0.32590616
8	0xbf3ad02b	-0.7297389
9	0x3cc15dd4	0.023604311
10	0xbec8d268	-0.39223027
11	0xbd9e68c1	-0.07734824
12	0x3f0cb5fe	0.549652
13	0xbf212bfa	-0.6295773
14	0xbe3ce23b	-0.18445675
15	0x3dfa67eb	0.12226852
16	0xbf9c14ce	-1.2193849
17	0xbe447ab8	-0.19187438
18	0xbe2503d5	-0.16114743
19	0xbe4f3b4a	-0.2023746
20	0xbe044aa3	-0.12919097
21	0x3edf269c	0.43584144
22	0xbeb19727	-0.34685633
23	0x3ef88f63	0.48546895
24	0x3edcd304	0.43129742
25	0xbd5f2a76	-0.054483853
26	0x3da7d7f6	0.08195488
27	0x3c83d90a	0.016094703
28	0xbf6c2aeb	-0.9225299
29	0x3d325a36	0.043543063
30	0xbeb699ef	-0.35664317
31	0x3e778efb	0.24175636
32	0x3f55fab8	0.8358569
33	0xbf9eba20	-1.2400551
34	0x3e162a7f	0.14664648
35	0x3db4757e	0.08811472
36	0xbe197561	-0.14986183
37	0x3e7a19ac	0.24423856
38	0x3d69b521	0.057057504
39	0x39005360	0.00012238091
40	0x3e47bd03	0.19505696
41	0x3fd562ca	1.6670773
42	0x3f0c3e22	0.5478231
43	0x3f07723e	0.52908695
44	0x3e98a504	0.29813397
45	0x3e93b265	0.28847042
46	0xbe87d2f5	-0.26528135
47	0xbcaac47f	-0.02084565
48	0xbec93689	-0.3929942
49	0x3e844bc5	0.25839058
50	0x3d01a653	0.03165276
51	0x3fd497a7	1.6608781
52	0x3e7a3747	0.24435149
53	0x3dd899a0	0.10576177

quadjetEmbed.module.bias f4 [9]
0	0xbf5a3db2	-0.8525039
1	0xbd9b1ef0	-0.0757426
2	0xbefe9b56	-0.49727887
3	0x3cdc75bd	0.02691161
4	0x3f1a0ec0	0.60178757
5	0xbe64629f	-0.22303246
6	0xbdfa4955	-0.12221018
7	0x3f1de9fe	0.6168517
8	0xbe5a5369	-0.21320881

quadjetResNetBlock.reinforce1.sym.weight f4 [9, 1, 2]
0	0x3f000000	0.5
1	0x3f000000	0.5
2	0x3f000000	0.5
3	0x3f000000	0.5
4	0x3f000000	0.5
5	0x3f000000	0.5
6	0x3f000000	0.5
7	0x3f000000	0.5
8	0x3f000000	0.5
9	0x3f000000	0.5
10	0x3f000000	0.5
11	0x3f000000	0.5
12	0x3f000000	0.5
13	0x3f000000	0.5
14	0x3f000000	0.5
15	0x3f000000	0.5
16	0x3f000000	0.5
17	0x3f000000	0.5

quadjetResNetBlock.reinforce1.antisym.weight f4 [9, 1, 2]
0	0x3f000000	0.5
1	0xbf000000	-0.5
2	0x3f000000	0.5
3	0xbf000000	-0.5
4	0x3f000000	0.5
5	0xbf000000	-0.5
6	0x3f000000	0.5
7	0xbf000000	-0.5
8	0x3f000000	0.5
9	0xbf000000	-0.5
10	0x3f000000	0.5
11	0xbf000000	-0.5
12	0x3f000000	0.5
13	0xbf000000	-0.5
14	0x3f000000	0.5
15	0xbf000000	-0.5
16	0x3f000000	0.5
17	0xbf000000	-0.5

quadjetResNetBlock.reinforce1.conv.module.weight f4 [9, 9, 3]
0	0xbe2c3491	-0.16816927
1	0xbf086779	-0.53282887
2	0xbfe4d465	-1.7877318
3	0xbe086e1f	-0.13323258
4	0x3e948ccc	0.2901367
5	0xbf906413	-1.128054
6	0x3dd6e1ee	0.104923114
7	0xbe02b34f	-0.12763713
8	0x3f2525c3	0.64510745
9	0xbef69c9f	-0.48166367
10	0xbdd37106	-0.10324292
11	0x3c2852d9	0.010273659
12	0x3d6b3b38	0.057429522
13	0x3eba329f	0.36366746
14	0x3d283119	0.04106245
15	0xbe9c7483	-0.3055764
16	0x3d14080b	0.036140483
17	0xbfd110d5	-1.6333262
18	0x3d7cc666	0.061712645
19	0x3e05b45b	0.13057081
20	0xbe25ffd0	-0.16210866
21	0x3ea86d11	0.3289571
22	0xbf387f2a	-0.72069037
23	0x3f34167d	0.70346814
24	0xbf256008	-0.6459966
25	0xbf078900	-0.5294342
26	0xbf9fbda0	-1.2479744
27	0xbe7da884	-0.24771315
28	0xbf9daf1e	-1.2319067
29	0x3eefe640	0.46855354
30	0x3e7bd9d0	0.24594808
31	0xbf2129f3	-0.62954634
32	0xbf91f756	-1.1403606
33	0x3ebf2c27	0.37338373
34	0x3e8a2676	0.26982468
35	0xbf899e04	-1.0751348
36	0xbf0373be	-0.51348484
37	0x3fbdbf81	1.4824067
38	0xbd7bf050	-0.061508477
39	0x3f3c8136	0.7363466
40	0xbe85b348	-0.26113343
41	0x3f48eb11	0.7848368
42	0xbeb445f1	-0.3520961
43	0x3ead7ac2	0.3388272
44	0xbdc87961	-0.09788776
45	0x3f178c6f	0.5919866
46	0x3f3bc53f	0.7334785
47	0x3e36757e	0.17818257
48	0x3f18e342	0.5972177
49	0xbf4a72ef	-0.79081625
50	0x3e7ba749	0.24575533
51	0xbfa9534f	-1.3228549
52	0xbf85e92c	-1.0461783
53	0x3f44a6e6	0.76817167
54	0xbecb83fd	-0.39749137
55	0x3efa4c3a	0.4888628
56	0x3ef46abc	0.47737682
57	0x3f07fe1b	0.5312211
58	0xbdf2c848	-0.11854607
59	0xbeb21f85	-0.34789672
60	0xbf23aa0c	-0.63931346
61	0xbeec9e81	-0.4621468
62	0x3f5479c0	0.82998276
63	0xb84ccf61	-4.8830527e-05
64	0xbe1a7970	-0.15085387
65	0xbf868b5e	-1.0511281
66	0xbf2240aa	-0.6337992
67	0x3e7083c2	0.23487762
68	0x3ec8f970	0.39252806
69	0xbeb7f9df	-0.35932824
70	0xbfa5c15a	-1.2949631
71	0x3ea3c056	0.31982678
72	0x3f4147e9	0.7550035
73	0x3e05fe84	0.13085371
74	0xbfd742c8	-1.6817255
75	0xbf88bca7	-1.0682572
76	0xc00cece2	-2.2019582
77	0xbe6ac51b	-0.22926752
78	0xbe94fc30	-0.29098654
79	0xbeaaf86c	-0.33392656
80	0x3d773ae3	0.060358893
81	0x3e18f583	0.14937405
82	0x3d18ed91	0.037335936
83	0xbf000d59	-0.50020367
84	0x3db8df65	0.09026984
85	0x3d9e0cf4	0.07717314
86	0xbead1883	-0.33807763
87	0xbf3a51bf	-0.72780985
88	0x3de7d113	0.113191746
89	0x3fdbfd65	1.7186705
90	0xbf8e1848	-1.110116
91	0x3f7ba7b4	0.9830277
92	0x3e6cce6c	0.23125619
93	0xbe2e597f	-0.17026328
94	0xbe57a71e	-0.21059844
95	0x3fe5a026	1.7939498
96	0xbf4b59f6	-0.79434144
97	0x3f72a3e7	0.94781345
98	0x3f15c471	0.5850287
99	0xbe665f36	-0.22497258
100	0xbf6b3085	-0.9187091
101	0xbebe91c0	-0.37220573
102	0xbe6806b9	-0.22658814
103	0xbfd8b1cb	-1.6929258
104	0x3ee42b58	0.4456432
105	0xbe4dea15	-0.20108826
106	0xbf11bc0c	-0.5692756
107	0xbebfae2b	-0.37437567
108	0x3efa3970	0.48871946
109	0xbe852db3	-0.26011428
110	0x3c7f22a6	0.015572226
111	0xbd70af56	-0.058760963
112	0xbe9ea6bf	-0.30986592
113	0x3f10dcdd	0.5658701
114	0x3fa19953	1.2624916
115	0x3f7f494e	0.9972123
116	0x3f8385d8	1.0275221
117	0x3f1c0fdb	0.60961694
118	0xbf2f7609	-0.6853948
119	0x3e054347	0.13013946
120	0xbf187fbc	-0.5956991
121	0x3e8d6570	0.27616453
122	0x3edc57bf	0.43035695
123	0x3ef61855	0.4806544
124	0xbec964a7	-0.39334604
125	0xbe0518cf	-0.12997745
126	0xbe0a4398	-0.13502347
127	0xbea5fff3	-0.32421836
128	0xbf7d92d8	-0.9905219
129	0xbe9fbd9a	-0.31199342
130	0x3f09eb87	0.5387501
131	0xbe028d87	-0.12749301
132	0x3e818793	0.25298747
133	0x3f08be7f	0.53415674
134	0xbf22266e	-0.6333989
135	0xbdc0183f	-0.093796246
136	0x3da80678	0.08204359
137	0x3c157757	0.009122691
138	0x3f42e437	0.7612948
139	0xbdb4358a	-0.08799274
140	0x3f8c9280	1.0982208
141	0x3db58acd	0.08864365
142	0xbd55e8ae	-0.052223854
143	0xbf2a58b2	-0.6654159
144	0xbe6875bb	-0.2270116
145	0xbf7ef2fb	-0.9958951
146	0xbc4bf91a	-0.012449527
147	0x3ec5ece2	0.3865729
148	0xbae33bfa	-0.00173366
149	0xbfa1031d	-1.2579075
150	0xbcd47eb6	-0.025939327
151	0xbeb52388	-0.3537867
152	0xbf352074	-0.70752645
153	0x3f9c26fb	1.2199396
154	0x3e466414	0.19374114
155	0xbd518f31	-0.05116195
156	0x3efd2da0	0.49448872
157	0xbd9b4d2d	-0.075830795
158	0x3ebf6fb0	0.37389898
159	0xbefc2677	-0.49248096
160	0xbf22b3cc	-0.635556
161	0x3e9fce45	0.3121206
162	0x3d3aae9f	0.045576688
163	0x3cc1d291	0.023659976
164	0xbd09ab6e	-0.033610754
165	0x3d5a212e	0.0532543
166	0x3c974cb4	0.018469192
167	0x3d72b622	0.059255727
168	0x3ed288ab	0.41119894
169	0xbe9a43ab	-0.30129752
170	0x3e9dff2e	0.3085875
171	0x3dc0d844	0.094162494
172	0x3ea86a1d	0.32893458
173	0xbf3ac543	-0.7295725
174	0xbe0d8333	-0.1381958
175	0x3f1f2b63	0.6217558
176	0x3bd38a35	0.0064556845
177	0xbd8f12d8	-0.06986016
178	0xbf1043d9	-0.5635353
179	0x3dda93ba	0.10672708
180	0x3ea6f5a0	0.32609272
181	0xbea4f8e0	-0.32221127
182	0xc08d1a16	-4.4094343
183	0x3dbad2b4	0.0912222
184	0xbe0ce216	-0.1375812
185	0xbe4baf80	-0.19891167
186	0xbe144432	-0.1447914
187	0x3efa6063	0.48901662
188	0x3e33babc	0.17551702
189	0xbf342750	-0.70372486
190	0x3ef741d8	0.48292422
191	0xbe5cbaf9	-0.215557
192	0x3fd73241	1.6812211
193	0x3f684c04	0.9074099
194	0xbdc33298	-0.09531134
195	0xbec5fa0d	-0.38667336
196	0xbcc63f60	-0.024200141
197	0xbf1df886	-0.6170734
198	0x3db5b9d7	0.08873337
199	0x3f2ae5ce	0.66756904
200	0xbe8ec31e	-0.27883238
201	0xbf31336d	-0.69219095
202	0xbfdf5a2b	-1.7449392
203	0xbf13c340	-0.577198
204	0xbe9d2099	-0.30688933
205	0x3f813c19	1.0096465
206	0x3e8739b6	0.26411217
207	0x3cfbc778	0.030734763
208	0x3ed9e706	0.4255907
209	0x3e09ec8b	0.1346914
210	0xbe5c7025	-0.21527155
211	0xbf7f6638	-0.9976535
212	0xbf47fe5c	-0.78122497
213	0xbea38fef	-0.3194575
214	0xbf8d9406	-1.1060798
215	0x3e79e6ec	0.24404496
216	0x3f13de43	0.5776102
217	0xbeef89bc	-0.4678477
218	0xbf4a8955	-0.791158
219	0xbe4dc8a2	-0.20096067
220	0x3edde7c4	0.43340886
221	0xbfa96b46	-1.3235862
222	0x3eb409dd	0.35163775
223	0x3eebdb30	0.46065664
224	0x3f2bfa9c	0.67179275
225	0x3ee7c93d	0.4527072
226	0x3fb22377	1.3917073
227	0xbe7ac52c	-0.24489278
228	0xbf0118d9	-0.5042854
229	0xbeae5976	-0.34052628
230	0x3f0e11e0	0.55496025
231	0x3eb88001	0.3603516
232	0x3da9f6b5	0.08299009
233	0x3f61c77a	0.88195
234	0xbee31ec4	-0.4435941
235	0x3dca0545	0.09864286
236	0xbf3f5b84	-0.74749017
237	0xbe9dbc99	-0.3080795
238	0xbf6979b9	-0.9120136
239	0xbfc7604f	-1.5576266
240	0x3f4cba4f	0.79971784
241	0xbe83e364	-0.25759423
242	0xbf53938f	-0.8264703

quadjetResNetBlock.reinforce1.conv.batchNorm.gamma f4 [9]
0	0x3fec50fe	1.8462217
1	0x3f884b71	1.0648023
2	0x4003d927	2.060129
3	0x3fc5e985	1.546189
4	0x3f4159d4	0.7552769
5	0x3f77698b	0.9664542
6	0x3ff327a6	1.8996475
7	0x3fad02ad	1.3516442
8	0x3fb85090	1.4399586

quadjetResNetBlock.reinforce1.conv.batchNorm.bias f4 [9]
0	0xbea2652f	-0.31717822
1	0x3d5f7fcb	0.054565232
2	0xbf88e49e	-1.0694768
3	0xbe7d5924	-0.24741036
4	0xbdf8db66	-0.12151222
5	0xbf32f7f9	-0.69909626
6	0x3ef76160	0.4831648
7	0xbd107286	-0.035265468
8	0xbcc082b5	-0.023499826

quadjetResNetBlock.reinforce1.conv.batchNorm.m f4 [1, 9, 1]
0	0xc030657f	-2.7561948
1	0x40237480	2.5539856
2	0xc0d1e208	-6.5588417
3	0xc07b63d2	-3.9279675
4	0x3e908740	0.28228188
5	0x3fc8377d	1.5641934
6	0xbf8d92cc	-1.1060424
7	0xbeeb4827	-0.45953485
8	0x3e11af07	0.14226924

quadjetResNetBlock.reinforce1.conv.batchNorm.s f4 [1, 9, 1]
0	0x4028716a	2.6319222
1	0x4014c779	2.3246748
2	0x4067db94	3.622777
3	0x40345028	2.8173923
4	0x40102fa2	2.2529073
5	0x401a93a2	2.4152608
6	0x406b595b	3.6773288
7	0x4041c49d	3.0276253
8	0x40570e1a	3.3602357

quadjetResNetBlock.convD.module.weight f4 [9, 9, 1]
0	0xbe2900a6	-0.16504154
1	0xbef23fbd	-0.47314253
2	0xbeccee24	-0.40025437
3	0xbe9ec1e0	-0.3100729
4	0x3faca972	1.3489211
5	0x3eb8c769	0.36089638
6	0x3efc9e73	0.49339637
7	0xbe869d08	-0.2629168
8	0x3fd424ff	1.657379
9	0x3ea35d01	0.31906894
10	0xbeb549a5	-0.3540775
11	0x3dd755c8	0.10514408
12	0x3e64aef8	0.2233237
13	0x3d651d6b	0.05593626
14	0xbe5654e2	-0.20930818
15	0xbf2445ad	-0.64168817
16	0x3fc97366	1.5738342
17	0xbf89750c	-1.0738845
18	0x3e8ee192	0.27906471
19	0xbfcf205e	-1.6181753
20	0x3f55f984	0.83583856
21	0xbe9cfe86	-0.30662936
22	0xbe168b0a	-0.14701477
23	0xbf37052d	-0.7149227
24	0x3e673bb4	0.22581369
25	0xbd215b10	-0.039393485
26	0xbf0a9d39	-0.5414615
27	0x3f24e06f	0.6440496
28	0x3cbc2bdb	0.02297013
29	0xbec40a84	-0.38289273
30	0xbe173629	-0.14766754
31	0xbf4be604	-0.7964785
32	0x3ed53897	0.41644737
33	0x3ef78cec	0.48349702
34	0xc004d24c	-2.0753355
35	0x3f11df7a	0.56981623
36	0xbec41838	-0.38299727
37	0xbfea1aa1	-1.8289376
38	0xbe100086	-0.140627
39	0xbf0f14ed	-0.55891305
40	0x3f1a6838	0.60315275
41	0xbebc8260	-0.36818218
42	0xbe95b992	-0.2924314
43	0x3e8c9907	0.274605
44	0xbeee7561	-0.46573928
45	0x3d699a0c	0.057031676
46	0xbea8438b	-0.3286403
47	0xbe24e77c	-0.1610393
48	0x3d794ac3	0.060862314
49	0x3fbc7626	1.4723556
50	0x3f7a1fd4	0.97704816
51	0xbb9e0188	-0.00482196
52	0xbf5008f2	-0.8126365
53	0x3f377b0c	0.7167213
54	0xbfbe3f2d	-1.486303
55	0xbe907d70	-0.282207
56	0x3fa95d32	1.3231566
57	0x3db568fa	0.08857913
58	0xbf7784b5	-0.9668687
59	0xbd08f188	-0.033433467
60	0xbf5a7289	-0.85331017
61	0x3ee10194	0.43946517
62	0xbeef037e	-0.46682352
63	0x3e044918	0.12918508
64	0x3e496613	0.19667844
65	0x3f032299	0.51224667
66	0xbf272ea0	-0.6530552
67	0xbdcba59b	-0.09943696
68	0x3ee63642	0.4496327
69	0x3f23052b	0.6367976
70	0xbf96b3ea	-1.1773655
71	0x3eb1abbe	0.3470134
72	0xbe6e9588	-0.23299229
73	0x3d66d11e	0.056351773
74	0xbe0e5490	-0.13899446
75	0xbf234cb4	-0.63788915
76	0xbf8e435c	-1.1114306
77	0xbfdf45de	-1.7443197
78	0x3e833fad	0.25634518
79	0x3d0c7d38	0.034299105
80	0x3e8aab66	0.27083892

quadjetResNetBlock.convD.batchNorm.gamma f4 [9]
0	0x3f2370a9	0.6384378
1	0x3f512f6a	0.81712973
2	0x3e894519	0.2681053
3	0x3ff398ef	1.9031047
4	0x3f301e83	0.6879656
5	0x3fbe4b95	1.4866816
6	0x3f21602e	0.63037384
7	0x3f5ed9f9	0.8705135
8	0x3f86ae21	1.052189

quadjetResNetBlock.convD.batchNorm.bias f4 [9]
0	0x3f7d704d	0.9899948
1	0x3f9b2b01	1.2122499
2	0x3f6ed684	0.93296075
3	0xbed65f6e	-0.41869682
4	0xbf075f92	-0.52880204
5	0xbfd33421	-1.6500283
6	0x3fbacfcb	1.4594663
7	0x3ebe83cf	0.37209937
8	0x3ed54e58	0.41661334

quadjetResNetBlock.convD.batchNorm.m f4 [1, 9, 1]
0	0xbee25a77	-0.44209644
1	0x40a748b4	5.227625
2	0xc03b9ca8	-2.9314365
3	0xc0ca178e	-6.3153753
4	0xc041482f	-3.0200307
5	0xbf8224cf	-1.0167483
6	0xbf239545	-0.6389964
7	0xc067c34a	-3.6212945
8	0xc09bff11	-4.874886

quadjetResNetBlock.convD.batchNorm.s f4 [1, 9, 1]
0	0x400d523a	2.2081437
1	0x4063bbf0	3.5583458
2	0x4032047d	2.781524
3	0x4082ef09	4.091679
4	0x40380257	2.8751428
5	0x402321ba	2.5489335
6	0x4022531d	2.5363228
7	0x403aa89c	2.916541
8	0x40510dd1	3.2664683

quadjetResNetBlock.reinforce2.sym.weight f4 [9, 1, 2]
0	0x3f000000	0.5
1	0x3f000000	0.5
2	0x3f000000	0.5
3	0x3f000000	0.5
4	0x3f000000	0.5
5	0x3f000000	0.5
6	0x3f000000	0.5
7	0x3f000000	0.5
8	0x3f000000	0.5
9	0x3f000000	0.5
10	0x3f000000	0.5
11	0x3f000000	0.5
12	0x3f000000	0.5
13	0x3f000000	0.5
14	0x3f000000	0.5
15	0x3f000000	0.5
16	0x3f000000	0.5
17	0x3f000000	0.5

quadjetResNetBlock.reinforce2.antisym.weight f4 [9, 1, 2]
0	0x3f000000	0.5
1	0xbf000000	-0.5
2	0x3f000000	0.5
3	0xbf000000	-0.5
4	0x3f000000	0.5
5	0xbf000000	-0.5
6	0x3f000000	0.5
7	0xbf000000	-0.5
8	0x3f000000	0.5
9	0xbf000000	-0.5
10	0x3f000000	0.5
11	0xbf000000	-0.5
12	0x3f000000	0.5
13	0xbf000000	-0.5
14	0x3f000000	0.5
15	0xbf000000	-0.5
16	0x3f000000	0.5
17	0xbf000000	-0.5

quadjetResNetBlock.reinforce2.conv.module.weight f4 [9, 9, 3]
0	0x3f480d15	0.7814496
1	0x3da6bb60	0.08141208
2	0x3e112d26	0.14177379
3	0x3d2d6bc6	0.04233911
4	0x3e61949e	0.22029349
5	0x3f1fa11f	0.62355226
6	0xbefb9971	-0.49140504
7	0x3e38cf0c	0.18047732
8	0xbf963fc3	-1.1738209
9	0xbf0a31e6	-0.5398239
10	0x3e4dfee5	0.20116766
11	0x3dc8b0c2	0.09799339
12	0x3ec25ac1	0.37959865
13	0xbf258141	-0.6465035
14	0x3d02d7e5	0.031944174
15	0x3d9234a0	0.07138944
16	0x3cae55ba	0.021281112
17	0xbd9211dc	-0.07132313
18	0x3db7d452	0.08976044
19	0xbe5c46fd	-0.21511455
20	0xbeceaa3b	-0.4036425
21	0x3e731f79	0.23742475
22	0x3d02c269	0.031923685
23	0xbe17ddad	-0.14830656
24	0xbecadc46	-0.3962118
25	0xbeaf3a42	-0.34224135
26	0x3f8a4091	1.0800954
27	0x3f7b2ec1	0.98118216
28	0x3e8ce421	0.275178
29	0x3f822831	1.0168515
30	0x3b9a8bba	0.0047163637
31	0x3e730ea9	0.23736061
32	0xbf0acf99	-0.5422302
33	0x3f94c36a	1.1622136
34	0xbe5b37ed	-0.21408053
35	0xbfafce73	-1.3734878
36	0x3f11c6d7	0.5694403
37	0x3e25f1c9	0.16205515
38	0xbf20c986	-0.628075
39	0xbf89aeac	-1.0756431
40	0xbe833c66	-0.25632018
41	0x3f1ac8af	0.6046247
42	0xbf345f4d	-0.7045792
43	0x3db56de8	0.088588536
44	0xbe574856	-0.21023688
45	0xbdaa955a	-0.08329268
46	0x3e5c6063	0.21521144
47	0x3f862736	1.0480716
48	0x3eb4a934	0.35285342
49	0x3ef2a4cc	0.47391355
50	0xbebd35ab	-0.36955008
51	0x3f7c6974	0.9859841
52	0x3dabaeee	0.083829746
53	0xbe02c4a7	-0.1277033
54	0xbf33eaee	-0.7028035
55	0x3db69c2f	0.089165084
56	0x3e836ddb	0.2566975
57	0x3e03e4d7	0.12880264
58	0x3f0aff4e	0.54295814
59	0x3e4d6526	0.20058116
60	0x3ee1ec32	0.44125515
61	0x3db29a73	0.08720865
62	0x3c0589ce	0.008150531
63	0x3c2a1ee1	0.010383339
64	0x3ed54149	0.4165137
65	0x3eb6a5a8	0.3567326
66	0x3d59313c	0.05302547
67	0xbeb67c6d	-0.35641804
68	0x3f0d336f	0.55156606
69	0xbd96d0d8	-0.073640525
70	0x3f581c3f	0.844181
71	0x3d5b39af	0.05352181
72	0x3f9a78a4	1.2068067
73	0x3f6b834e	0.9199723
74	0x3f1c13b4	0.60967565
75	0x3f028a05	0.5099185
76	0xbf39c4a2	-0.7256566
77	0xbdb3e977	-0.08784764
78	0x3ceb74bd	0.028742189
79	0x3ef7e4e1	0.48416808
80	0x3d853a32	0.065052405
81	0x3e6fa25f	0.23401783
82	0x3eba31e9	0.36366203
83	0x3f48270b	0.78184575
84	0xbeeee515	-0.4665915
85	0x3f0f6b35	0.5602296
86	0xbe614dba	-0.22002307
87	0x3f66d355	0.9016622
88	0x3d4ebe99	0.050474737
89	0xbf85de1d	-1.0458409
90	0xbeb7caa4	-0.3589679
91	0x3e5e35a6	0.21700153
92	0xbf174f78	-0.59105635
93	0xbf38e5ea	-0.7222582
94	0xbf1361a6	-0.57570875
95	0xbeac7611	-0.33683828
96	0xbf44a905	-0.76820403
97	0x3d125fba	0.035735823
98	0x3e48159c	0.19539493
99	0xbee0dcec	-0.4391855
100	0xbec64fb2	-0.38732678
101	0xbdeab239	-0.114597745
102	0xbd17b6c7	-0.037039544
103	0x3ef8ba52	0.4857965
104	0xbef4def8	-0.47826362
105	0x3f1c6fc2	0.6110803
106	0x3d0b4a75	0.034006555
107	0xbe9f71ca	-0.31141502
108	0xbeb5f995	-0.35541978
109	0xbf7a9fb2	-0.97899926
110	0xbf20ecca	-0.6286131
111	0x3f635f63	0.88817424
112	0xbf1fd809	-0.6243902
113	0xbed535eb	-0.416427
114	0x3e453ea6	0.1926218
115	0xbe2021ec	-0.1563794
116	0x3e97f6b7	0.29680416
117	0xbd2be0c1	-0.04196239
118	0x3f3b5f85	0.73192626
119	0xbd6a83d3	-0.057254624
120	0x3f1ebe33	0.6200897
121	0x3f794e04	0.9738467
122	0xbef4be3c	-0.47801387
123	0xbe1bd48b	-0.15217797
124	0xbe4f8d6c	-0.20268792
125	0xbdd87144	-0.10568479
126	0xbf3f219a	-0.74660647
127	0xbf329d21	-0.6977101
128	0xbd804854	-0.062637955
129	0x3ea0195e	0.31269354
130	0xbdedf9c2	-0.11619903
131	0x3f283105	0.656998
132	0xbf28727c	-0.6579969
133	0xbec5bdfc	-0.3862151
134	0xbed9bb18	-0.42525554
135	0xbddddeca	-0.10833509
136	0xbe554f42	-0.20831016
137	0xbf125296	-0.57157266
138	0xbedc8a47	-0.43074247
139	0xbea3c188	-0.3198359
140	0x3f09f223	0.53885096
141	0x3d188929	0.03724018
142	0x3df760c9	0.12079007
143	0x3f0e5472	0.55597603
144	0xbf7b8e96	-0.98264444
145	0x3f33fa95	0.7030423
146	0x3eaa6f74	0.33288157
147	0x3f1a9399	0.60381466
148	0xbc7e291a	-0.015512729
149	0xbea05795	-0.3131682
150	0x3d1b348f	0.03789192
151	0x3dfb7ec6	0.122800395
152	0xbf97f08c	-1.1870284
153	0x3e8472cb	0.2586883
154	0x3eb4429c	0.3520707
155	0xbeb164de	-0.34647268
156	0x3c6b709a	0.014370108
157	0xbef94316	-0.48683995
158	0x3f0dfec0	0.5546684
159	0xbf0cf0f7	-0.55055183
160	0x3e47c0ac	0.19507092
161	0x3f60febc	0.87888694
162	0xbeeb672a	-0.45977145
163	0x3c995c78	0.01872085
164	0x3f911871	1.1335584
165	0xbe663d4e	-0.22484323
166	0x3ec096d7	0.37615082
167	0xbeaa0aac	-0.33211267
168	0x3f2322f7	0.6372523
169	0x3be81c81	0.007083476
170	0xc004f619	-2.0775206
171	0x3f8cff77	1.1015462
172	0x3e20476b	0.15652244
173	0xbead3564	-0.33829796
174	0xbeda1a81	-0.42598346
175	0x3e849f93	0.25902995
176	0x3f24c292	0.6435939
177	0xbec40770	-0.38286924
178	0x3ec95e6b	0.39329848
179	0x3d818de8	0.063258946
180	0xbede1c50	-0.43380976
181	0xbeba3a31	-0.36372522
182	0x3ea316ce	0.31853336
183	0x3de28068	0.11059648
184	0x3e65cca2	0.22441342
185	0xbed3e664	-0.41386712
186	0x3ee86750	0.4539132
187	0xbe52e626	-0.20595607
188	0x3e1b7223	0.15180258
189	0x3e56fc0d	0.20994587
190	0xbf5c961d	-0.86166555
191	0xbf910bc6	-1.1331718
192	0x3e37c9dd	0.17948098
193	0x3f2d56b0	0.677104
194	0x3f44df4b	0.7690322
195	0xbf98214d	-1.1885163
196	0xbf628013	-0.88476676
197	0x3e455389	0.19270147
198	0xbf3755f9	-0.7161556
199	0x3f2232cd	0.63358766
200	0x3f036547	0.5132641
201	0x3f84f6cc	1.0387816
202	0x3f3d2693	0.73886985
203	0xbf2d95b5	-0.6780656
204	0x3e6b9206	0.23004922
205	0xbf7e7ee3	-0.99412364
206	0x3f222a85	0.6334613
207	0x3ee2ef2b	0.44323096
208	0x3dba8702	0.09107782
209	0xbf98063a	-1.18769
210	0x3ee037b8	0.4379251
211	0xbeec94a8	-0.46207166
212	0x3f4c2475	0.7974313
213	0xbf17032b	-0.5898921
214	0xbd3b1dc4	-0.045682684
215	0x3de0d5f5	0.10978309
216	0x3ed3ac27	0.4134228
217	0xbe0891d7	-0.13336883
218	0x3e85e925	0.26154438
219	0xbf2d12f9	-0.67607075
220	0xbe8bc28c	-0.27296865
221	0x3e9e9c0f	0.30978438
222	0x3e62cd6f	0.22148679
223	0x3e263469	0.1623093
224	0x3f816af8	1.0110769
225	0x3d55a555	0.052159626
226	0x3e6ee89c	0.23330921
227	0x3f3b1d9e	0.7309207
228	0x3e58ecec	0.21184129
229	0x3eb702c4	0.35744298
230	0x3e8fc7b4	0.2808205
231	0xbe2b2df4	-0.16716748
232	0x3f3a2efd	0.7272795
233	0x3f98e00b	1.1943372
234	0xbe58135e	-0.21101138
235	0xbe96d646	-0.29460353
236	0xbe00a119	-0.12561454
237	0x3e5f69e6	0.21817741
238	0x3d4eb30c	0.05046372
239	0x3de67df3	0.11254492
240	0xbea7b52c	-0.3275541
241	0xbdefce4f	-0.11709272
242	0xbf40c8dc	-0.7530649

quadjetResNetBlock.reinforce2.conv.module.bias f4 [9]
0	0xbda3bc42	-0.07994892
1	0x3ea6d265	0.32582393
2	0x3f9edfba	1.2412026
3	0xbe041475	-0.12898429
4	0x3f3ec297	0.7451567
5	0xbe5b8310	-0.21436715
6	0x3d9454cc	0.07242736
7	0xbe333e32	-0.17504194
8	0xbf5dac6c	-0.8659122

eventConv1.module.weight f4 [9, 9, 1]
0	0x3f926b8d	1.1439072
1	0x3f32af39	0.6979862
2	0xbed1fc7c	-0.41012943
3	0x3e8785a4	0.26469147
4	0x3db1eb6f	0.086874835
5	0xbef9ed72	-0.4881397
6	0x3c6150b6	0.013752153
7	0x3e44a64f	0.19204067
8	0xbfa3de64	-1.2802243
9	0x3f8e1170	1.1099072
10	0xbfba0cdb	-1.4535173
11	0x3db2cd9e	0.087306246
12	0xbf90f754	-1.1325479
13	0x3ea51eca	0.32250053
14	0x3ec6d270	0.38832426
15	0x3e72c366	0.23707351
16	0xbdf5c4c1	-0.120004185
17	0x3f555c0d	0.83343583
18	0x3f0eb457	0.55743927
19	0xbf3350b2	-0.70045006
20	0xbf347ba5	-0.70501167
21	0xbf93dc3a	-1.1551583
22	0x3f2825d4	0.6568272
23	0xbdce4f55	-0.10073725
24	0x3d9d8963	0.0769222
25	0xbe308603	-0.17238621
26	0x3ee69050	0.45031977
27	0xbea7d277	-0.3277776
28	0x3dd157f2	0.10221852
29	0xbe0f7a4d	-0.14011498
30	0xbe0231af	-0.12714265
31	0xbf8b2f9c	-1.0873904
32	0x3f74cbe1	0.95623595
33	0x3e6bfa95	0.23044808
34	0x3f90541f	1.1275672
35	0xbec02329	-0.37526825
36	0xbee4fd53	-0.4472452
37	0x3eb3fa6d	0.35151997
38	0x3f33b90d	0.7020424
39	0xbe9d1312	-0.30678612
40	0xbf4634f8	-0.77424574
41	0x3f30f5b1	0.69124895
42	0xbf099f84	-0.53759027
43	0xbedc5634	-0.43034518
44	0xbf832fbb	-1.0248941
45	0xbf9a256e	-1.2042673
46	0x3f78230f	0.96928495
47	0xbf31b5fc	-0.6941831
48	0xbee8f6a5	-0.45500675
49	0xbdc0be94	-0.0941135
50	0xbf07d796	-0.53063333
51	0x3eada425	0.33914295
52	0x3e801e6a	0.25023204
53	0xbd942880	-0.07234287
54	0x3d75e43c	0.060032114
55	0xbec04d2d	-0.3755888
56	0x3e74b0de	0.23895594
57	0xbeffe0ca	-0.49976188
58	0x3f3c4cbb	0.7355458
59	0x3f06dce1	0.52680784
60	0xbeaf92ed	-0.34291783
61	0x3f085d33	0.5326721
62	0x3f849f76	1.0361164
63	0xbe86ca59	-0.26326254
64	0xbe6c4671	-0.23073746
65	0x3f180f68	0.5939851
66	0x3ec894ec	0.39176118
67	0xbe1e2e30	-0.15447307
68	0xbfad5180	-1.3540497
69	0xbef8e57a	-0.48612577
70	0xbf38d860	-0.7220516
71	0xbf8ac530	-1.0841427
72	0xbf65aeb4	-0.897197
73	0x3e8e66bc	0.27812755
74	0xbf344d78	-0.7043071
75	0xbf1e466a	-0.61826193
76	0x3e6d5a15	0.23178895
77	0xbfaed72b	-1.3659414
78	0xbde52fc8	-0.11190754
79	0xbe98c233	-0.29835662
80	0xbf6bbf8f	-0.9208917

eventConv1.batchNorm.gamma f4 [9]
0	0x3f6d4210	0.9267893
1	0x400306c4	2.047288
2	0x3ff9c21d	1.9512364
3	0x3f6871e5	0.9079879
4	0x3fb68cd8	1.4261732
5	0x40084f3f	2.1298368
6	0x3f95ef58	1.1713667
7	0x3fe16473	1.760878
8	0x3fd45cc5	1.6590811

eventConv1.batchNorm.bias f4 [9]
0	0xbf2e923b	-0.6819188
1	0xbfa25979	-1.2683555
2	0x3f208bd3	0.62713355
3	0xbf1fc9ea	-0.6241747
4	0xbf9ca13e	-1.2236707
5	0xbf54bc94	-0.8310025
6	0xbec5dbfc	-0.38644397
7	0xbfc1dc05	-1.514527
8	0xbd9eaccd	-0.07747803

eventConv1.batchNorm.m f4 [1, 9, 1]
0	0xbe33586c	-0.17514199
1	0xc06e432d	-3.72285
2	0xc0d13139	-6.5372586
3	0x3f9883e5	1.1915251
4	0x406b66ca	3.6781487
5	0xbf771877	-0.96521705
6	0x3ff625b8	1.9230261
7	0x3e687181	0.22699548
8	0xc0a348ba	-5.1026278

eventConv1.batchNorm.s f4 [1, 9, 1]
0	0x40538450	3.3049507
1	0x408d8594	4.422556
2	0x40213e52	2.5194287
3	0x401401f1	2.3126185
4	0x40411290	3.016758
5	0x403171cd	2.7725708
6	0x407d530d	3.958194
7	0x4035bedc	2.8397741
8	0x405bfdbd	3.437362
