nTupleAnalysis/pytorchModels/FvT_ResNet+multijetAttention_8_8_8_np1494_lr0.008_epochs40_stdscale_epoch35_loss0.1269.pkl (torch_old, 65868 bytes, 151 tensors)

canJetScaler.m f4 [1, 4, 1]
0	0x00000000	0.0
1	0x00000000	0.0
2	0x00000000	0.0
3	0x00000000	0.0

canJetScaler.s f4 [1, 4, 1]
0	0x3f800000	1.0
1	0x3f800000	1.0
2	0x40490fdb	3.1415927
3	0x3f800000	1.0

othJetScaler.m f4 [1, 5, 1]
0	0x00000000	0.0
1	0x00000000	0.0
2	0x00000000	0.0
3	0x00000000	0.0
4	0x00000000	0.0

othJetScaler.s f4 [1, 5, 1]
0	0x3f800000	1.0
1	0x3f800000	1.0
2	0x40490fdb	3.1415927
3	0x3f800000	1.0
4	0x3f800000	1.0

dijetScaler.m f4 [1, 2, 1]
0	0x00000000	0.0
1	0x00000000	0.0

dijetScaler.s f4 [1, 2, 1]
0	0x3f800000	1.0
1	0x3f800000	1.0

quadjetScaler.m f4 [1, 6, 1]
0	0x00000000	0.0
1	0x00000000	0.0
2	0x00000000	0.0
3	0x00000000	0.0
4	0x00000000	0.0
5	0x00000000	0.0

quadjetScaler.s f4 [1, 6, 1]
0	0x3f800000	1.0
1	0x3f800000	1.0
2	0x3f800000	1.0
3	0x3f800000	1.0
4	0x3f800000	1.0
5	0x3f800000	1.0

jetEmbed.module.weight f4 [8, 4, 1]
0	0x3cc849c7	0.024449242
1	0xbfa0e97b	-1.2571253
2	0x3e0ea028	0.13928282
3	0x3e4c641e	0.19960067
4	0xc0042eca	-2.0653558
5	0xbe14157c	-0.1446132
6	0xbde0ccca	-0.109765604
7	0x3f3a8e1c	0.7287309
8	0x3eb89672	0.3605228
9	0x3f703861	0.9383603
10	0xbe69fdbd	-0.228507
11	0xbf2e9d7a	-0.6820904
12	0x3ec1da82	0.3786202
13	0xbec948dc	-0.393134
14	0x3ec76dc1	0.38950923
15	0xc0083b2d	-2.1286118
16	0xbf36c871	-0.713996
17	0xbe7d8dfb	-0.24761193
18	0x3f095b5c	0.5365503
19	0x3eec1cef	0.46115825
20	0xbf72e053	-0.9487354
21	0xbdc2d774	-0.09513751
22	0x3df1516f	0.1178311
23	0x3ea70b7b	0.32625946
24	0xbf4e22f0	-0.8052206
25	0xbe4a2fa1	-0.19744731
26	0x3d500487	0.050785568
27	0x3f9d821f	1.2305335
28	0xbf398604	-0.72470117
29	0x3fa73a8f	1.3064746
30	0x3e8cb7ba	0.27483922
31	0x3edd4857	0.43219253

jetEmbed.module.bias f4 [8]
0	0xbe0b8ea6	-0.13628635
1	0xbf803742	-1.0016863
2	0xbf65f465	-0.8982604
3	0xbf579b80	-0.8422165
4	0xbf4d80d0	-0.8027468
5	0x3f0b5663	0.5442869
6	0x3eb0574d	0.34441605
7	0x3cf4fb28	0.029904917

dijetGBN.gamma f4 [2]
0	0x3fc9d190	1.5767078
1	0x3f9c0141	1.2187883

dijetGBN.bias f4 [2]
0	0x3ed61457	0.41812393
1	0x3f80ac50	1.0052586

dijetGBN.m f4 [1, 2, 1]
0	0x433a62ee	186.38644
1	0x400b03b9	2.1721022

dijetGBN.s f4 [1, 2, 1]
0	0x42e0e42c	112.44565
1	0x3f71957a	0.9436871

dijetEmbed1.module.weight f4 [8, 2, 1]
0	0x3f363926	0.7118095
1	0xbf826a51	-1.0188695
2	0x3f243a09	0.64151055
3	0xbff180f7	-1.8867482
4	0xbf3eca48	-0.74527407
5	0x3a1b92ef	0.00059346756
6	0xbff7a2fa	-1.9346611
7	0xbdec7f6f	-0.115477435
8	0xc01185ea	-2.2737985
9	0xbf25eeff	-0.64817804
10	0xbdef6486	-0.11689095
11	0xbf8dbb82	-1.1072848
12	0x3eb6e44d	0.35721055
13	0x3da5b468	0.080910504
14	0x3eb11d23	0.34592542
15	0x3fba74e1	1.4566919

dijetEmbed1.module.bias f4 [8]
0	0xbd0648d8	-0.032784313
1	0xbf6b56d7	-0.9192938
2	0x3f81fe0c	1.0155654
3	0x3f30fdea	0.6913744
4	0xbe618c8e	-0.22026274
5	0xbf04f72d	-0.5193966
6	0x3f53585d	0.82556707
7	0x3f247f7c	0.64257026

dijetResNetBlock.reinforce1.conv.module.weight f4 [8, 8, 3]
0	0xbfb45800	-1.4089355
1	0xbfa4a459	-1.2862655
2	0xbebd4f21	-0.36974433
3	0x3faf059f	1.367359
4	0x3ed970c5	0.4246885
5	0x3f432189	0.76223046
6	0x3fa75bfc	1.3074946
7	0x3ff61905	1.9226385
8	0x3f15a4ef	0.58454794
9	0x3f913e37	1.1347111
10	0x400f1e3e	2.2362208
11	0x3f418d57	0.7560629
12	0x3ec7f2a1	0.390523
13	0xbf2aa7d9	-0.66662365
14	0x3ebb1cdd	0.36545458
15	0x3e7e7130	0.24847865
16	0xbf46913d	-0.77565366
17	0x3e8bda14	0.27314818
18	0xbf2b09b3	-0.66811675
19	0xc018f6ca	-2.3900628
20	0x3ddf8012	0.10913099
21	0xbeebeb41	-0.46077922
22	0xbf47765f	-0.77914995
23	0xbe708e27	-0.23491727
24	0x3ecbd87e	0.39813608
25	0xbf9f4eca	-1.244592
26	0xbf70ee91	-0.94114023
27	0x40229e10	2.5408974
28	0x3f776c1c	0.96649337
29	0xbfa4fd31	-1.2889768
30	0xbf3d5125	-0.7395194
31	0x3fb503f0	1.4141827
32	0x3ed6101c	0.41809165
33	0x4089e5b0	4.309288
34	0xbe8c8673	-0.27446327
35	0xbe57ba11	-0.21067072
36	0xbeff93f7	-0.49917576
37	0xbeff4a55	-0.49861398
38	0xbe1a12df	-0.15046261
39	0x3f771f83	0.9653246
40	0x3d0b9cb7	0.034085
41	0xbece4387	-0.40285894
42	0x3fe0fb2e	1.7576654
43	0xbfeb7803	-1.8396
44	0xbf183785	-0.59459716
45	0xbefcde2d	-0.49388257
46	0xbead6756	-0.33867902
47	0xbdb09f07	-0.08624082
48	0x3f8b6be2	1.0892298
49	0xbf203bb5	-0.62591106
50	0x3d8f6c48	0.07003075
51	0xbe3ccd10	-0.184376
52	0x3f2c2f9b	0.6726014
53	0x3e6afa68	0.22947085
54	0xbe602f97	-0.21893154
55	0x3f595da7	0.8490853
56	0x3dd51be2	0.10405709
57	0x3e9aa7c8	0.30206132
58	0x3f1af157	0.60524505
59	0xbf42113a	-0.75807536
60	0x3f136b4a	0.57585585
61	0xbf52aebf	-0.8229789
62	0xbf80ab36	-1.005225
63	0xbd0f88cc	-0.03504257
64	0xbd74d1df	-0.05977046
65	0xbf1b8ef3	-0.60765
66	0x3f5684b3	0.8379623
67	0xbe61813f	-0.2202196
68	0x3f76cf88	0.9641042
69	0x3f173904	0.59071374
70	0x3f10273c	0.56309867
71	0x3fabe7ee	1.3430154
72	0xbf32bf57	-0.6982321
73	0xbf2cd525	-0.6751273
74	0x3e154041	0.14575292
75	0xbf29e2f5	-0.66361934
76	0xbf106ba0	-0.5641422
77	0x408f1d99	4.472363
78	0x3f105330	0.56376934
79	0xbe4f4c92	-0.20244053
80	0x3fc7ffc8	1.5624933
81	0x3f891f59	1.0712692
82	0xbeff16bf	-0.4982204
83	0x3f2098f0	0.62733364
84	0x3e19150d	0.14949436
85	0xbed763b1	-0.42068246
86	0xc0268843	-2.6020668
87	0xbf8935a5	-1.0719496
88	0xbf867d4f	-1.0506991
89	0x3f381424	0.7190573
90	0x3ed7b8d6	0.42133206
91	0x3f7917f6	0.97302186
92	0xbf40f128	-0.75367975
93	0xbf5d490f	-0.86439604
94	0x3e6872bc	0.22700018
95	0x3e0c6add	0.1371264
96	0x3e3b5b75	0.18296607
97	0x3e112414	0.14173919
98	0xbf7109c8	-0.9415555
99	0xbebd560b	-0.36979708
100	0x3fc091bd	1.5044476
101	0xbfe38334	-1.7774415
102	0xbff8cb04	-1.9436955
103	0x3e203bd7	0.15647827
104	0x40007d9a	2.007666
105	0xbe96b6af	-0.29436252
106	0x3fa323aa	1.2745259
107	0x3e1f2fa2	0.15545514
108	0x3f4fe39e	0.8120669
109	0x3f373742	0.7156869
110	0xbf21fbc7	-0.63274807
111	0x3fd5248a	1.6651776
112	0x40160e9a	2.3446412
113	0xbec7e53a	-0.39042073
114	0xbf20f570	-0.6287451
115	0x3e0ac138	0.1355027
116	0x3f720a3d	0.9454687
117	0xbe8423e7	-0.2580864
118	0xbf83378e	-1.0251329
119	0x3f893ad4	1.0721078
120	0x3df0e7ed	0.11762986
121	0xbe85aac7	-0.26106855
122	0xbf559f03	-0.8344576
123	0xbe9c1263	-0.30482778
124	0xbf05eca1	-0.5231419
125	0x3f3b0ffa	0.73071253
126	0x3f123497	0.57111496
127	0xbf8ca143	-1.0986713
128	0x3f221737	0.63316673
129	0x3e6ace00	0.22930145
130	0xbeed324b	-0.46327433
131	0x3fdee58f	1.7413806
132	0xbf4719db	-0.7777383
133	0xbdd0d793	-0.101973675
134	0x406a0650	3.6566353
135	0xbf37b7eb	-0.7176501
136	0x3df39127	0.1189292
137	0x40261fdf	2.5956953
138	0x3f1067e5	0.5640853
139	0x3f156503	0.58357257
140	0xbead94f3	-0.33902702
141	0x3ef1eb6d	0.47249928
142	0x3e9bf4ff	0.30460355
143	0x3f7acd25	0.97969276
144	0x3e6fccb5	0.23417933
145	0x3f064cfb	0.5246121
146	0xbdb93dfb	-0.09045025
147	0x3fdbe091	1.7177907
148	0xbf474c4b	-0.7785079
149	0x3f202575	0.62557155
150	0x402e4ad3	2.723317
151	0x3ebab52f	0.36466357
152	0xbe115f2b	-0.1419646
153	0xbf382929	-0.71937805
154	0xbfc33ad1	-1.5252324
155	0xbffe5355	-1.9869181
156	0xbed1d5a4	-0.40983307
157	0x3e52208c	0.20520228
158	0xc01bf574	-2.4368563
159	0x3f40d82b	0.75329846
160	0xbf6b1727	-0.918322
161	0xbfd05def	-1.6278666
162	0xbd30889a	-0.043099023
163	0x3e0d44a8	0.13795722
164	0xbecc4034	-0.39892733
165	0xbead81f1	-0.338882
166	0xbf30e0bb	-0.6909291
167	0xbec8d8ab	-0.39227805
168	0x3f76d2e6	0.96415555
169	0xbf3082c5	-0.6894954
170	0xbe6882b8	-0.22706115
171	0x3fbaab10	1.4583454
172	0x3f97e3e6	1.1866424
173	0xbfa5d103	-1.295441
174	0x3fe85a74	1.8152604
175	0x3f3a09c9	0.7267118
176	0xbf38c26e	-0.72171676
177	0x40136650	2.3031197
178	0x3f3dc9a2	0.7413579
179	0xbf26e37a	-0.6519085
180	0x3f86a2fe	1.0518491
181	0xbedbc6ac	-0.42925012
182	0xbec357dd	-0.38152972
183	0x3ff7d881	1.9362947
184	0x3eb6d40f	0.35708663
185	0xbf2c3c24	-0.6727927
186	0x3c8c6262	0.017136756
187	0xbd2eac80	-0.042644978
188	0x3d08a894	0.033363894
189	0x3fdb0fd9	1.7114211
190	0x3f97093a	1.1799691
191	0xbd2e32cb	-0.04252891

dijetResNetBlock.reinforce1.conv.batchNorm.gamma f4 [8]
0	0x3fb20282	1.3907015
1	0x3fc9853c	1.5743785
2	0x3db3f589	0.087870665
3	0x3fdbc227	1.7168626
4	0x3f8cf70c	1.1012893
5	0x3fd3e983	1.6555637
6	0x3fdf21fb	1.7432245
7	0x3f0b5ba7	0.54436725

dijetResNetBlock.reinforce1.conv.batchNorm.bias f4 [8]
0	0xbf891367	-1.0709046
1	0xbf99b4bc	-1.2008281
2	0xbf27c364	-0.6553252
3	0xbf4f1062	-0.80884373
4	0xbfa2998e	-1.2703111
5	0xbf54d68b	-0.83139867
6	0xbf1673bf	-0.58770365
7	0x3f45671a	0.77110445

dijetResNetBlock.reinforce1.conv.batchNorm.m f4 [1, 8, 1]
0	0xc0619914	-3.5249681
1	0xbf2b35ef	-0.6687917
2	0x4083ec02	4.1225595
3	0xbfb1d9a0	-1.3894539
4	0x40bad3c8	5.838352
5	0x40d1b162	6.552903
6	0xc0a92cee	-5.2867346
7	0x3dfb6e16	0.122768566

dijetResNetBlock.reinforce1.conv.batchNorm.s f4 [1, 8, 1]
0	0x406d0736	3.7035651
1	0x4045c0fb	3.0899036
2	0x40a71138	5.220852
3	0x40095500	2.145813
4	0x404adf88	3.1698933
5	0x40bdda2d	5.932883
6	0x40a19574	5.049494
7	0x403b728b	2.9288661

dijetResNetBlock.convJ.module.weight f4 [8, 8, 1]
0	0x3f16dc4c	0.58929896
1	0xbe8623e6	-0.26199263
2	0x3ef2dd91	0.47434667
3	0xbfdcbf99	-1.7245971
4	0x3ec258b4	0.379583
5	0x3d71f496	0.059071146
6	0x3e4947ec	0.19656342
7	0x4004e942	2.076737
8	0x3f6b73ed	0.91973764
9	0xbfbae765	-1.4601866
10	0x3f672770	0.9029455
11	0xc03ae6e1	-2.9203417
12	0x3f61f8c6	0.88270223
13	0x3cafe871	0.021473141
14	0x3d71e630	0.059057415
15	0x3e9ebe70	0.31004667
16	0xbebcd193	-0.36878642
17	0xbf072dc4	-0.5280421
18	0xbfbe9b76	-1.4891193
19	0xbf299cf1	-0.662551
20	0xbf9ae64e	-1.2101533
21	0xc0333230	-2.7999382
22	0xbf4200e5	-0.75782615
23	0xbcb75688	-0.022380129
24	0x3d855b50	0.06511557
25	0xbc2b5d81	-0.010459305
26	0x3f6d1c31	0.9262114
27	0x4003fe50	2.062397
28	0xbf56dea0	-0.8393345
29	0xbf4aaeca	-0.79172957
30	0xbec6c2d9	-0.38820532
31	0xbeb1fb2f	-0.3476195
32	0x3ecebeea	0.4038003
33	0xbf464a80	-0.7745743
34	0xbf2e39e8	-0.6805711
35	0xbfb9dd36	-1.4520633
36	0xbf9c5c6e	-1.2215707
37	0xbf439242	-0.76395047
38	0xbfb40dcd	-1.4066712
39	0x3e9cdad2	0.30635697
40	0x3f146a33	0.5797455
41	0xbf1cfc79	-0.6132274
42	0x3e3347a9	0.17507805
43	0xbf1caecd	-0.61204225
44	0xbef9d4e6	-0.4879524
45	0xbf16bf35	-0.5888551
46	0xc024313c	-2.565505
47	0x3d8192bb	0.06326815
48	0xbe426bbb	-0.18986408
49	0x406666a7	3.6000154
50	0xbe9bed7c	-0.30454624
51	0x3f657a2d	0.8963955
52	0xbebd75eb	-0.37004027
53	0x4006a8d5	2.1040547
54	0xbe202683	-0.15639691
55	0x3ec98b2f	0.39364
56	0xbfff6bd0	-1.9954777
57	0xbed976f2	-0.4247356
58	0x3fd9550f	1.6979083
59	0xbfc7c576	-1.5607135
60	0xbfb116bb	-1.3835062
61	0xbdb3ce5b	-0.087795936
62	0xbf0efc37	-0.558536
63	0x3ec068f8	0.37580085

dijetResNetBlock.convJ.batchNorm.gamma f4 [8]
0	0x3f236fc6	0.6384243
1	0x3f7e1e03	0.99264544
2	0x3f99f7bb	1.2028726
3	0x3f6d10a2	0.92603505
4	0x3f9aff7d	1.2109219
5	0x3fa89f36	1.3173587
6	0x3f6c7934	0.9237244
7	0x3f2031e4	0.6257613

dijetResNetBlock.convJ.batchNorm.bias f4 [8]
0	0xbdc0b3d3	-0.09409299
1	0xbeb26851	-0.34845212
2	0x3e1e4fbe	0.15460107
3	0xc0033806	-2.0502944
4	0xbecce0b0	-0.40015173
5	0x3e834db1	0.2564521
6	0x3f185587	0.59505504
7	0x3f05d729	0.52281433

dijetResNetBlock.convJ.batchNorm.m f4 [1, 8, 1]
0	0x3f9c802f	1.2226619
1	0x3ee1f9bd	0.44135848
2	0xbfb0de1f	-1.3817786
3	0xbf4cd544	-0.8001292
4	0xbf0f96f5	-0.5608972
5	0xbfc62d02	-1.5482485
6	0x3f54223a	0.82864726
7	0xbf3d3186	-0.7390369

dijetResNetBlock.convJ.batchNorm.s f4 [1, 8, 1]
0	0x3fee50ba	1.8618386
1	0x3f9204cf	1.1407717
2	0x3fd69b22	1.6766093
3	0x3f651dea	0.8949877
4	0x3fbc4b66	1.471051
5	0x401ad6c0	2.4193573
6	0x3fe72b33	1.8060058
7	0x40174d3c	2.364089

dijetResNetBlock.reinforce2.conv.module.weight f4 [8, 8, 3]
0	0xbfbdec16	-1.4837673
1	0xbf41b54f	-0.7566728
2	0xbf886bba	-1.0657876
3	0x3ea78e65	0.32725826
4	0x3e701b1a	0.23447838
5	0xbfcaf73d	-1.5856701
6	0x3e63dbd0	0.2225182
7	0xbb9d14a8	-0.004793722
8	0xbe93d123	-0.28870496
9	0xbf699119	-0.91237026
10	0xbeccbb81	-0.39986804
11	0xbfd7ca9a	-1.6858704
12	0xbf712591	-0.94197947
13	0xbf588d0e	-0.8459023
14	0xbe78103f	-0.24224947
15	0xbd869b83	-0.0657263
16	0x3f591927	0.84804004
17	0xbdbb259c	-0.09138033
18	0xbee6fa46	-0.45112818
19	0x3f00c591	0.5030146
20	0x3ec31d47	0.38108274
21	0x3f16f195	0.58962375
22	0x3e9e8126	0.30957907
23	0x3ec723ee	0.388946
24	0xbef60dec	-0.48057497
25	0x3e92f97e	0.28705972
26	0xbe573e52	-0.21019867
27	0xbf11b8b0	-0.56922436
28	0x3ddb05eb	0.10694488
29	0xbf8bc1ba	-1.0918496
30	0x3ecc106e	0.39856285
31	0xbe5c781c	-0.21530193
32	0xbe346690	-0.1761725
33	0x3c9a802f	0.01885995
34	0xbf7ec6ea	-0.9952227
35	0xbf05fdd3	-0.5234043
36	0x3e95573f	0.29168126
37	0x3e9204a0	0.28519154
38	0x3f76bda3	0.9638311
39	0xbda57f79	-0.08080954
40	0x3ea275f6	0.31730622
41	0xbf9afe78	-1.2108908
42	0xbecbfe27	-0.3984234
43	0xbea4a157	-0.32154343
44	0x3f990a66	1.1956298
45	0x3f6137d1	0.87975794
46	0xbf89cd45	-1.0765768
47	0xbf06b6d2	-0.5262271
48	0xbeaa9373	-0.3331562
49	0xbf905b6d	-1.1277901
50	0xbe17a435	-0.14808734
51	0xbf0e1cbb	-0.5551259
52	0xbde73588	-0.11289507
53	0xbfaa7d80	-1.331955
54	0x3ee30c4a	0.44345313
55	0x3d8e6cdc	0.06954357
56	0xbe08c324	-0.1335569
57	0x3eff9f8c	0.49926412
58	0x3f792ebf	0.97336954
59	0x3f1cf863	0.6131651
60	0xbfa9e018	-1.3271513
61	0xbf4e2ac4	-0.80534005
62	0xbf726c77	-0.94696754
63	0xbfeb3530	-1.8375607
64	0x3f816f43	1.0112079
65	0x3ea9a4b1	0.33133462
66	0x3e64091f	0.22269104
67	0x3f313870	0.6922674
68	0xbea814af	-0.3282828
69	0x3f938a08	1.1526499
70	0x4003d76d	2.0600235
71	0xbc07e7bf	-0.008294999
72	0xbef73424	-0.48281968
73	0x3f619964	0.8812468
74	0x3fb17725	1.3864485
75	0x3f54f386	0.8318409
76	0xbffc21ea	-1.969785
77	0xbf22091b	-0.63295144
78	0x3eb1de3e	0.3473987
79	0x3eacf1b4	0.33778155
80	0x3f11f1a3	0.57009333
81	0x3e4917fe	0.19638059
82	0xbf13b6c0	-0.5770073
83	0x3e8036c6	0.2504179
84	0xbf3eb245	-0.7449077
85	0xbf177953	-0.591695
86	0xbe9c7d13	-0.30564174
87	0x3f87dca4	1.0614209
88	0x3f799e6c	0.9750736
89	0xbf55ea0d	-0.8356026
90	0xbf2b99f7	-0.67031807
91	0xbe94a6f3	-0.29033622
92	0x3bba1d94	0.0056797955
93	0x3f04f429	0.5193506
94	0xbcb414b1	-0.021982523
95	0xbec2b262	-0.3802672
96	0x3e268e3b	0.16265194
97	0xbefd7ebc	-0.49510753
98	0xbf216073	-0.63037795
99	0xbf6be719	-0.921495
100	0xbf96e973	-1.1789993
101	0xbe2d8717	-0.16946064
102	0xbf44a975	-0.7682107
103	0x3eefd0c1	0.46838954
104	0x3e950766	0.29107207
105	0xbf10ca71	-0.565589
106	0xbf5225c6	-0.8208889
107	0x3e029b71	0.12754609
108	0x3f15f15d	0.58571416
109	0x3e82d74e	0.2555489
110	0xbf391053	-0.72290534
111	0x3ebdf290	0.37099123
112	0xbc678ee3	-0.014133188
113	0x3fdff720	1.7497292
114	0x3f0a3f4a	0.5400282
115	0x3f1d2afb	0.6139371
116	0xbfe46b15	-1.7845179
117	0xbf8195bc	-1.012382
118	0xbe7fd570	-0.24983764
119	0x3ee0301f	0.43786713
120	0x3eb7ff12	0.3593679
121	0xbdce9194	-0.100863606
122	0xbfac7af7	-1.3475026
123	0x3f8d93b7	1.1060704
124	0x3f49fa38	0.7889743
125	0x3de1ea15	0.11030976
126	0xbfa777a7	-1.308339
127	0xbf51391e	-0.8172778
128	0xbf15d6bb	-0.5853078
129	0x3e827f4a	0.2548774
130	0xbe3d1c14	-0.18467742
131	0xbf9c24b4	-1.2198701
132	0x3f3d3634	0.7391083
133	0x3ecbd382	0.39809805
134	0x3ec5cb56	0.38631696
135	0xbfaf5b78	-1.3699789
136	0xbf8062e6	-1.0030181
137	0x3e79530d	0.24348088
138	0xbf6d53c8	-0.92705965
139	0xbf388bfa	-0.7208859
140	0xbf4cc9a1	-0.7999516
141	0xbe7b7f52	-0.24560288
142	0xbeed8701	-0.46392062
143	0xbf4f1f00	-0.8090668
144	0x3f3f3514	0.74690366
145	0x3f853e11	1.0409566
146	0xbf844b2f	-1.0335444
147	0xbdfb1c78	-0.12261289
148	0x3e3d4c5d	0.18486162
149	0xbf794701	-0.9737397
150	0xbfd10e26	-1.6332443
151	0xbfa4c4c0	-1.2872543
152	0x3ed6b460	0.4193449
153	0x3fb960c1	1.4482652
154	0x3ff1e2a2	1.8897288
155	0xbe9fbd3a	-0.31199056
156	0xbfaa5fa4	-1.3310437
157	0xbfa1556b	-1.2604192
158	0xbe812d13	-0.252297
159	0xbf776be7	-0.9664902
160	0xbf252574	-0.64510274
161	0xbe6cd906	-0.23129663
162	0x3f59780d	0.8494881
163	0x3f9ac5ff	1.2091674
164	0x3ecdfb81	0.40230945
165	0x3f9e707f	1.2378081
166	0x3e8633de	0.26211447
167	0x3fb6a40b	1.4268812
168	0xbf1d6e16	-0.614961
169	0xbe9ce116	-0.30640477
170	0x3fcddd7d	1.6083218
171	0xbf344ddf	-0.7043132
172	0x3f8aaf10	1.0834675
173	0x400717cb	2.1108272
174	0x3ec2967c	0.38005435
175	0x3fd22cc3	1.641991
176	0xbd8c87cf	-0.06861841
177	0x3faadc3e	1.3348463
178	0x3f981490	1.1881275
179	0x3f80009d	1.0000187
180	0x3f6e7dc5	0.9316066
181	0xbe076deb	-0.13225524
182	0xc00f5414	-2.2395067
183	0x3f22f6cb	0.63657826
184	0xbf4c451a	-0.7979294
185	0xbfb46746	-1.4094017
186	0xbda11c2b	-0.07866701
187	0xbf159dcf	-0.5844392
188	0x3ea1c134	0.31592715
189	0x3f974814	1.1818871
190	0x3e1d4e50	0.15361905
191	0xbefd60fb	-0.49488053

dijetResNetBlock.reinforce2.conv.module.bias f4 [8]
0	0x3f3a6c3b	0.72821397
1	0x3e90764c	0.28215253
2	0x3fb465ed	1.4093605
3	0x3f453d56	0.77046716
4	0x3e74a409	0.238907
5	0xbfd09dd0	-1.629816
6	0x3fe4767d	1.784866
7	0x3e3093c3	0.17243867

dijetResNetBlock.multijetAttention.attention.k_linear.module.weight f4 [8, 5, 1]
0	0x3f75abd1	0.95965296
1	0xbeeb0800	-0.4590454
2	0x3d994445	0.074837245
3	0x3f50680a	0.8140875
4	0x3fa17351	1.2613317
5	0x3f692a10	0.9107981
6	0x3f8b94cb	1.0904783
7	0xbe0831c3	-0.13300233
8	0x401876d2	2.3822522
9	0x3f9d3740	1.2282486
10	0xbf2c9446	-0.6741375
11	0x3fbad1f2	1.459532
12	0x404cdcbe	3.200973
13	0xbfba77bb	-1.4567789
14	0xbec54ff2	-0.38537556
15	0xbeda6549	-0.426554
16	0xbf61a4ad	-0.881419
17	0x3ea63171	0.32459596
18	0xbf917347	-1.1363305
19	0x401e5cbb	2.4744098
20	0x3f981d66	1.1883972
21	0xbf836023	-1.0263714
22	0x3f7ee95c	0.9957483
23	0xbfb153da	-1.3853714
24	0x3f8c8238	1.097724
25	0x3e2a6271	0.16639115
26	0x3f1832e6	0.59452665
27	0xc010634f	-2.2560613
28	0xbe07c9b0	-0.13260531
29	0x3fc6cd39	1.5531379
30	0x3e7f967a	0.24959746
31	0xbe9f8ed9	-0.31163672
32	0x3f87e643	1.0617145
33	0x3d0e0f90	0.03468281
34	0x4009dd8a	2.1541467
35	0xbe111c82	-0.14171031
36	0x3fb29395	1.3951288
37	0x3f924369	1.1426822
38	0xbdc78aeb	-0.097432934
39	0x3f5e1d28	0.8676324

dijetResNetBlock.multijetAttention.attention.k_linear.module.bias f4 [8]
0	0x400048a6	2.004434
1	0x3fa55b37	1.2918462
2	0x3f830146	1.0234764
3	0x3f8efccf	1.1170901
4	0x3ef01b94	0.4689604
5	0x3f42d38a	0.76104033
6	0xbfe0da8c	-1.7566695
7	0xbfdcbc30	-1.724493

dijetResNetBlock.multijetAttention.attention.v_linear.module.weight f4 [8, 5, 1]
0	0x3e1de8f6	0.15420899
1	0xc00bec93	-2.1863143
2	0xbfc84f95	-1.5649287
3	0xbde15469	-0.11002428
4	0x3dfe9d32	0.124323264
5	0xc05a1533	-3.407544
6	0xbe8145de	-0.25248617
7	0x3e32d132	0.17462614
8	0x3f491005	0.7854007
9	0x3fb99f2c	1.45017
10	0x3d0f419c	0.03497468
11	0xbfb81949	-1.4382716
12	0xc03c7208	-2.94446
13	0x3f3e6a9d	0.7438143
14	0x3eba33ea	0.36367732
15	0xbd147b6e	-0.036250524
16	0x3fadf1fd	1.3589474
17	0xbfa01313	-1.2505821
18	0x3e9c126f	0.30482814
19	0xbab5f8ab	-0.0013883313
20	0xbf067dce	-0.5253571
21	0xbcc2c04f	-0.02377334
22	0xc005cfe6	-2.090814
23	0x3f88965f	1.067089
24	0x3fb599fa	1.4187615
25	0xbeaf6afd	-0.34261313
26	0x3f7bc3e5	0.98345786
27	0x3d5b7d83	0.053586494
28	0x3fc371ef	1.5269145
29	0x3fc9b9cc	1.5759826
30	0x3eaf5575	0.34244886
31	0x3f9dbd3c	1.2323375
32	0x3fa0fe35	1.2577578
33	0xbf27cdf6	-0.65548646
34	0xbfd01ade	-1.6258199
35	0x3ea7868a	0.32719833
36	0xbfcac8d3	-1.5842537
37	0x3f41493b	0.75502366
38	0xbfd9c623	-1.7013592
39	0x3e87e72c	0.26543558

dijetResNetBlock.multijetAttention.attention.v_linear.module.bias f4 [8]
0	0xc080b5e2	-4.0222025
1	0x3eb381b0	0.3505988
2	0xbea3a725	-0.3196346
3	0xbff47380	-1.9097748
4	0xbed4d9e0	-0.41572475
5	0xbe55e646	-0.20888624
6	0x3fe877a5	1.8161513
7	0xba19d94f	-0.00058688683

dijetEmbed2.module.weight f4 [8, 8, 1]
0	0xbe9eab04	-0.3098985
1	0xbf68b407	-0.908997
2	0x3f826ea4	1.0190015
3	0x3d8ed8e2	0.06974961
4	0x3f9926a4	1.1964917
5	0xbfbee70b	-1.4914259
6	0xbecfee0e	-0.4061131
7	0x3e40760c	0.18795031
8	0xbf2186f7	-0.63096565
9	0x3ff904ce	1.9454591
10	0xbf719783	-0.94371814
11	0xbbf31bf3	-0.0074191033
12	0x3efc7bb2	0.49313122
13	0x3fdd98c8	1.731225
14	0x3ea4c044	0.32177937
15	0xc01cb483	-2.4485176
16	0xbecc1f47	-0.39867613
17	0x3fee5480	1.8619537
18	0x3de7499e	0.11293338
19	0xbfdc4cc1	-1.7210923
20	0xbebe0d36	-0.37119454
21	0xbf0419c2	-0.51601803
22	0xbfa21361	-1.2662164
23	0x3f40042f	0.75006384
24	0x3ff7aadd	1.9349018
25	0x3f0e651c	0.5562303
26	0x3db67cbb	0.08910509
27	0x3eece5e9	0.46269158
28	0xbea9a516	-0.33133763
29	0x3fbdb5b1	1.4821073
30	0xbef73cd9	-0.4828861
31	0x3ea2047c	0.31644046
32	0x3f963484	1.1734776
33	0x402f6b19	2.7409117
34	0x3e23aeef	0.159847
35	0x3f48297f	0.7818832
36	0x3eb87b41	0.36031535
37	0x3eff1d8f	0.4982724
38	0x3ed9b284	0.4251901
39	0xbed8ffca	-0.42382652
40	0x3f816110	1.0107746
41	0x3e0b1bc0	0.13584805
42	0x3e8186ca	0.25298148
43	0xbf3db7db	-0.74108666
44	0xbeade103	-0.33960733
45	0x3fff5c8a	1.9950116
46	0xbf0f7fcc	-0.5605438
47	0xbf00efc1	-0.50365835
48	0x3d8a3ae0	0.06749511
49	0x3d84c5e4	0.06483057
50	0xbed591d7	-0.4171283
51	0xbe4b43ea	-0.19850126
52	0x3ed821dd	0.42213336
53	0x3f3679f0	0.7127981
54	0x3e01b64a	0.12667194
55	0xbd9641a9	-0.073367424
56	0xbf1445e8	-0.5791917
57	0x3f258fc5	0.646725
58	0x3ebf3a96	0.37349385
59	0x3f9e832a	1.2383778
60	0xbc7f9832	-0.015600251
61	0x3f850bea	1.0394261
62	0xbef7d4f3	-0.48404655
63	0x3f1aeeda	0.6052071

dijetEmbed2.module.bias f4 [8]
0	0x4003e74d	2.0609925
1	0x3e82a5ae	0.2551703
2	0xbdcae534	-0.09906998
3	0xbeb71e9e	-0.35765547
4	0x3e8d27d2	0.27569443
5	0xbf8c4e82	-1.0961459
6	0x3f36d23e	0.71414554
7	0xbfe6388b	-1.7986006

quadjetGBN.gamma f4 [6]
0	0x3f87f662	1.0622065
1	0x3f2f3fe7	0.6845688
2	0x3fecae59	1.8490707
3	0x3fe8dec0	1.8192978
4	0x3f963f6e	1.1738107
5	0x3fbeaa34	1.4895692

quadjetGBN.bias f4 [6]
0	0xbbc1d532	-0.0059153074
1	0xbeecec0a	-0.46273834
2	0x3e8b15ec	0.27165163
3	0x3e264dd6	0.1624063
4	0x3e9c56a6	0.30534858
5	0x3e6aeb03	0.22941212

quadjetGBN.m f4 [1, 6, 1]
0	0x4027486d	2.6137955
1	0x43f959ec	498.7025
2	0x404d700c	3.2099638
3	0x3f8efae9	1.1170322
4	0x40a1bd68	5.054371
5	0x44fc2011	2017.0021

quadjetGBN.s f4 [1, 6, 1]
0	0x3f560de8	0.8361497
1	0x433659f8	182.35144
2	0x404cadc6	3.1981063
3	0x40558304	3.3361216
4	0x3f8bcb5a	1.0921433
5	0x3f642162	0.8911344

quadjetEmbed.module.weight f4 [8, 6, 1]
0	0x3fc3a0ae	1.528341
1	0x3e80305c	0.25036895
2	0xbe9d262d	-0.30693188
3	0xbe4882aa	-0.19581094
4	0xbff1a603	-1.8878788
5	0xbf098a72	-0.53726876
6	0x3ed4b7a4	0.41546357
7	0xbf812024	-1.0087934
8	0xbcabdd02	-0.020979408
9	0x3eb2927e	0.3487739
10	0x3f460d6d	0.77364236
11	0xbf888f1d	-1.0668675
12	0x3e1905da	0.14943638
13	0xbf4d66be	-0.802349
14	0x3e0d7472	0.13813952
15	0xbe06ab6e	-0.13151333
16	0x3caa6d26	0.020804
17	0xc033db04	-2.8102427
18	0x3ed040f9	0.4067457
19	0xbe249270	-0.16071486
20	0x3f825ad2	1.0183966
21	0xbffccea1	-1.9750558
22	0x3e02f447	0.12788497
23	0x3e3ef251	0.18647124
24	0xbb5c1113	-0.0033579513
25	0xbe9fffee	-0.31249946
26	0xc0159cc4	-2.3376932
27	0xbed0296a	-0.40656596
28	0x3dd71fdf	0.10504126
29	0x3d4f7983	0.050652992
30	0xbf7968f9	-0.974258
31	0xbeb75a2e	-0.3581099
32	0x3fa4da57	1.2879132
33	0x3d290a39	0.041269515
34	0xbea0ad2c	-0.3138212
35	0xbef30f97	-0.47472832
36	0x3e7b16b7	0.24520384
37	0xbe702d46	-0.2345477
38	0x3eaefc31	0.34176782
39	0x4014b4df	2.3235395
40	0x3e8656b5	0.26238027
41	0x3dfb2af8	0.12264055
42	0x3fb3d8fe	1.4050596
43	0x3fca6230	1.5811214
44	0x3df0ef24	0.117643625
45	0xbbd02607	-0.0063521895
46	0x3ece8ef7	0.4034345
47	0xbd7cc8e0	-0.061715007

quadjetEmbed.module.bias f4 [8]
0	0x3e6b32b6	0.22968563
1	0x3e67a4be	0.22621438
2	0x3e54326b	0.20722358
3	0x3dc9c6ec	0.098523945
4	0xbe61acfb	-0.22038643
5	0x3e6fb48d	0.23408718
6	0x3f3409ed	0.70327646
7	0xbeb63cfd	-0.35593405

quadjetResNetBlock.reinforce1.sym.weight f4 [8, 1, 2]
0	0x3f000000	0.5
1	0x3f000000	0.5
2	0x3f000000	0.5
3	0x3f000000	0.5
4	0x3f000000	0.5
5	0x3f000000	0.5
6	0x3f000000	0.5
7	0x3f000000	0.5
8	0x3f000000	0.5
9	0x3f000000	0.5
10	0x3f000000	0.5
11	0x3f000000	0.5
12	0x3f000000	0.5
13	0x3f000000	0.5
14	0x3f000000	0.5
15	0x3f000000	0.5

quadjetResNetBlock.reinforce1.antisym.weight f4 [8, 1, 2]
0	0x3f000000	0.5
1	0xbf000000	-0.5
2	0x3f000000	0.5
3	0xbf000000	-0.5
4	0x3f000000	0.5
5	0xbf000000	-0.5
6	0x3f000000	0.5
7	0xbf000000	-0.5
8	0x3f000000	0.5
9	0xbf000000	-0.5
10	0x3f000000	0.5
11	0xbf000000	-0.5
12	0x3f000000	0.5
13	0xbf000000	-0.5
14	0x3f000000	0.5
15	0xbf000000	-0.5

quadjetResNetBlock.reinforce1.conv.module.weight f4 [8, 8, 3]
0	0x3f73af84	0.9518969
1	0x3edcea0d	0.43147317
2	0x3e84100a	0.25793487
3	0xbf56bd0d	-0.8388222
4	0x3efe37c0	0.4965191
5	0xbe1e8996	-0.15482172
6	0xbf8f0e54	-1.1176248
7	0xbe7d0dee	-0.24712345
8	0xbf419252	-0.7561389
9	0x3d240a05	0.040048618
10	0x3f834ec2	1.025841
11	0xbe0a68f8	-0.13516605
12	0x3fb49d2c	1.4110465
13	0xbee3643a	-0.44412404
14	0x3efc8404	0.4931947
15	0xbfa049b4	-1.2522492
16	0x3d5b2811	0.053505007
17	0x3faac31a	1.334079
18	0x3d20df91	0.03927571
19	0xbff602f8	-1.9219656
20	0x3e7235ab	0.23653285
21	0xbfc88980	-1.5666962
22	0xbf464845	-0.77454025
23	0xbfab6ca8	-1.3392534
24	0x3ee8a749	0.45440128
25	0x3fd288aa	1.6447957
26	0x3db32708	0.08747679
27	0xbf178464	-0.5918639
28	0xbfcbb5ab	-1.5914816
29	0x3e852790	0.26006746
30	0xbfa0fe2b	-1.2577566
31	0xbe47cfd9	-0.19512881
32	0xbe76dd3b	-0.2410783
33	0xbfad71d8	-1.3550367
34	0xbeaa1cd5	-0.33225122
35	0xbf982245	-1.1885458
36	0xbf943e44	-1.1581502
37	0x3e9aeefa	0.3026045
38	0xbf2028cb	-0.62562245
39	0x3fd61434	1.6724916
40	0x3f041196	0.51589334
41	0xbfd5001b	-1.6640657
42	0xbeedb059	-0.46423605
43	0xbf828f98	-1.0200071
44	0xc0061663	-2.0951164
45	0xbee060a8	-0.43823743
46	0xbf336e17	-0.7008986
47	0x3f32ea98	0.6988921
48	0x3fb9a962	1.4504817
49	0xbf4d0e8e	-0.80100334
50	0x3fed2f44	1.8530049
51	0xbf3f0fb1	-0.7463332
52	0x3f863170	1.0483837
53	0xbf7f79ea	-0.997954
54	0x3f2b5a41	0.6693459
55	0xbf00d173	-0.50319594
56	0x3f64948d	0.8928917
57	0x3f6e28c4	0.93030953
58	0xbe58fbc2	-0.21189788
59	0xbfbb7471	-1.464491
60	0x3f59c546	0.8506664
61	0x3e831bb0	0.2560706
62	0xbf94eb3e	-1.163429
63	0xbf84fc7e	-1.0389555
64	0xbf2c8680	-0.6739273
65	0x3f466538	0.774982
66	0x3e9720cc	0.2951721
67	0xbe175213	-0.14777403
68	0x3df21d6f	0.1182202
69	0xbf4dfd4b	-0.8046462
70	0x3d45b96d	0.04827254
71	0xbd99f895	-0.075181164
72	0xbe7b611d	-0.24548765
73	0xbf8a9961	-1.0828058
74	0x40214e75	2.5204136
75	0xbf19db55	-0.601003
76	0x3ef39465	0.47574154
77	0xbf0df4b3	-0.55451506
78	0x3e8b5fa5	0.27221408
79	0x3f123444	0.57111
80	0x3f8a71d5	1.0815989
81	0xbe9797db	-0.29608044
82	0x3e294313	0.16529493
83	0xbf204618	-0.62606955
84	0x3f70c7a4	0.9405463
85	0x3fa0f528	1.2574816
86	0xbfb270cb	-1.3940672
87	0xbefd481c	-0.49469078
88	0xbfcc7eec	-1.5976233
89	0xbe0874c8	-0.13325799
90	0xbeb6acd5	-0.35678735
91	0x3f481443	0.78155917
92	0xbce6b748	-0.028163567
93	0x3f0cff77	0.5507731
94	0x3fc6fcac	1.5545859
95	0xc00f418d	-2.238376
96	0x3d25d772	0.040488668
97	0xbf66556a	-0.8997408
98	0x3d82ed48	0.06392914
99	0x3f3c6aa6	0.7360023
100	0x3f1760c4	0.5913203
101	0xbea177e8	-0.31536794
102	0x3d0c5fac	0.034270927
103	0xbf233da4	-0.6376593
104	0x3e9d4b52	0.30721527
105	0xbe55700c	-0.20843524
106	0xbf29e050	-0.663579
107	0x3fc9f37c	1.577743
108	0xbedfa2b8	-0.43678832
109	0x3f94dfec	1.1630836
110	0x3f7cd944	0.9876902
111	0x3ef43c70	0.4770236
112	0x3e86e3c7	0.26345655
113	0x404d468b	3.2074306
114	0x3ee391f9	0.44447306
115	0x3f1fe51c	0.6245897
116	0x402ce008	2.7011738
117	0x3f04c0a8	0.5185647
118	0x3daa1e6b	0.08306583
119	0xbf7239f8	-0.94619703
120	0xbf2d18f3	-0.67616194
121	0xbf0aab33	-0.5416748
122	0x3eb0404c	0.34424055
123	0x3ec567ae	0.38555664
124	0xbe68f309	-0.2274896
125	0xbfdb8a6a	-1.7151616
126	0xbe49c4d4	-0.1970399
127	0x3dfb6476	0.12275021
128	0x3efa6de8	0.48911977
129	0x3efd624c	0.49489057
130	0x3b9e3cd4	0.0048290286
131	0x3ff0fcc5	1.8827139
132	0xbf16aff5	-0.5886224
133	0xbf078015	-0.5292981
134	0xbf5af4c3	-0.85529727
135	0xbf4c57ff	-0.7982177
136	0xbc8365e9	-0.016039805
137	0xbd6cc8ed	-0.057808805
138	0x3d0786e9	0.033087645
139	0xbf0409d5	-0.515775
140	0x40015fda	2.0214753
141	0x3f6cb9e6	0.9247116
142	0xbc582e3c	-0.013194617
143	0x3fb69df9	1.426696
144	0xbe2197fb	-0.15780632
145	0xbf58da45	-0.8470805
146	0x3e98c97e	0.29841226
147	0xbf34274a	-0.7037245
148	0x3db43672	0.08799447
149	0xbf8c3479	-1.0953513
150	0x3c6188a0	0.013765484
151	0x3f83194a	1.0242093
152	0x3f4bf8d8	0.7967658
153	0x3ea0479f	0.31304643
154	0x3e64ba09	0.22336592
155	0x3e84ddc6	0.2595045
156	0xbe19ca64	-0.15018612
157	0x3e8d8b23	0.27645215
158	0xc05e941a	-3.4777894
159	0xbec2b010	-0.3802495
160	0xbec27023	-0.3797618
161	0xbf94fc17	-1.1639432
162	0xbf27745f	-0.65411943
163	0xbe3a5e72	-0.1820009
164	0xbf35614f	-0.70851606
165	0xbe184b54	-0.14872485
166	0x3ece334f	0.4027352
167	0xbfbb7c1b	-1.4647249
168	0x3ef932db	0.48671612
169	0xbbf6709a	-0.0075207474
170	0x3c25bede	0.010116307
171	0xbf1fd004	-0.6242678
172	0xbd2b8574	-0.041875318
173	0x3f433b7e	0.7626265
174	0xbf208609	-0.6270452
175	0xbeaca0d1	-0.33716443
176	0xbe937c8a	-0.28805953
177	0xbf8f9151	-1.1216222
178	0xbf1d392a	-0.6141535
179	0xbe17c1a9	-0.14819969
180	0x3e9210e2	0.28528506
181	0x400f25fd	2.2366936
182	0xbdb01403	-0.08597567
183	0xbe26ec39	-0.1630105
184	0xbfcacfff	-1.5844725
185	0x40223b62	2.5348744
186	0x3d1bcf85	0.038039703
187	0x3f2cfafd	0.6757048
188	0x3f1ab4f1	0.60432345
189	0x3d3e941f	0.046527978
190	0x3f8bca8c	1.0921187
191	0xc026bcaa	-2.6052651

quadjetResNetBlock.reinforce1.conv.batchNorm.gamma f4 [8]
0	0x3fad5beb	1.3543676
1	0x3fcd27e7	1.6027802
2	0x3ec49c5d	0.38400546
3	0x3ee952a2	0.45570856
4	0x3fd35678	1.6510763
5	0x3fa3979c	1.2780643
6	0x3fd6f282	1.6792758
7	0x400a67c2	2.1625829

quadjetResNetBlock.reinforce1.conv.batchNorm.bias f4 [8]
0	0xbe9ed09c	-0.3101853
1	0x3ebe58b8	0.37177062
2	0xbdef8935	-0.11696092
3	0xbe3d2026	-0.18469295
4	0xbfcebd29	-1.6151477
5	0xbf96fa5b	-1.1795152
6	0x3f16010e	0.5859536
7	0xbf7dc53a	-0.9912907

quadjetResNetBlock.reinforce1.conv.batchNorm.m f4 [1, 8, 1]
0	0x4148736c	12.528179
1	0xc210da7f	-36.213375
2	0x4198be94	19.093056
3	0x413a87c8	11.65815
4	0x4198007b	19.000235
5	0xc0a499ed	-5.14379
6	0xc19e5fb5	-19.796732
7	0x414df23d	12.87164

quadjetResNetBlock.reinforce1.conv.batchNorm.s f4 [1, 8, 1]
0	0x41433bdd	12.202115
1	0x4158ae22	13.542513
2	0x414c1e4e	12.757399
3	0x4124fafc	10.3112755
4	0x41321a11	11.131364
5	0x412046a8	10.01725
6	0x412f2bdb	10.948207
7	0x4109b143	8.605777

quadjetResNetBlock.convD.module.weight f4 [8, 8, 1]
0	0x3f792156	0.9731649
1	0xc001e9ff	-2.029907
2	0x3f8d8d92	1.1058829
3	0xbe6eee78	-0.23333156
4	0xbca5e648	-0.020251408
5	0xbf5d9349	-0.86552864
6	0xbf3e3bc5	-0.7430995
7	0x3f0af77a	0.5428387
8	0x3f092ea6	0.53586805
9	0xbfb26578	-1.3937216
10	0x3f686484	0.90778375
11	0x3ecba524	0.3977443
12	0xbe6ae1ef	-0.2293775
13	0x3f89ffb0	1.0781155
14	0x3e8a31a6	0.26991004
15	0x3fb338d5	1.4001719
16	0xbfa43dfe	-1.2831419
17	0x3f964265	1.1739012
18	0x3e4e4e3b	0.2014703
19	0x3e06cc9f	0.13163994
20	0x3e11d635	0.1424187
21	0xbf99833e	-1.1993177
22	0x3f95bc5d	1.1698109
23	0xbee2317f	-0.44178388
24	0xbf5bd787	-0.85875744
25	0x3fc32229	1.52448
26	0x3f48fcff	0.7851104
27	0x3efcc938	0.49372268
28	0x3d74a691	0.059729163
29	0x3f0115a0	0.5042362
30	0xbffcb426	-1.9742477
31	0xbe9ee8a2	-0.3103686
32	0xc00a22a1	-2.1583636
33	0xbee4779a	-0.446225
34	0x3f44e3b9	0.7690998
35	0xbf6fa354	-0.93608594
36	0x3e25f9f9	0.16208638
37	0xc0068b67	-2.1022584
38	0xbd6e21b4	-0.05813761
39	0x3fa250c9	1.2680904
40	0xbf49fdd7	-0.78902954
41	0x3eb82169	0.3596299
42	0xbe200cdc	-0.15629905
43	0x3f71c516	0.94441354
44	0x40115e6c	2.271388
45	0xbe0c2abe	-0.1368818
46	0x3e2431ca	0.16034618
47	0x3ea06242	0.31324965
48	0xbe293713	-0.16524915
49	0xbfbd0af7	-1.4768971
50	0xbfc8a66e	-1.567579
51	0xbf23c1f6	-0.63967836
52	0xbf95fc58	-1.1717634
53	0x3f729f8f	0.9477472
54	0xbc3f14c2	-0.011662664
55	0xbef4a9f4	-0.47785914
56	0xbd81d025	-0.063385285
57	0xbebfb224	-0.37440598
58	0xbe9073a2	-0.2821322
59	0xbe822c3c	-0.25424373
60	0xbfd249dc	-1.642879
61	0x3fe86ab0	1.8157558
62	0xbf6d7633	-0.9275848
63	0xbf27ef1c	-0.65599227

quadjetResNetBlock.convD.batchNorm.gamma f4 [8]
0	0x3f33f57a	0.7029644
1	0x3e33c3f5	0.1755522
2	0x3f77519f	0.9660892
3	0x3ff99995	1.9499995
4	0x3f8e67c9	1.1125423
5	0x3f9a12ca	1.2036984
6	0x3faf5531	1.3697873
7	0x3f823be8	1.0174532

quadjetResNetBlock.convD.batchNorm.bias f4 [8]
0	0xbdee2b15	-0.11629311
1	0xbf6b798d	-0.91982347
2	0xbfa93ab0	-1.3221035
3	0xbee0b663	-0.4388915
4	0xbfcb7f44	-1.5898213
5	0xbef03e1b	-0.46922383
6	0x40019821	2.0249102
7	0x402f3a14	2.7379198

quadjetResNetBlock.convD.batchNorm.m f4 [1, 8, 1]
0	0xc1068f38	-8.4099655
1	0x40bdaaaa	5.927083
2	0x413d49b6	11.830496
3	0xc1bf886a	-23.941608
4	0xc121f805	-10.123052
5	0x41ffe145	31.984995
6	0xc1c367fd	-24.425776
7	0xc21346bc	-36.819077

quadjetResNetBlock.convD.batchNorm.s f4 [1, 8, 1]
0	0x4199b3cd	19.212793
1	0x415949c2	13.580507
2	0x419342a9	18.407549
3	0x413dfcf3	11.874255
4	0x4175c1d8	15.359825
5	0x4154a28c	13.289684
6	0x414d49dc	12.830532
7	0x413bbef3	11.734118

quadjetResNetBlock.reinforce2.sym.weight f4 [8, 1, 2]
0	0x3f000000	0.5
1	0x3f000000	0.5
2	0x3f000000	0.5
3	0x3f000000	0.5
4	0x3f000000	0.5
5	0x3f000000	0.5
6	0x3f000000	0.5
7	0x3f000000	0.5
8	0x3f000000	0.5
9	0x3f000000	0.5
10	0x3f000000	0.5
11	0x3f000000	0.5
12	0x3f000000	0.5
13	0x3f000000	0.5
14	0x3f000000	0.5
15	0x3f000000	0.5

quadjetResNetBlock.reinforce2.antisym.weight f4 [8, 1, 2]
0	0x3f000000	0.5
1	0xbf000000	-0.5
2	0x3f000000	0.5
3	0xbf000000	-0.5
4	0x3f000000	0.5
5	0xbf000000	-0.5
6	0x3f000000	0.5
7	0xbf000000	-0.5
8	0x3f000000	0.5
9	0xbf000000	-0.5
10	0x3f000000	0.5
11	0xbf000000	-0.5
12	0x3f000000	0.5
13	0xbf000000	-0.5
14	0x3f000000	0.5
15	0xbf000000	-0.5

quadjetResNetBlock.reinforce2.conv.module.weight f4 [8, 8, 3]
0	0xbf4320b2	-0.76221764
1	0xbf5d8b56	-0.86540735
2	0x3e9c1045	0.30481163
3	0x3eaf78c9	0.3427184
4	0xbf34afe1	-0.7058087
5	0x3d127d3e	0.03576397
6	0x3faae190	1.3350086
7	0xbf9f9577	-1.2467488
8	0xbe9b48d1	-0.30328992
9	0xbf37c047	-0.71777767
10	0x3fa66558	1.2999678
11	0xbede21c5	-0.4338514
12	0xbe011c68	-0.12608492
13	0xbec4c935	-0.3843476
14	0xbe62d107	-0.2215005
15	0x3e11ad93	0.1422637
16	0xbfbfc7be	-1.4982831
17	0x3f8ca77f	1.0988616
18	0x3fc1ae4b	1.5131315
19	0x3f69db28	0.9135003
20	0xbd9e1abd	-0.07719944
21	0x3e2713c0	0.16316128
22	0x3fc07437	1.5035466
23	0xbf95681a	-1.1672394
24	0xbf1256dc	-0.57163787
25	0x3de56c13	0.11202254
26	0xbf377d37	-0.7167544
27	0xbdfbdfd0	-0.12298548
28	0x3f4b23e3	0.79351634
29	0xbf4c888d	-0.7989586
30	0x3f07ec36	0.53094804
31	0xbeb9b597	-0.36271355
32	0xbf0e9c8a	-0.5570761
33	0xbf47e3a5	-0.78081733
34	0x3f97114c	1.1802154
35	0x3e8f2daf	0.2796454
36	0x3d8c302b	0.06845125
37	0x3f4805e4	0.7813399
38	0xbf1e0149	-0.6172071
39	0x3f45a6eb	0.7720782
40	0xbd84553d	-0.064615704
41	0x3f990193	1.1953605
42	0x3fb79b89	1.434434
43	0x3f80fb10	1.0076618
44	0x3f4b54c5	0.79426223
45	0x3e368c53	0.17826967
46	0x3f01e09e	0.50733364
47	0xbe7123d8	-0.2354883
48	0x3e0c74dd	0.13716455
49	0xbfca2dad	-1.5795189
50	0xbd4c775c	-0.049918517
51	0x3f000d33	0.5002014
52	0xbf92d2b1	-1.1470548
53	0xc0157da5	-2.3357937
54	0xbd410c0d	-0.047130633
55	0x3d88f50d	0.06687365
56	0xbe39fcec	-0.18162888
57	0x3fb704bc	1.429832
58	0x3fa10981	1.2581025
59	0x3f989f0e	1.192354
60	0x3f3709de	0.7149943
61	0xbf04587d	-0.5169752
62	0xbf0acb81	-0.5421677
63	0xbf8399b2	-1.0281279
64	0x3e257e99	0.16161574
65	0x400c31a6	2.1905303
66	0xbfe1f853	-1.7653908
67	0x3f3963a5	0.7241767
68	0x3e88d8cd	0.26727906
69	0xbe250e82	-0.16118816
70	0x3dcee3a2	0.10102011
71	0x3f81ed14	1.0150476
72	0x3f288d8a	0.6584097
73	0xbedb30cc	-0.42810667
74	0xbf0fe4ea	-0.5620867
75	0x3d0964b0	0.03354329
76	0xbea8d2dc	-0.32973373
77	0x3f91f0fe	1.140167
78	0x3f332008	0.6997075
79	0xbec93193	-0.39295635
80	0x3f9967b3	1.1984771
81	0x3f858966	1.0432556
82	0xbf212e9e	-0.6296176
83	0xbeb4ec5f	-0.35336587
84	0x3f4a9443	0.7913248
85	0xbf409f44	-0.7524302
86	0xbf57ac9e	-0.8424777
87	0xbe0eb31b	-0.13935511
88	0xbf0a97ff	-0.5413818
89	0xbf3745c6	-0.7159084
90	0xbff0483d	-1.8772045
91	0xbf56051e	-0.8360156
92	0x3e3d5a43	0.18491463
93	0xbd699968	-0.057031065
94	0xbf6aeae3	-0.9176466
95	0xbe9f2799	-0.31084898
96	0xbfcf10eb	-1.6177038
97	0xbf82f9d4	-1.0232491
98	0xbf942a66	-1.1575439
99	0xbfbe9ea9	-1.4892169
100	0xbf74d548	-0.9563794
101	0x3fb842fd	1.4395443
102	0xbe9346b9	-0.28764895
103	0xbe234d3b	-0.1594743
104	0xbf8fdc73	-1.1239151
105	0x3e55f81a	0.20895424
106	0x3f22c4dc	0.63581634
107	0xbf56949e	-0.8382052
108	0xbf9ca53e	-1.2237928
109	0xbe34c0c7	-0.17651664
110	0xbfd2dc76	-1.6473529
111	0xbe74e5a9	-0.23915733
112	0xbf53ef9d	-0.82787496
113	0x3f478fd2	0.7795383
114	0x3f657ff8	0.8964839
115	0x3ef347b0	0.4751563
116	0xbf6f8d85	-0.93575317
117	0x3fda481e	1.7053258
118	0xbda908f2	-0.08253659
119	0xbd7bf750	-0.061515152
120	0x3eda59b9	0.42646578
121	0x3e261680	0.1621952
122	0xbebb4330	-0.36574697
123	0x3f806a81	1.0032502
124	0x403b4e76	2.9266639
125	0xbed84c40	-0.42245674
126	0x3d2b77c1	0.041862253
127	0xbee5fc11	-0.44918874
128	0xbbc2e3f6	-0.005947585
129	0xbefb6370	-0.49099302
130	0x3ec28aac	0.37996423
131	0x3fd59473	1.6685928
132	0x3fbd98a7	1.4812211
133	0x3f173509	0.590653
134	0x3f961272	1.1724379
135	0xbf07b686	-0.53012884
136	0x3f1003c9	0.56255776
137	0x3d5c788a	0.053825893
138	0x3f347943	0.7049753
139	0x3e6e3bae	0.23264953
140	0x3fb94994	1.4475579
141	0xbec29973	-0.38007697
142	0x3e85b94e	0.2611794
143	0xbec73e1b	-0.3891457
144	0x3f2e8304	0.68168664
145	0xbe927455	-0.2860438
146	0x3fad2d6b	1.3529485
147	0xbcb66e5a	-0.022269417
148	0xbebf709d	-0.37390605
149	0xbf5e202d	-0.86767846
150	0x3f20be10	0.6279001
151	0x3f08e1af	0.53469366
152	0x3f43b26c	0.76444125
153	0xbf029840	-0.51013565
154	0x3e97a3aa	0.29617053
155	0x3f2fa48d	0.6861046
156	0x3f38070e	0.71885765
157	0x3f78b13b	0.9714543
158	0xbf9e825d	-1.2383534
159	0x3e08addb	0.1334757
160	0xbfb10e54	-1.3832498
161	0xbf435250	-0.76297474
162	0xbf118748	-0.5684705
163	0x3fbae0f3	1.4599899
164	0x3d8a5f58	0.067564666
165	0xbf4379fb	-0.76358
166	0xbd89a8ae	-0.06721626
167	0xbf858d61	-1.043377
168	0x3e6a4352	0.22877243
169	0x3ee5f37e	0.44912332
170	0x3f2e079e	0.6798037
171	0xbe663a7f	-0.22483252
172	0x40134a2b	2.3014019
173	0xbe0bc4ac	-0.13649243
174	0x3ee87aa0	0.45406055
175	0xbefa438d	-0.48879662
176	0x3f412efc	0.7546232
177	0xbfc06152	-1.50297
178	0x3ef404dd	0.4765996
179	0x3e8fed86	0.28110904
180	0x3ed4d651	0.4156976
181	0x3dafca02	0.08583452
182	0x3efd9221	0.4952555
183	0xbe92359c	-0.28556526
184	0xbf4b9b7c	-0.79534125
185	0xbf3e68d0	-0.7437868
186	0x3fab2ffa	1.3374016
187	0x3f8bbcfd	1.091705
188	0x3f10349b	0.5633027
189	0xbf01d0da	-0.5070931
190	0xbe16b4bb	-0.1471738
191	0xbf5bc419	-0.85846096

quadjetResNetBlock.reinforce2.conv.module.bias f4 [8]
0	0x3ea91a07	0.3302767
1	0x3fb8a3dc	1.4425006
2	0x3e581619	0.2110218
3	0x3ec75d0e	0.38938183
4	0x4011b33c	2.2765646
5	0x3ed32195	0.4123656
6	0xbeecfbf8	-0.46285987
7	0x3f0567df	0.5211162

eventConv1.module.weight f4 [8, 8, 1]
0	0x3edcccd2	0.43125015
1	0x3f079065	0.52954704
2	0x3f83e03c	1.0302806
3	0xbf86ff6a	-1.0546696
4	0xbdac12e1	-0.08402038
5	0xbcefb965	-0.029263208
6	0xbee3e091	-0.44507268
7	0x3f889e07	1.0673226
8	0xbf7913d4	-0.9729588
9	0xbf184595	-0.59481174
10	0xbf062689	-0.5240255
11	0x3eaad624	0.333665
12	0xbfa72d7d	-1.3060757
13	0xbd58e885	-0.052956123
14	0xbd0f3cce	-0.034970097
15	0xbf33a483	-0.701729
16	0x3f7c3649	0.9852033
17	0xbe4d3b52	-0.2004216
18	0xbee379d3	-0.44428882
19	0x3e073b75	0.13206275
20	0x3f120351	0.5703631
21	0xbf198e5d	-0.59982854
22	0xbee04b5b	-0.43807492
23	0x3eb542eb	0.35402617
24	0xbd9b0366	-0.075690076
25	0xbe8a7a1c	-0.27046287
26	0x3eb623f7	0.35574314
27	0xbe8bb466	-0.2728607
28	0x3f5b375b	0.8563134
29	0xbfbcb4d1	-1.4742681
30	0x3c73a650	0.014871195
31	0xbeeee2a2	-0.46657282
32	0xbf36a3cc	-0.71343684
33	0xbf078229	-0.52932984
34	0x3d874d26	0.06606512
35	0x3f86d7d9	1.0534621
36	0xbe94ad96	-0.29038686
37	0xbdb0333a	-0.08603521
38	0xbec615d1	-0.3868852
39	0xc001ba81	-2.0270083
40	0x3f1583dd	0.5840433
41	0x3f7ac43c	0.9795568
42	0xbc6ad0d6	-0.014332017
43	0xbf32264b	-0.6958968
44	0xbf1b5e7d	-0.6069105
45	0x3f24533b	0.641895
46	0x3ec0b3c7	0.3763716
47	0x3e442eba	0.1915845
48	0x3f3721b8	0.71535826
49	0xbe235b99	-0.1595291
50	0x3f07fba7	0.53118366
51	0x3f8e7a99	1.1131164
52	0xbefdf75e	-0.4960279
53	0x3f3cadfe	0.7370299
54	0xbed703dd	-0.41995135
55	0x3f6aa94a	0.91664565
56	0xbf19402a	-0.5986353
57	0xbf6984d4	-0.91218305
58	0xbf822934	-1.0168824
59	0x3fc2e384	1.5225682
60	0x3f82259a	1.0167725
61	0xbf5fa02a	-0.87353766
62	0xbe1a6370	-0.15076995
63	0xbedc6f8d	-0.43053856

eventConv1.batchNorm.gamma f4 [8]
0	0xbebcd63e	-0.36882204
1	0x40243a3a	2.5660539
2	0x3fe10aca	1.7581418
3	0x3f5781fc	0.84182715
4	0x4008dbab	2.1384075
5	0x3da9f57b	0.08298775
6	0x3e272828	0.16323912
7	0x405ced3d	3.4519799

eventConv1.batchNorm.bias f4 [8]
0	0xbeefd10a	-0.46839172
1	0x3fbd5d0f	1.4794024
2	0xbfdcfeb0	-1.7265224
3	0xbec150a0	-0.37756824
4	0x3fb715be	1.430351
5	0x3ecac049	0.39599827
6	0xbeb02dac	-0.34409845
7	0x3ec1531b	0.37758717

eventConv1.batchNorm.m f4 [1, 8, 1]
0	0x424275d8	48.61508
1	0xc29dd5a4	-78.91727
2	0x41c55cd6	24.67033
3	0xc20cd860	-35.211304
4	0xc2ac3398	-86.10077
5	0x4253fedd	52.99889
6	0x42267197	41.610928
7	0xc25c2094	-55.031815

eventConv1.batchNorm.s f4 [1, 8, 1]
0	0x41845353	16.540686
1	0x41ca0050	25.250153
2	0x4178dc75	15.5538225
3	0x4189d97a	17.23119
4	0x41e299e0	28.325134
5	0x4187929b	16.946585
6	0x41715b35	15.084767
7	0x41a3a954	20.45768

eventConv2.module.weight f4 [8, 8, 1]
0	0x3f91ccad	1.1390587
1	0xbef99b10	-0.48751116
2	0xbf6cdbf2	-0.9252311
3	0x3f8458f3	1.0339645
4	0x3f169294	0.5881741
5	0xbf0885ee	-0.5332936
6	0xbda1182c	-0.078659385
7	0xbddd3488	-0.10801035
8	0x3f5b33fc	0.85626197
9	0x3e9efe81	0.31053546
10	0xbf139548	-0.5764966
11	0xbf8253f4	-1.018187
12	0xbf1c5d54	-0.6107991
13	0x3fc9bc48	1.5760584
14	0x3f656a27	0.896151
15	0x3d303c2d	0.043026138
16	0xbe00186e	-0.12509319
17	0x3f2b5f25	0.66942054
18	0x3ec86abb	0.3914393
19	0x3e916cd8	0.28403354
20	0xba0a5d61	-0.0005278197
21	0x3f262091	0.6489344
22	0x3fdf2f6f	1.743635
23	0xbdacd1d5	-0.0843846
24	0xbf2b04c6	-0.6680416
25	0xbd461b86	-0.048366092
26	0x3ea1a227	0.31569025
27	0x3f5ba9e6	0.8580612
28	0xbf98ae41	-1.1928178
29	0x3f363338	0.71171904
30	0x3f408548	0.7520337
31	0xbea9afc4	-0.3314191
32	0x3bd7a0b6	0.0065804375
33	0x3f706a81	0.9391251
34	0xbe7c4333	-0.2463501
35	0x3f605dc5	0.8764308
36	0x4002fa3e	2.0465236
37	0x3de3ce6c	0.11123356
38	0xbef3d54f	-0.4762368
39	0x3e8cc955	0.27497354
40	0xbf5f941f	-0.8733539
41	0x3dd1495e	0.10219072
42	0xbda30fff	-0.079620354
43	0x3eab1643	0.33415422
44	0xbc099155	-0.008396466
45	0xbe8a855d	-0.27054873
46	0x3eb1758d	0.34659997
47	0x3f9faffd	1.2475582
48	0xbdf29b13	-0.11845984
49	0xbcb5ae8c	-0.022177957
50	0x3cc17497	0.023615165
51	0xbe924422	-0.28567606
52	0x3e6c8edf	0.23101376
53	0xbf272105	-0.6528476
54	0xbf08360a	-0.5320746
55	0xbe55596c	-0.20834893
56	0x3f48f6ef	0.7850179
57	0x3dbee560	0.093210936
58	0xbe2613ec	-0.16218537
59	0xbd91a5b7	-0.07111686
60	0x3e336d0a	0.17522064
61	0x3dda34c1	0.10654593
62	0x3f7129c6	0.94204366
63	0x3f91de87	1.1396035

eventConv2.module.bias f4 [8]
0	0x3f6b7d7f	0.91988367
1	0x3eae1713	0.3400198
2	0x3fc1aaf1	1.5130292
3	0x3f6c6a6c	0.92349887
4	0x40065b55	2.0993245
5	0x3f7b155d	0.9807947
6	0xbed3e1bc	-0.4138316
7	0x3f4c129c	0.79715896

select_q.module.weight f4 [1, 8, 1]
0	0xbf668ac7	-0.9005551
1	0xbd1bef0a	-0.038069762
2	0x4011e96f	2.2798727
3	0x3ec1a5a6	0.37821692
4	0xbe71f7ff	-0.23629759
5	0xbd080b35	-0.033213813
6	0x3f73ab1a	0.95182955
7	0xbea5072b	-0.3223203

out.module.weight f4 [4, 8, 1]
0	0xbfd7736b	-1.6832098
1	0x3e20eb90	0.1571486
2	0xbe082df4	-0.1329878
3	0xbe70586c	-0.2347123
4	0xbf99e51b	-1.2023042
5	0x3e3cd0bd	0.18439002
6	0xbed8ea06	-0.42366046
7	0xbf7d568b	-0.9896018
8	0x3e7dfd3b	0.24803631
9	0x4034a258	2.8224087
10	0x3e9ffb1e	0.31246275
11	0xbf7f0c29	-0.9962793
12	0xbe7d5493	-0.24739294
13	0x3e945314	0.28969634
14	0x3d150e74	0.036390737
15	0x3f7286ba	0.94736826
16	0xbf9349e0	-1.150692
17	0xbdb74398	-0.08948439
18	0xbcd3b0fc	-0.025841229
19	0xbf85dfc5	-1.0458914
20	0x3ffb3c82	1.962784
21	0x3dbd65ed	0.092479564
22	0x3c56c83a	0.013109261
23	0xbed1acc2	-0.40952116
24	0x3f360682	0.7110368
25	0x3d29a7b7	0.04141971
26	0x3ebdd43d	0.37075987
27	0xbf9af989	-1.2107402
28	0x3fd070a6	1.6284378
29	0xbfcc5a78	-1.5965109
30	0xbe36c394	-0.17848045
31	0xbf7c5bf0	-0.98577785

out.batchNorm.gamma f4 [4]
0	0x3ecb14f2	0.39664418
1	0x3e898525	0.26859394
2	0x3faae22f	1.3350276
3	0x3fb020e9	1.3760043

out.batchNorm.bias f4 [4]
0	0x3fa94b3e	1.3226087
1	0x3fc49eb3	1.5360931
2	0xc01bbc1f	-2.433357
3	0xbf96a131	-1.1767942

out.batchNorm.m f4 [1, 4, 1]
0	0xc333d827	-179.84435
1	0x43944e1a	296.61017
2	0x425a660a	54.599648
3	0x41ce25b9	25.76842

out.batchNorm.s f4 [1, 4, 1]
0	0x42966b7b	75.20992
1	0x42ae5908	87.17389
2	0x4263cdc8	56.95096
3	0x428b6628	69.699524

exp_avg f4 [8, 4, 1]
0	0x3725db9f	9.885901e-06
1	0x377d3c94	1.509408e-05
2	0xb7040e92	-7.8712055e-06
3	0x35d3012e	1.5721068e-06
4	0xb6474e09	-2.9698733e-06
5	0xb63b1416	-2.7876863e-06
6	0x36983280	4.535832e-06
7	0xb747b867	-1.1904259e-05
8	0x3801a431	3.0908912e-05
9	0xb78ba778	-1.6648075e-05
10	0xb700e1aa	-7.681936e-06
11	0x36fc91d1	7.5271605e-06
12	0xb6581b54	-3.2202415e-06
13	0xb818a7ff	-3.6396083e-05
14	0x3666f5d8	3.441577e-06
15	0xb77aeb12	-1.4955893e-05
16	0x3612dec9	2.1885373e-06
17	0x370a5ab0	8.246556e-06
18	0xb699100c	-4.5616234e-06
19	0x35792340	9.2811024e-07
20	0xb75ab41d	-1.3035748e-05
21	0x37b4617f	2.1503072e-05
22	0x37f86063	2.9608787e-05
23	0x380df5c7	3.3845918e-05
24	0x38e2490e	0.00010790127
25	0xb7a89a02	-2.0098876e-05
26	0xb6d29077	-6.2753056e-06
27	0x38d09893	9.946632e-05
28	0x38701ea7	5.7249006e-05
29	0x3829a835	4.0449395e-05
30	0xb609b03e	-2.0517177e-06
31	0x38f458f8	0.000116513984

exp_avg_sq f4 [8, 4, 1]
0	0x340540d9	1.2410182e-07
1	0x334b5bbe	4.734806e-08
2	0x31f5acab	7.1500685e-09
3	0x341a6e08	1.4382397e-07
4	0x329a4e23	1.7963492e-08
5	0x331aa52b	3.600614e-08
6	0x315c3a7a	3.2047454e-09
7	0x33700e1d	5.589219e-08
8	0x33792384	5.800713e-08
9	0x32e085bb	2.6137846e-08
10	0x3122e5a5	2.370464e-09
11	0x32e3611a	2.6470435e-08
12	0x33da2e06	1.0159788e-07
13	0x33cd9eeb	9.5749634e-08
14	0x32290ae4	9.839571e-09
15	0x33932bd7	6.853195e-08
16	0x31a17cfa	4.699925e-09
17	0x31d371cf	6.1538468e-09
18	0x307c8ca4	9.187693e-10
19	0x31d817fd	6.2891545e-09
20	0x335cced1	5.141084e-08
21	0x33a39292	7.61694e-08
22	0x3212c5b9	8.543275e-09
23	0x338fbe30	6.693551e-08
24	0x3500b19e	4.7942183e-07
25	0x34110d38	1.3508986e-07
26	0x326f99c2	1.3946591e-08
27	0x34e1fe91	4.2094737e-07
28	0x33fa23ce	1.1648045e-07
29	0x33c7dd5f	9.306927e-08
30	0x3208027c	7.916807e-09
31	0x345563e1	1.9873507e-07

exp_avg f4 [8]
0	0xb752e649	-1.2570593e-05
1	0xb6eac0c1	-6.996183e-06
2	0x366c15c7	3.5179416e-06
3	0x37e497dc	2.7250433e-05
4	0xb6fe2ae2	-7.574782e-06
5	0x37721e06	1.4431314e-05
6	0xb5a44640	-1.2239398e-06
7	0x38115254	3.4647368e-05

exp_avg_sq f4 [8]
0	0x32eb5999	2.7398345e-08
1	0x32581504	1.2577633e-08
2	0x32aa0e02	1.9796975e-08
3	0x33987aec	7.100411e-08
4	0x319b6e79	4.523653e-09
5	0x338eac51	6.6437345e-08
6	0x332d5717	4.035891e-08
7	0x337bd761	5.8636378e-08

exp_avg f4 [2]
0	0xb62d92ad	-2.5864385e-06
1	0xb8426bda	-4.635365e-05

exp_avg_sq f4 [2]
0	0x33da7fb5	1.0174646e-07
1	0x3489ad40	2.5644295e-07

exp_avg f4 [2]
0	0xb726e927	-9.948656e-06
1	0x3743d1e1	1.1671772e-05

exp_avg_sq f4 [2]
0	0x3481822f	2.4122843e-07
1	0x33d8c517	1.0094134e-07

exp_avg f4 [8, 2, 1]
0	0xb7dc1cab	-2.6239393e-05
1	0xb6a629f5	-4.95207e-06
2	0xb759a7fc	-1.297332e-05
3	0x3704b16b	7.909121e-06
4	0xb784ffa0	-1.585466e-05
5	0xb820716c	-3.8252605e-05
6	0xb73e9f5f	-1.1361989e-05
7	0xb6eaff99	-7.003499e-06
8	0x3724bf66	9.819725e-06
9	0x380039f4	3.057155e-05
10	0x37097f18	8.195428e-06
11	0x375ca2ad	1.3150898e-05
12	0x37639de5	1.3567017e-05
13	0x3781a9a8	1.5457e-05
14	0x37078479	8.077471e-06
15	0xb5e97f6a	-1.7396935e-06

exp_avg_sq f4 [8, 2, 1]
0	0x32beac15	2.2197165e-08
1	0x32534baf	1.2299025e-08
2	0x32819e41	1.5089542e-08
3	0x31dce0c6	6.4283965e-09
4	0x321be215	9.0735925e-09
5	0x329745a2	1.7610379e-08
6	0x32384d87	1.0727837e-08
7	0x32b1d487	2.0702158e-08
8	0x3254ee71	1.2394239e-08
9	0x32ec9c9b	2.7545232e-08
10	0x33252d08	3.8458012e-08
11	0x32be5ab2	2.2160155e-08
12	0x3310ee0d	3.374412e-08
13	0x334bd9a7	4.7462574e-08
14	0x32f3fda5	2.8404267e-08
15	0x3314ca2a	3.4642802e-08

exp_avg f4 [8]
0	0x36a99f2b	5.055122e-06
1	0x368fd69b	4.2867155e-06
2	0x377f65bf	1.5222874e-05
3	0x37f16984	2.8778573e-05
4	0xb7a0b666	-1.9158422e-05
5	0xb729c144	-1.0118183e-05
6	0x376aa1f5	1.3985195e-05
7	0x3651d1aa	3.1265467e-06

exp_avg_sq f4 [8]
0	0x324f3e11	1.2063098e-08
1	0x3284122a	1.5375083e-08
2	0x31e9393f	6.7877006e-09
3	0x328cf5f5	1.6409993e-08
4	0x3290d75d	1.6861742e-08
5	0x32f59e98	2.8593874e-08
6	0x3290ea7b	1.6870436e-08
7	0x3299bdb0	1.7897804e-08
