nTupleAnalysis/pytorchModels/FvT_ResNet+multijetAttention_8_8_8_np1494_lr0.008_epochs40_stdscale_epoch24_loss0.1221.pkl (torch_old, 65868 bytes, 151 tensors)

canJetScaler.m f4 [1, 4, 1]
00000000: 0000 0000 0000 0000 0000 0000 0000 0000
0.0 0.0 0.0 0.0

canJetScaler.s f4 [1, 4, 1]
00000000: 0000 803f 0000 803f db0f 4940 0000 803f
1.0 1.0 3.1415927 1.0

othJetScaler.m f4 [1, 5, 1]
00000000: 0000 0000 0000 0000 0000 0000 0000 0000
00000010: 0000 0000
0.0 0.0 0.0 0.0 0.0

othJetScaler.s f4 [1, 5, 1]
00000000: 0000 803f 0000 803f db0f 4940 0000 803f
00000010: 0000 803f
1.0 1.0 3.1415927 1.0 1.0

dijetScaler.m f4 [1, 2, 1]
00000000: 0000 0000 0000 0000
0.0 0.0

dijetScaler.s f4 [1, 2, 1]
00000000: 0000 803f 0000 803f
1.0 1.0

quadjetScaler.m f4 [1, 6, 1]
00000000: 0000 0000 0000 0000 0000 0000 0000 0000
00000010: 0000 0000 0000 0000
0.0 0.0 0.0 0.0 0.0 0.0

quadjetScaler.s f4 [1, 6, 1]
00000000: 0000 803f 0000 803f 0000 803f 0000 803f
00000010: 0000 803f 0000 803f
1.0 1.0 1.0 1.0 1.0 1.0

jetEmbed.module.weight f4 [8, 4, 1]
00000000: 53f1 0dbe ac93 25bf c808 14be 2170 c83e
00000010: b60a c1bf 8c62 633e 97ad 6cbe c82e e23d
00000020: 91ce 6c3e 5180 ddbe 9df3 32be 60e7 dabf
00000030: d224 043f 5e29 833f d78f 8e3e 4d9a 6ebf
00000040: 6715 42bf 4e96 87be 36ae cebd d688 a33e
00000050: ac3a d8be e974 f3bb 8b13 7cbf 0785 403e
00000060: 24a9 76be a93c 9cbf 61fd 1ebf 70d6 c63e
00000070: c343 5cbf 7de7 c23e d071 b93e 1281 9d3f
-0.13861589 -0.64678454 -0.14456475 0.39148048 -1.5081394 0.22205561 -0.23113094 0.11044079
0.23125674 -0.4326196 -0.17475744 -1.710186 0.51618683 1.0246999 0.27844116 -0.93204194
-0.7581391 -0.2648186 -0.10091822 0.31940335 -0.42232263 -0.0074297083 -0.9846732 0.18800746
-0.2408796 -1.2206012 -0.62105376 0.38835478 -0.86040896 0.38067237 0.36219645 1.2305014

jetEmbed.module.bias f4 [8]
00000000: e379 3fbe dd05 bcbe 4018 1ebf 863b d4be
00000010: cc6e 8d3d 52c6 ffbe 2efc 20bf 8c00 153f
-0.1869884 -0.36723223 -0.6175575 -0.41451663 0.069058985 -0.49955994 -0.62884796 0.5820396

dijetGBN.gamma f4 [2]
00000000: 87fe a43f 4002 983f
1.2890176 1.1875687

dijetGBN.bias f4 [2]
00000000: eca5 b43e 2889 5d3f
0.35282838 0.8653741

dijetGBN.m f4 [1, 2, 1]
00000000: ba84 3743 5055 0c40
183.51846 2.192707

dijetGBN.s f4 [1, 2, 1]
00000000: 93d6 d642 26ad 6e3f
107.41909 0.93232954

dijetEmbed1.module.weight f4 [8, 2, 1]
00000000: d802 d43d d116 b8bf 0c1d 803f e0de 6fbf
00000010: d201 5abf 5674 143e 4eda 75bf a3df 4b3f
00000020: 4000 c2be d861 29bf 0bb9 e6bf cc50 abbe
00000030: ed15 263e e658 8ebd 6a46 333f 8fbe b23f
0.10352105 -1.4381963 1.0008864 -0.93699455 -0.8515903 0.14497504 -0.9603623 0.7963812
-0.37890816 -0.6616492 -1.8025221 -0.3346008 0.16219302 -0.0695055 0.7002932 1.3964404

dijetEmbed1.module.bias f4 [8]
00000000: cadc cabe fa1a 0fbf f49f c83f 35bc 843e
00000010: 1bbb c6be 5372 db3e f54b b53f 70eb b43f
-0.39621574 -0.5590054 1.5673814 0.2592484 -0.38814625 0.4286066 1.4163805 1.413435

dijetResNetBlock.reinforce1.conv.module.weight f4 [8, 8, 3]
00000000: 6100 f6be c5dc 073f dc2f c7bf d7c1 f63d
00000010: 2dfb b1be 1a4c 993e 163b dabe 67bb 313f
00000020: 3b25 5f3e 07c3 90be ba8c 8e3f e588 a73d
00000030: bdc3 a5bf 6a8b c5be 37b2 89be e439 27bf
00000040: fb01 db3e 9714 9bbe bb41 77be 03f4 7c3f
00000050: 4a6d d63e 0d84 d9bf ef5a abbf b1cf d8be
00000060: 8049 623e cfaa 88be a495 853f f0a5 c53e
00000070: f016 51bf a62f 26bf 198d 24be 9799 5440
00000080: 595e b83e b828 ac3f a688 c63f 07b5 ae3e
00000090: e4a2 2abf 5208 afbf 60e3 16bf d6d0 393e
000000a0: 7a28 873e f04b 02bf dfbb dc3d 9b25 59bf
000000b0: 39ea 01bf 32cf 0a3f 1a06 88bf 7cd2 2bbd
000000c0: b9f9 143f 35f5 a63f 53e3 00be 0fd1 8139
000000d0: 8c3b 4f3e 9e0d 20bb 1ce9 52be a534 f7be
000000e0: 85c0 48bf 4c8a b2be 7ca6 093f 7b2e bdbe
000000f0: 8d89 da3d d6ad 2a3f 013b 8cbf c323 96be
00000100: df40 c63e d840 59bf c873 603e ed20 9d3f
00000110: 9eb2 75be 8904 4c3f b280 343f 3287 0b3d
00000120: fc6a 823c 7f48 523e 16bc 91be 590d c5bf
00000130: 4e38 fe3d 4449 98bf c506 e73d de1f cb3e
00000140: 7f9a 783f ed82 52be a653 f53f a249 5d3f
00000150: f762 393f ca88 4b3e 1390 73bf c99a e43e
00000160: 8c0c 25be 05b6 abbf e38e 83bd eaeb 793f
00000170: 7c1c a4bf a6c9 e73e c3dc 0c3e 9f17 963e
00000180: 98b1 c73e 08b7 17bf 6094 073f 800c 1dbf
00000190: 05ad 69bd 8797 dfbe 9fa3 06bf 7873 19bf
000001a0: 2abe 6b3f 5500 1f3f 42ec 30bf c4c2 1f3f
000001b0: 0c35 8abe a169 153f a51f 4540 2642 61be
000001c0: 986d 8bbe 0997 0d40 48ff 01be 307a b03e
000001d0: 33f2 88bf 6fe8 283e 3511 8e3e ed02 bc3e
000001e0: f5cb f43e bb17 b43f 173e 8b3f d3d6 c5bf
000001f0: c594 d7bf d65e aa3f 1c88 903f 33b8 ea3e
00000200: 4446 0e3e 7e85 aa3d 073c 513e 9050 0f3c
00000210: c647 97bf 5b89 023f 90f8 babe b927 aabf
00000220: aa54 263f 3e64 91bf 3aff c6be 640a 443f
00000230: 2237 da3e aa4e 673f c828 603d 3a87 793e
00000240: 3e33 50be efb0 27be c71d b0bf 151b 483f
00000250: f8d6 9b3f e720 8fbf bba8 1cbe 6747 df3e
00000260: eb64 0fbf 2264 d43d 6f8b 4a3f fdd4 d9be
00000270: 45b5 48be 5c04 1a3f 6e55 b2bf ad2d 0bbf
00000280: bcb1 f43e 8b72 94bf febd 4cbe 1689 703f
00000290: 3f1e 87bf a9c5 c8bc c456 033e 017a 47bf
000002a0: 2405 8dbe 87e9 0ebd 5d3b 8fbf 060a 1840
000002b0: c09b 2640 4658 0ebe e606 fabe 8521 663f
000002c0: 5fbe cebd 1ff8 00bf 248e 633d b0e4 1b3e
000002d0: b1ee 893f 04c5 9a3f d3e7 68be e7aa 043f
000002e0: c14f 6f3f 9603 c13e e18b d53e 44cd 7c3f
000002f0: f1dc 5cbf 7487 2cbd 5c04 0b3f de90 5abe
-0.48047164 0.5307124 -1.556148 0.12048691 -0.34761944 0.29940873 -0.42623204 0.6942658
0.21791546 -0.28273794 1.1136696 0.081804074 -1.295036 -0.38582927 -0.2689378 -0.6532271
0.42774948 -0.30289146 -0.24146168 0.9880983 0.41880256 -1.6993424 -1.3387126 -0.42345956
0.2209835 -0.26692817 1.0436292 0.38603163 -0.81675625 -0.64916456 -0.1606945 3.3218744
0.36009482 1.3449926 1.5510452 0.34122488 -0.666548 -1.3674414 -0.58940697 0.18146071
0.2639807 -0.5089712 0.10778021 -0.84823006 -0.5074802 0.54222405 -1.0626862 -0.04194878
0.58193547 1.3043581 -0.12586717 0.00024760558 0.20237559 -0.002442218 -0.20596737 -0.48282352
-0.7841876 -0.34871137 0.5376966 -0.36949524 0.10670767 0.666715 -1.0955507 -0.2932416
0.38721368 -0.8486457 0.21919167 1.2275673 -0.23993918 0.7969442 0.70508873 0.03406448
0.015920155 0.20535468 -0.2846381 -1.5394698 0.12413083 -1.1897359 0.11280588 0.3967275
0.9711074 -0.20557757 1.9166152 0.8644048 0.72416633 0.198764 -0.95141715 0.44649342
-0.16118068 -1.3414923 -0.06423738 0.976256 -1.2821193 0.45271033 0.13756089 0.29314896
0.3900268 -0.5926366 0.5296078 -0.613472 -0.05704977 -0.43670294 -0.52593416 -0.59941816
0.9208704 0.6210988 -0.691105 0.62406564 -0.26993597 0.583643 3.0800564 -0.2199789
-0.2723205 2.2123435 -0.12695038 0.34468222 -1.0698913 0.16494916 0.27747503 0.36720982
0.47811857 1.4069742 1.0878323 -1.5456184 -1.6842276 1.3310192 1.1291537 0.45843658
0.13893992 0.08326243 0.20433055 0.008747235 -1.1818779 0.5099084 -0.36517763 -1.3293372
0.6497294 -1.1358716 -0.38866597 0.76578355 0.42620188 0.90354407 0.054726392 0.24367991
-0.20332047 -0.16376089 -1.3759087 0.78166324 1.2174978 -1.1181916 -0.1529874 0.43609163
-0.56013364 0.10370661 0.7911901 -0.4254531 -0.19600399 0.601629 -1.3932321 -0.5436657
0.4779185 -1.1597456 -0.19994351 0.93959177 -1.0556105 -0.024508314 0.12826067 -0.7792054
-0.27542984 -0.034890678 -1.1189991 2.3756118 2.6032562 -0.13900861 -0.48833388 0.89894897
-0.10094904 -0.503786 0.055555478 0.15223956 1.0775968 1.2091374 -0.22744684 0.51823276
0.9348107 0.37698048 0.41708282 0.9875071 -0.8627463 -0.042121366 0.54303527 -0.21344325

dijetResNetBlock.reinforce1.conv.batchNorm.gamma f4 [8]
00000000: 4164 cb3f 37cc ab3f f566 9d3b e572 233f
00000010: ccd3 ab3f 6eef 8a3f 6741 543f 249b 573f
1.588997 1.3421696 0.004803533 0.6384719 1.342401 1.0854318 0.82912296 0.842211

dijetResNetBlock.reinforce1.conv.batchNorm.bias f4 [8]
00000000: 702f 02be 0574 efbf ad38 c2bf ea4f 48bf
00000010: 486a 4b3e 45cc c1be 0c44 c5bd 5a6d 983f
-0.12713408 -1.8707281 -1.5173546 -0.7824694 0.19864762 -0.37851158 -0.096321195 1.1908371

dijetResNetBlock.reinforce1.conv.batchNorm.m f4 [1, 8, 1]
00000000: 5ce4 76c0 b23a c7bf 2539 ff3e 8c74 bf3f
00000010: f409 3540 0b1f 6d3f bdf8 61c0 ac0e 903f
-3.857688 -1.5564787 0.49848285 1.4957442 2.8287325 0.9262549 -3.5308068 1.1254478

dijetResNetBlock.reinforce1.conv.batchNorm.s f4 [1, 8, 1]
00000000: 502f 3540 2e84 f83f 86f2 1b40 eb1f 0d40
00000010: db14 3740 3c4c 4440 7459 0340 e0d6 2d40
2.8310127 1.9415338 2.4366775 2.205073 2.860648 3.067153 2.0523348 2.71624

dijetResNetBlock.convJ.module.weight f4 [8, 8, 1]
00000000: dcb8 37be 6cf6 abbe 42cc dbbf c4ba c8bf
00000010: 1cad e63e 1dbb a1bd 0103 7e3d 947d 7e3f
00000020: 8903 6cbe 3e69 95be 549c 2fc0 9889 d9bf
00000030: 1043 a43c f725 4bbf 9ffe d33e 8d92 be3e
00000040: 8d7a 013f 64d6 0dc0 c34d 9ebf 4a9b 08bf
00000050: 4aea 3fbf 3ead 553e c85e 8b3d c910 7cbe
00000060: 2ee1 1dbe 9a78 a63d 0eee cb3f d249 613f
00000070: 0729 3cbe 8bfe 3dbe 5df7 383e fc32 4d3f
00000080: 3443 40be 0c9e 35bf 3dc9 24bf 9240 35bf
00000090: e307 3abf bf40 1fbe 4b61 65be 8670 e1bf
000000a0: f9f5 95bf 4ab2 f2be cee0 0abf 8208 99be
000000b0: 193d 89bf 73dc 93bf ad4a d6be 98ac 7ebf
000000c0: 49ca 203f 884b 4bbf 6409 8bbf 2403 4d3f
000000d0: b3a8 42be 2691 08be c883 483d 6d85 a0bf
000000e0: 2991 88bf b294 85bf 5c0a 0140 3df2 0fbf
000000f0: 4e3c 8dbe c362 bd3e 700d 16bf 9205 febe
-0.17941612 -0.33586442 -1.717171 -1.5681996 0.45053947 -0.07897017 0.062014583 0.99410367
-0.23048224 -0.29181856 -2.7439165 -1.6995115 0.02005151 -0.79354805 0.41405198 0.37221184
0.5057762 -2.2162104 -1.2367481 -0.5336195 -0.7496687 0.20866868 0.068051875 -0.24615778
-0.1541793 0.08128472 1.5932024 0.88003266 -0.18375026 -0.18554132 0.18063112 0.8015592
-0.18775636 -0.70944285 -0.64369565 -0.7080165 -0.72668284 -0.15552042 -0.22400396 -1.7612464
-1.171569 -0.4740165 -0.54249275 -0.29889303 -1.072177 -1.1551651 -0.41853848 -0.9948211
0.6280866 -0.79412127 -1.0862241 0.8008292 -0.19009666 -0.1333662 0.0489538 -1.2540718
-1.0669299 -1.0436003 2.0162573 -0.56229 -0.2758507 0.36989412 -0.58614254 -0.49613625

dijetResNetBlock.convJ.batchNorm.gamma f4 [8]
00000000: ecac 1a3f 7f76 9d3f e292 513f f185 403f
00000010: e80f 833f 573b 7e3f 6476 f93e 9662 973f
0.6042011 1.2301787 0.8186475 0.7520438 1.0239229 0.99309295 0.48723137 1.1826961

dijetResNetBlock.convJ.batchNorm.bias f4 [8]
00000000: 3c2d 3d3f 274f e03d 17b6 a53e d28e 5f3d
00000010: f91b f9bc aa8c 943e c6ae 16be 44ae 91bf
0.7389715 0.10952597 0.32365486 0.054579563 -0.030408846 0.29013568 -0.14715108 -1.1381307

dijetResNetBlock.convJ.batchNorm.m f4 [1, 8, 1]
00000000: 34e4 8a3f 8fcf 093f 8a32 69bf 3ff3 273f
00000010: 4623 02c0 fe9c b1bf ff0c adbf 4483 8fbf
1.0850892 0.53832334 -0.9109274 0.6560554 -2.033403 -1.3876035 -1.3519591 -1.1211934

dijetResNetBlock.convJ.batchNorm.s f4 [1, 8, 1]
00000000: d330 af3f 9731 983f 3a21 bf3f e0f9 5d3f
00000010: 4dbf e73f 6779 bb3f ef63 9e3f 226f 8e3f
1.3686775 1.1890134 1.4932015 0.86709404 1.8105255 1.4646424 1.2374247 1.1127665

dijetResNetBlock.reinforce2.conv.module.weight f4 [8, 8, 3]
00000000: 2f98 0bbf f730 f03c 5aa9 4abf 4312 79bf
00000010: 0974 9a3e 9b62 05bf 5712 cabf 22f3 66be
00000020: 1270 08bf 9bb2 2d3e 2e86 59bf 10ac cbbe
00000030: 99f0 4bbf 9f7e 1ebf b5cc aebf 7e9b 8bbf
00000040: 11cc 4b3e e146 70bf faa7 043f ac9a 41be
00000050: 2dfe 80be 1688 573e 0e94 06bf 47f2 3fbf
00000060: ef68 f13d 6fca 11be 6afa 8e3e 687c 06bf
00000070: ea27 4fbd 5fdb b8be 244f 553f 7d12 21bf
00000080: 57ff 51bf 43f0 fdbe 5032 253f 77dd 73bf
00000090: 1713 363d 66eb 6f3e b58f 1b3c 2c05 58bf
000000a0: f013 713e 02e6 2cc0 9c25 063f 42ab 193d
000000b0: e2dc 453f 5a1f 9cbe ed9d be3d 1013 2fbf
000000c0: 18ee 7f3e b351 7c3e e0e1 60bf 3c2d 1f3c
000000d0: e3d6 433f 2155 dfbf 5058 90bf 62f4 4ebf
000000e0: 4b45 0abf 636f 303f 0d51 783f 6bf6 30bf
000000f0: 218f efbf c67b 5cbf 6963 9d3e c408 aebe
00000100: 3c06 81bd 04c5 d3be 11da 9fbf 4c44 7cbf
00000110: 860f 293f d719 993f 9146 2abc f1c6 803f
00000120: f79e f9be 4160 d73e 0e6a e73c 19f1 37bf
00000130: d3a4 81be bec7 a6bf 856f 44bf 42f6 0c3f
00000140: 20ec eebe cae5 05bf 6431 83bf f8db 7a3e
00000150: dfc8 9e3d e560 473e 7615 a0bc 705c ddbe
00000160: d7b5 ca3d 4628 87bf 48dd 553f dd6c 8f3e
00000170: 7971 3b3d de80 1abf 5166 95bd 557c 743f
00000180: 2994 f0be 245a 003e ca19 353b be1c 40be
00000190: 21f9 76bf 0bfb 833e fa2c 253f 9e08 253f
000001a0: b62a 2b3b 90a1 b8bf be83 11c0 05af 9fbe
000001b0: 7836 913e 511c a73e 22c4 eebc 1ac8 24bf
000001c0: ada6 6bbe 9941 94be aa99 77bd 7a14 773e
000001d0: 307f 273f aca0 ee3c e167 e9bf ae69 be3d
000001e0: ee8a b83e 71d5 bbbc b7ad 07bf a654 f6bd
000001f0: f6a0 0cbe 9692 87bf e472 873f 2a12 7f3e
00000200: 88e3 25be 460e 2bbf c4a7 dc3e 47a8 fcbd
00000210: 4bdd c53e 2b24 68be 2b41 c93f 000d e93d
00000220: 68c2 cf3e 5407 b63e c2d9 0b3c 3725 a6be
00000230: 12a5 bd3e ba10 c2be af59 07bf 4cae 9abe
00000240: ea5d 293f a532 663f 6733 cdbf e086 3a3f
00000250: 3697 fa3e db7a cc3e 39ea 74bd e09e 7abf
00000260: 242a 163f 9dc8 3b3f 9a61 173f 0ac3 113f
00000270: ab44 a1bf ed7d 9bbe 470b 433e e2de b5bf
00000280: e51a a5bf 3061 4bbd 84c4 e63f 68b3 f13e
00000290: 0d32 053f 4888 173f 0b6f 94be dd67 5a3f
000002a0: 0b43 d13d 4f8e 173e 0ff2 943d eb73 9ebe
000002b0: c062 e7be 3d58 a1bf aada b5be c069 dd3e
000002c0: de84 f0be 0a44 6bbf 2a84 bebf b629 9ebf
000002d0: 1601 623f 1593 623f 4702 c53e bea0 04bd
000002e0: 9c3f cebe fc19 aebf 3ad1 1cbf e5fb 0fbe
000002f0: 9897 f83e 4f40 31bf 9f2f 93be 2ce1 053f
-0.5452909 0.029320223 -0.7916466 -0.9729349 0.30166653 -0.52103585 -1.5786847 -0.22553685
-0.53296006 0.16962664 -0.84970367 -0.3977971 -0.79664 -0.6191196 -1.3656222 -1.0906827
0.19902064 -0.9385815 0.5181881 -0.18906659 -0.2519392 0.21048006 -0.52569664 -0.7497906
0.117875926 -0.14237379 0.27925426 -0.5253358 -0.050575174 -0.36104867 0.83323884 -0.62918836
-0.8203024 -0.49597368 0.64529896 -0.95259804 0.0444518 0.23429641 0.009494712 -0.8438289
0.23542762 -2.7015386 0.5240114 0.03751684 0.77290165 -0.3049267 0.09307466 -0.6838846
0.2499317 0.24640541 -0.8784466 0.009715375 0.76499766 -1.7447854 -1.1276951 -0.8084165
-0.5401198 0.6891996 0.96998674 -0.69126004 -1.8715554 -0.86126363 0.30739906 -0.33991063
-0.06300017 -0.41361248 -1.2488424 -0.9854171 0.6603931 1.1961011 -0.010392801 1.0060712
-0.48754093 0.42065623 0.028248813 -0.7185226 -0.25321063 -1.3029706 -0.76732665 0.5506326
-0.46664524 -0.52303755 -1.0249448 0.24497974 0.07753157 0.19470556 -0.019541483 -0.43234587
0.098979644 -1.0559165 0.83540773 0.28012744 0.045762513 -0.60352886 -0.07294906 0.95502216
-0.46988037 0.12534386 0.002763378 -0.18760964 -0.9647389 0.25777468 0.64521754 0.64466274
0.0026117987 -1.4424305 -2.273666 -0.31188217 0.2836187 0.3263879 -0.029146258 -0.6436783
-0.230128 -0.28956297 -0.06044928 0.24128905 0.6542845 0.029129349 -1.8234826 0.092975006
0.36043495 -0.022928925 -0.5299944 -0.12027864 -0.13733277 -1.059161 1.0581937 0.24909273
-0.16200078 -0.66818655 0.43096745 -0.12336784 0.38645396 -0.22670047 1.5723013 0.11379433
0.40578008 0.35552466 0.008535804 -0.32450268 0.3704 -0.37903386 -0.5287122 -0.30211103
0.66158926 0.8992103 -1.6031312 0.7286205 0.4894349 0.3993748 -0.059793685 -0.97898674
0.5865805 0.73352987 0.59133303 0.5693823 -1.2599081 -0.3036951 0.1904727 -1.4208643
-1.2898833 -0.049653232 1.8028722 0.4720719 0.52029496 0.59192324 -0.2899097 0.8531473
0.102178656 0.1480038 0.072727315 -0.30947813 -0.45192528 -1.2605053 -0.3551839 0.43244743
-0.4697637 -0.91900694 -1.4884083 -1.2356479 0.88282907 0.8850568 0.384783 -0.03237986
-0.40282905 -1.360168 -0.61256754 -0.14060934 0.48553157 -0.6923875 -0.2874727 0.5229671

dijetResNetBlock.reinforce2.conv.module.bias f4 [8]
00000000: 32f2 f0be 8346 8f3f 603f 0d40 79c9 c33e
00000010: 57e2 acbd 61ee 28be b0c8 c53f 3bea 913f
-0.4705978 1.1193393 2.206993 0.3823965 -0.084416084 -0.16497184 1.545187 1.1399606

dijetResNetBlock.multijetAttention.attention.k_linear.module.weight f4 [8, 5, 1]
00000000: ce66 a5bd 7fdb 933f 89f9 423e ce1d f9be
00000010: c7c2 c43f 06fc 073f 6475 ffbd 2e15 01bf
00000020: 2f4e 083f e441 1a3e 39a2 873f 500d b33f
00000030: 748a 1440 dbfc 943d 6d58 623e b766 c2bf
00000040: 3b28 d5be 99ff 973f 910a d5bf 6ffe 533e
00000050: 880e ae3e 3a86 3c3f 0c2d bebf e3ff 1d3f
00000060: d77b 2840 ca1f 803f 490a febd 551a fe3e
00000070: 7103 0bbf a43a 343f b4c1 863e 7296 38bf
00000080: 9bb9 213e b303 e3be 6a1e d23f 21ce eb3d
00000090: 53f3 5f3f 72a7 ca3f f2f7 b2bf 545d 4fbe
-0.08076249 1.155136 0.19040503 -0.48655552 1.5371941 0.5311893 -0.12473562 -0.5042294
0.532443 0.15064198 1.0596381 1.3988438 2.3209505 0.07274791 0.22104044 -1.5187596
-0.41632256 1.1874877 -1.664385 0.20702527 0.3399546 0.73642313 -1.4857497 0.6171858
2.6325586 1.0009701 -0.124043055 0.49629465 -0.54302126 0.7040198 0.2631966 -0.7210456
0.15793459 -0.4433876 1.6415532 0.11513925 0.8748066 1.583235 -1.3981917 -0.20250446

dijetResNetBlock.multijetAttention.attention.k_linear.module.bias f4 [8]
00000000: 166c 383f e2a2 a63f 83c3 a23e bec5 42bf
00000010: c157 533d 7242 92be 95d9 25bf d7b8 52bc
0.72039926 1.3018458 0.3178979 -0.7608298 0.05159736 -0.2856632 -0.6478513 -0.012861452

dijetResNetBlock.multijetAttention.attention.v_linear.module.weight f4 [8, 5, 1]
00000000: f5df 853f 055c 29bf 28e4 9abe 659e 033f
00000010: e83d 903f df10 06c0 8f8a 7f3c e3b3 e3be
00000020: b867 8b3f 66b3 853f 627d f3be 28d1 aebf
00000030: 85ca c0bf 1c7d 2b3f 4537 91bf 32db 0d3f
00000040: 8443 733f ef04 e6bf 2a51 03bf accf 533f
00000050: e088 8bbf 24da 0740 41cc a3be 62bd b63f
00000060: f576 0a3e f897 21bf 4ad1 853e c726 8c3f
00000070: a5a1 133f 8c78 2e3f fb92 373f 1bfd 4a3f
00000080: b9b6 2a3f f5a0 f2be ca4b 66be ad19 7f3d
00000090: b57c 34bf 09c1 c1bf 3198 083f bd3d 0fbe
1.0458971 -0.66156036 -0.30252194 0.51413566 1.1268892 -2.0947797 0.015597 -0.4447318
1.0891027 1.0445373 -0.47556597 -1.365758 -1.5061804 0.66987777 -1.1344992 0.5541259
0.95024896 -1.7970256 -0.5129572 0.8273876 -1.0901146 2.1226892 -0.3199177 1.4276545
0.13521941 -0.6312251 0.26136237 1.0949334 0.57668525 0.6815269 0.7170865 0.7929246
0.6668506 -0.47388425 -0.22489849 0.062280346 -0.7050279 -1.5137035 0.53357226 -0.13988395

dijetResNetBlock.multijetAttention.attention.v_linear.module.bias f4 [8]
00000000: ba15 e4be d51f b83e ecb4 77be 0069 79bf
00000010: da00 7bbf 88a5 133e 14a9 dc3f b6dc 96bf
-0.44547826 0.35961786 -0.2419011 -0.9742584 -0.98048174 0.14418614 1.7239099 -1.1786106

dijetEmbed2.module.weight f4 [8, 8, 1]
00000000: 820e e6be d093 24bf bb27 403e 4afd 3ebe
00000010: f1c6 b43d 6592 273f c5d9 eabe 6a63 b2bf
00000020: 2d77 b23f 2ae9 0140 4d32 a03e 94eb 39bf
00000030: 21f8 8cbb a18b 1c3f 0830 013e 49f9 bb3e
00000040: a35f d73e f4d3 563f 12b3 a13e a2ae 4c3e
00000050: 9a3c 22bf 0f41 2ebe c77b 07bf 1f29 bfbe
00000060: 90f6 2c3e b667 53be 28ce 2f3f 1f50 ac3d
00000070: c462 583f c09e a2bd 0805 89bf 768e ba3e
00000080: b806 2a3e 1013 0c3f 7e85 adbf 087f 633f
00000090: 9b7b 88be 7eec c43e e79c e13e 12e2 17be
000000a0: 95be 2f3f b1a6 983f c422 463e c32c 433f
000000b0: 3e97 95be 9cd7 4b3f e93a 703e b964 4a3f
000000c0: 5d93 163f ab38 b9bd 1ac5 bbbf 1c40 ddbf
000000d0: c4fd ac3f a470 1dbf 513b b7be a01b d9bd
000000e0: 7d06 b93e d6a4 103f d453 ab3e 7f12 3abe
000000f0: 885d c2be 8853 4c3f 226b d03e 21d8 233f
-0.44932944 -0.64288044 0.18765156 -0.1865131 0.088270076 0.65457755 -0.4586927 -1.3936589
1.394262 2.0298562 0.31288376 -0.7262509 -0.00430204 0.61150557 0.12615979 0.36713627
0.42065153 0.83917165 0.31581932 0.19988492 -0.6337372 -0.17017005 -0.52923244 -0.3733606
0.16890931 -0.20645031 0.68673944 0.084137194 0.84525704 -0.079404354 -1.070466 0.36436814
0.16604125 0.5471659 -1.3556364 0.8886571 -0.26656803 0.3846168 0.4406502 -0.14832333
0.6865018 1.192587 0.193492 0.76240176 -0.2921695 0.7962587 0.23459972 0.7905994
0.5881861 -0.09044012 -1.4669526 -1.728519 1.3514943 -0.615 -0.35787442 -0.10600972
0.36137763 0.5650152 0.33462393 -0.18171118 -0.37961984 0.7981496 0.40706736 0.6400166

dijetEmbed2.module.bias f4 [8]
00000000: 5580 7b3d 3043 873f e491 4d3f 6766 c2be
00000010: 5088 01bf ee94 bdbd 432c 103d f402 f03f
0.061401684 1.0567379 0.80300736 -0.37968752 -0.5059862 -0.09256922 0.03519846 1.8750901

quadjetGBN.gamma f4 [6]
00000000: 63b3 253f 313e f23e b12b b83f 692d c73f
00000010: 08ff 8f3f 762f 993f
0.6472685 0.47313073 1.4388334 1.5560733 1.1249704 1.1967609

quadjetGBN.bias f4 [6]
00000000: fceb 063e 90ae 153f 5601 593e 0453 743e
00000010: 65cd 76be 6897 d7be
0.13175958 0.58469486 0.21191916 0.23859793 -0.2410179 -0.421077

quadjetGBN.m f4 [1, 6, 1]
00000000: 3712 2a40 2b30 f543 e704 4c40 f0b7 7f3f
00000010: fec4 a240 5b1e fc44
2.6573617 490.3763 3.1877992 0.9989004 5.086547 2016.9486

quadjetGBN.s f4 [1, 6, 1]
00000000: fa0a 563f 0459 2943 14a7 4b40 9ddd 4e40
00000010: 2313 8c3f df14 633f
0.836105 169.34772 3.1820726 3.2322762 1.094334 0.8870372

quadjetEmbed.module.weight f4 [8, 6, 1]
00000000: 1ff0 8f3f 2cf6 8fbd 1c10 1c3e 12cc 48bd
00000010: 5413 a0bf 13f6 3d3e daf7 47be 55e4 da3e
00000020: 4da3 1a3e 0096 1e3e 4e5d 263f c07f fb3f
00000030: f6a6 933e 4bc4 aebe db8f 36bf 15ac 5abf
00000040: b697 1e3f e0da 22bf e185 de3e 6c52 4dbe
00000050: 7d36 f13e bc9d f8bf 22d2 9abc 5363 a4be
00000060: 509e 4d3d 8e10 6dbd e5c3 e5bf c781 c9be
00000070: 42ac 2a3f 205e ddbd 2c71 9c3e 4e42 5abe
00000080: bbd2 7f3e 77c3 443f 927e b8bc 65c2 9bbf
00000090: 769b 3e3c 9ffb 433f f079 54bf c85a b03d
000000a0: 47c5 54bf 6308 983e d24e 783f 003f 9d3f
000000b0: 2daf 213e aacb 35bd 6a8b 303f 67cd b8be
1.1245154 -0.070293754 0.1524052 -0.04902274 -1.2505898 0.18550901 -0.19528142 0.4275233
0.15101357 0.15486908 0.6498612 1.9648361 0.2883832 -0.34134135 -0.71313256 -0.85418826
0.6195024 -0.63615227 0.43461516 -0.20050973 0.47111884 -1.9423137 -0.018899027 -0.32107028
0.050199807 -0.057877116 -1.7950407 -0.39356825 0.66669095 -0.108089685 0.30555093 -0.21314356
0.24982731 0.76860756 -0.02252129 -1.21687 0.011633744 0.7655582 -0.8299856 0.08611065
-0.8311352 0.296939 0.9699527 1.2284851 0.1578948 -0.044383682 0.6896273 -0.3609421

quadjetEmbed.module.bias f4 [8]
00000000: 90be 7abd bd3d 60be a516 56be 0bd5 77bd
00000010: c190 e0be a75f ca3e 99e6 923f a32a 783f
-0.06121689 -0.21898551 -0.20907076 -0.060505908 -0.43860438 0.39526102 1.1476623 0.9694006

quadjetResNetBlock.reinforce1.sym.weight f4 [8, 1, 2]
00000000: 0000 003f 0000 003f 0000 003f 0000 003f
00000010: 0000 003f 0000 003f 0000 003f 0000 003f
00000020: 0000 003f 0000 003f 0000 003f 0000 003f
00000030: 0000 003f 0000 003f 0000 003f 0000 003f
0.5 0.5 0.5 0.5 0.5 0.5 0.5 0.5
0.5 0.5 0.5 0.5 0.5 0.5 0.5 0.5

quadjetResNetBlock.reinforce1.antisym.weight f4 [8, 1, 2]
00000000: 0000 003f 0000 00bf 0000 003f 0000 00bf
00000010: 0000 003f 0000 00bf 0000 003f 0000 00bf
00000020: 0000 003f 0000 00bf 0000 003f 0000 00bf
00000030: 0000 003f 0000 00bf 0000 003f 0000 00bf
0.5 -0.5 0.5 -0.5 0.5 -0.5 0.5 -0.5
0.5 -0.5 0.5 -0.5 0.5 -0.5 0.5 -0.5

quadjetResNetBlock.reinforce1.conv.module.weight f4 [8, 8, 3]
00000000: 4e3d 33be f42b dabe de38 ebbf a166 08bf
00000010: ae72 253f 50a9 83bf e384 5c3e aa18 223d
00000020: 3fea 3bbf b7a0 26bf 0729 653e d62c fbbc
00000030: f6b0 5abf bae4 bebd 598b 203f d8ae 15bf
00000040: 6978 d6be 75fe 8abe 77cb 883f a083 933f
00000050: 1d81 d2bc 42eb 1cbf d5d9 963f cd83 98bf
00000060: 47b5 e2be 70d7 50be a3ba e6bf 0e07 833d
00000070: c1a8 383e 4b90 8bbf 859a 2dbf 8779 f23e
00000080: 9829 9ebf 405d 69bf 4d5c 0cbf cf1e 6cbf
00000090: 8963 84bf 839f 2f3f ddd1 7fbf 3076 e0bd
000000a0: ac2d 9c3e 8aec 68bf 3099 71be e9f0 d1bd
000000b0: b0f0 c43f c12d 283d 018d 05bf 64ea 463f
000000c0: 965f 91be 41e0 babe 4d64 c73e 9433 8bbf
000000d0: a311 98be 0aba 3ebf fa08 d1bd ab44 c83e
000000e0: 69cd 88bf f25d b73e 38db 0fbf eaee 23c0
000000f0: d688 febe 18d1 c63e ed71 a4be ed43 ff3e
00000100: d236 cc3e 1c95 2ac0 1200 82bf 719d 63bf
00000110: 6fe6 853e c0fe 29be 5ebc e9be f227 783f
00000120: 137d 95be a0d0 81bd b49d 603f 7aa3 c23c
00000130: 1488 e13d 72e7 813f 9687 033c b41a 983f
00000140: d93a 7a3f b861 ab3c 8c32 00bf 1919 b7bf
00000150: 136c 5d3e 31ac 293f 3aac 8cbf adbb 503f
00000160: 8e92 933e a005 1b3f db50 39bf 8b66 4dbf
00000170: 722a 2ebf 84d4 64be 76fb 9ebf 620a 8cbe
00000180: e198 91be 0671 82bd 9ee6 0e40 a328 f03d
00000190: 6adc 103f 9e70 17be 62b4 c13e bd5e 3b3d
000001a0: 30a6 193f 32d9 14be f0e3 c1be a343 a53f
000001b0: abde 843e bfd5 8bbe 9be8 003f 2a5c 543e
000001c0: 80cd 083e 0dfa d33f 70f4 c8be 915e 34bf
000001d0: 71fe 1c40 2973 d13e f66c 3fbf 2c18 bcbf
000001e0: 86e2 5d3f b3b3 3cbe d352 0040 7755 6e3c
000001f0: d8a8 1abf dd78 e33f 18ca 203f d0b9 4ebd
00000200: 5e7f 863d a983 b53e fe2d 153e 3573 093f
00000210: 83d6 2a3f 0738 813e 1e33 bfbf 6811 8d3f
00000220: 8fc4 b43d cc48 24bf f692 84bf e886 9ebf
00000230: f39e 123e 6197 52be a159 91bd 97a8 1dbf
00000240: 7a99 933f 035b fc3e 8620 8e3f fee6 bc3d
00000250: e01c 19be 2ab9 423f a48f c73d 4e13 c73f
00000260: ee5e ea3d 8e1b 8f3e 6912 50bf 860e a93f
00000270: c8fc d5bb 9166 e23e 85f6 85be 9c40 993f
00000280: caac 723f d252 0240 ba04 87be 87a5 e8bd
00000290: 4c50 0dbf 7eaf 21bf ef50 f63e eaaa 20bf
000002a0: 3435 65bf f25e d6be 9e8e a2be 2497 23bf
000002b0: d5f7 583e c296 ccbe ecfd 7b3e 52b2 f23f
000002c0: 1f88 72be 7586 a2be b176 3f3e 15bc 66bf
000002d0: c14a d2be e3f2 813f 83ad 43bf b22e fe3d
000002e0: b838 833f b048 c8bd 8e42 2f3f 348c 8d3f
000002f0: f277 1dbf 2fcc 9b3e 822b a4bf 5063 69bf
-0.17503855 -0.4261166 -1.837673 -0.532816 0.6462811 -1.0286045 0.21535067 0.039574303
-0.73404306 -0.6508898 0.22378932 -0.030661028 -0.8542627 -0.0932097 0.6271263 -0.58469915
-0.4188874 -0.2714726 1.0687093 1.1524544 -0.025696332 -0.61296475 1.1785227 -1.1915222
-0.4427893 -0.20394683 -1.8025707 0.0639783 0.18033125 -1.090341 -0.67813903 0.47358343
-1.2356443 -0.91157913 -0.5482834 -0.9223451 -1.0342876 0.6860277 -0.999296 -0.109600425
0.30503595 -0.9098593 -0.23593593 -0.10251028 1.5385952 0.04105926 -0.5216828 0.777014
-0.2839324 -0.36499217 0.3894371 -1.0875115 -0.29700956 -0.74502623 -0.1020679 0.3911489
-1.0687686 0.35813862 -0.56193876 -2.5614572 -0.49713773 0.388314 -0.32118168 0.4985651
0.39885575 -2.665351 -1.0156271 -0.8891211 0.2615237 -0.16601086 -0.45651525 0.9693595
-0.29196987 -0.0633862 0.87740636 0.023759592 0.11012283 1.0148757 0.008027932 1.1883149
0.97746044 0.02092062 -0.5007713 -1.4304534 0.21623258 0.6627837 -1.0990059 0.8153637
0.2882275 0.6055546 -0.72389 -0.80234593 -0.68033516 -0.22346693 -1.242049 -0.2735167
-0.2843695 -0.06369214 2.2328258 0.11726501 0.56586325 -0.14789054 0.37832934 0.045744646
0.60019207 -0.14535978 -0.37869215 1.2911266 0.25951132 -0.27311513 0.5035493 0.20738283
0.13359642 1.6560684 -0.3924899 -0.70456797 2.4530299 0.40908173 -0.74775636 -1.4694877
0.8667377 -0.18427925 2.0050552 0.014546744 -0.60413885 1.777126 0.6280837 -0.050470173
0.06567262 0.3545201 0.14568326 0.53691417 0.6673357 0.25238058 -1.4937475 1.1020937
0.08826553 -0.6417358 -1.0357349 -1.238492 0.14318447 -0.20565559 -0.070971735 -0.6158537
1.1531212 0.49288186 1.1103675 0.09223746 -0.14952421 0.7606379 0.09744194 1.5552766
0.11443888 0.2795071 -0.8127809 1.3207557 -0.006530378 0.44218877 -0.26164642 1.1972842
0.94794905 2.036305 -0.26370794 -0.11359697 -0.5520065 -0.63158405 0.48108622 -0.62760794
-0.89534307 -0.41869313 -0.31749433 -0.639025 0.2118829 -0.3995877 0.24608582 1.8960669
-0.23684739 -0.31743208 0.18697621 -0.9013074 -0.41072658 1.0152248 -0.7643663 0.1241125
1.0251684 -0.09779489 0.6846093 1.1058412 -0.6151115 0.30429217 -1.2825778 -0.91167164

quadjetResNetBlock.reinforce1.conv.batchNorm.gamma f4 [8]
00000000: 6da8 5040 23ed 803f 392a fc3f 3f8f c03f
00000010: 32cf ab3f f2db 1440 9050 8d3f f44f d03f
3.26028 1.0072368 1.9700385 1.5043715 1.3422606 2.3259244 1.1040211 1.62744

quadjetResNetBlock.reinforce1.conv.batchNorm.bias f4 [8]
00000000: 4ec3 96be f3f1 61bf 18f8 f3be d067 a23d
00000010: b5aa d8bf abd7 0fbe 4555 b63e 36b6 18bf
-0.2944588 -0.8825981 -0.47650218 0.07929957 -1.6927096 -0.14047115 0.3561193 -0.5965303

quadjetResNetBlock.reinforce1.conv.batchNorm.m f4 [1, 8, 1]
00000000: 8415 c3c1 02bb ecc0 85e4 e7c0 21be d540
00000010: a20a 8741 591a 8241 4aa3 7e41 0c1b f73f
-24.385506 -7.397828 -7.2466455 6.679459 16.880192 16.262865 15.9148655 1.9305129

quadjetResNetBlock.reinforce1.conv.batchNorm.s f4 [1, 8, 1]
00000000: 1145 d140 ae58 a540 f330 b540 dc21 9740
00000010: a296 d540 5490 c840 419d df40 5c7c 8840
6.539681 5.167075 5.6622252 4.722883 6.674638 6.267618 6.987946 4.2651806

quadjetResNetBlock.convD.module.weight f4 [8, 8, 1]
00000000: 438e dbbf 9d5c bebf b2f4 163e 2035 853f
00000010: c06e ff3e 544c bcbe 33e8 eebe ce68 6fbe
00000020: 28a6 82bf 425e 4b3f 5971 efbd 28b1 5d3f
00000030: 700a 813e b7a4 2ebf 9170 49be a8b6 8d3f
00000040: ec8a 75be cc7a 013f af48 07bf e3c6 dcbe
00000050: 02df 8d3f 27c2 33bf d948 a93e e7cd ac3f
00000060: be62 bb3f 1d38 fc3c 29f6 d83d 3f2d f03f
00000070: d6a0 1bbf 1582 c03e 3c9c 9dbf 386f 433d
00000080: 42e4 49bf 1307 b2be fc02 59bf d94d 9c3f
00000090: 369a 223f e038 06bd 597d 433e 6061 a13f
000000a0: cabe 953e 7e6a 19bf bdd4 a53f 39cb dd3d
000000b0: e2c9 b93f 023e 4abe 914e c3be 82e2 803f
000000c0: c536 203f b695 9abf 991b 403f b85e a7be
000000d0: 1301 bcbf 2d19 13bf b0a1 38be 299a f1be
000000e0: bb18 02bf feb2 75bf 5cee a2bf af23 e1be
000000f0: be44 f7be d759 38bf 9c79 a5bf 0524 2f3d
-1.715279 -1.4872013 0.14741781 1.0406837 0.49889183 -0.36776984 -0.4666153 -0.23379824
-1.0206957 0.794407 -0.11691541 0.86598444 0.25203276 -0.68220085 -0.19671847 1.1071367
-0.23978776 0.50578 -0.5284528 -0.4312049 1.1083682 -0.7021813 0.3306339 1.3500336
1.4639509 0.030788476 0.10593826 1.8763808 -0.6079229 0.37599245 -1.2313304 0.04771349
-0.7886392 -0.34771022 -0.8477018 1.2211257 0.6351656 -0.032769084 0.19090785 1.2607841
0.29247123 -0.5992812 1.2955548 0.10829777 1.4514735 -0.19750217 -0.3814588 1.0069125
0.6258357 -1.2076938 0.7504211 -0.32689452 -1.4687828 -0.5746029 -0.18030429 -0.47187927
-0.50818986 -0.95976245 -1.2728992 -0.43972537 -0.48294634 -0.72012085 -1.2927737 0.04275896

quadjetResNetBlock.convD.batchNorm.gamma f4 [8]
00000000: 0f80 d03f 0e2b 423f a10b 123f a9cd 773f
00000010: 48a9 a73f a2c5 1d3f 31a8 9f3f a13b de3f
1.628908 0.75846946 0.57048994 0.9679819 1.3098536 0.6162969 1.2473203 1.7361947

quadjetResNetBlock.convD.batchNorm.bias f4 [8]
00000000: 6ecf 983e 2b92 d53f 96a9 98be bc00 86bf
00000010: 4175 df3d 1e81 933e dea1 1240 7606 363d
0.29845756 1.6685232 -0.29816884 -1.0468974 0.10911036 0.28809446 2.2911296 0.044439755

quadjetResNetBlock.convD.batchNorm.m f4 [1, 8, 1]
00000000: 5c22 73c1 c1cc 6641 a5e5 6441 bc02 1741
00000010: cd27 8f41 9acf 9341 7515 b0c1 91a8 aec1
-15.1958885 14.424989 14.306066 9.438168 17.894434 18.476368 -22.010477 -21.832308

quadjetResNetBlock.convD.batchNorm.s f4 [1, 8, 1]
00000000: f9ba 0441 276b dd40 da16 cb40 d91c d140
00000010: 9803 1b41 aa90 e640 4719 0141 f7dc f440
8.295648 6.91933 6.3465395 6.5347714 9.688377 7.205159 8.068671 7.6519732

quadjetResNetBlock.reinforce2.sym.weight f4 [8, 1, 2]
00000000: 0000 003f 0000 003f 0000 003f 0000 003f
00000010: 0000 003f 0000 003f 0000 003f 0000 003f
00000020: 0000 003f 0000 003f 0000 003f 0000 003f
00000030: 0000 003f 0000 003f 0000 003f 0000 003f
0.5 0.5 0.5 0.5 0.5 0.5 0.5 0.5
0.5 0.5 0.5 0.5 0.5 0.5 0.5 0.5

quadjetResNetBlock.reinforce2.antisym.weight f4 [8, 1, 2]
00000000: 0000 003f 0000 00bf 0000 003f 0000 00bf
00000010: 0000 003f 0000 00bf 0000 003f 0000 00bf
00000020: 0000 003f 0000 00bf 0000 003f 0000 00bf
00000030: 0000 003f 0000 00bf 0000 003f 0000 00bf
0.5 -0.5 0.5 -0.5 0.5 -0.5 0.5 -0.5
0.5 -0.5 0.5 -0.5 0.5 -0.5 0.5 -0.5

quadjetResNetBlock.reinforce2.conv.module.weight f4 [8, 8, 3]
00000000: a146 e33e 0848 4b3e cf90 483f 6ab7 9c3e
00000010: ab26 343f f74a cbbe 58f3 853f 120e f23e
00000020: 40a5 56bc 5e61 a2be 9ad8 873d c944 9fbe
00000030: ea4c f0be 2d68 bbbd 65e2 7dbe a2f1 45bd
00000040: 6378 cabd 7683 103f 66a0 9f3f 3087 ae3f
00000050: 6c8e 7f3e b3ae 3cbf 35b1 153f d015 53bf
00000060: c29b 5abf 2fe9 67be a090 99be d1b0 86bf
00000070: 7642 ae3f 4109 bdbe 01c3 833d 1747 1ebf
00000080: 5f5c 62bf 433d fe3d 2410 0abf 4721 ca3e
00000090: 07f3 ea3d 7fa4 92bd f5ec f63e 6e07 a03e
000000a0: cee6 ab3e 2a33 223f 7a44 2e3f 9c09 a63e
000000b0: d343 24bf 7089 b13f a909 3b3f 9fb5 86be
000000c0: d608 733f 23b7 683e 11eb 1ebf fc58 c53f
000000d0: fd43 f6bd 8f63 57bf 6a1c afbd e17c 68bf
000000e0: 5a6e debe b48d c53e 5d90 cb3f 32f7 18bf
000000f0: a206 3e3f 45c7 c6bf 9200 b8bf 06b2 6dbf
00000100: 42dc babf ec6f ccbe 489a 873e 0804 aabe
00000110: 9c55 dbbf 0ac5 173f 8172 14bd 782e a4bf
00000120: 625d 89bc 51bb 34be bd54 8bbe 6b31 2b3e
00000130: ae22 4fbe 3a72 8a3e 1b8f 193e 7f7d 01be
00000140: a515 913c 60b0 0dbd 9e15 3bbe 8eee 98be
00000150: c1e6 53be a01a 0ebf 8991 4fbe 8420 aabe
00000160: c112 dfbe 4a4a 97bd 73a8 0bbf d6db e6be
00000170: 6348 633d 8132 29be d782 93be 007e e9bc
00000180: 8ea8 d5bf fab5 cfbe ecc1 4d3f 53b0 ebbf
00000190: ab01 7ebf 236d b9be aef3 58bf 1af9 c23c
000001a0: 571c 3d3f fd1d 68be e161 713e b584 14bf
000001b0: 9211 5dbf 2df2 e7be 20c0 a8bf 28c5 2abf
000001c0: fe51 2c3f 64f7 54bf bd53 643f d8dd 853f
000001d0: 7033 27bf 1a8f cd3e 314f 8d3f 0a66 5ebe
000001e0: a0f9 153e 4702 903d 0d88 c1be b1c0 b73e
000001f0: cb64 f13f 34b7 063f 5233 8d3f e6a6 4d3e
00000200: 4845 7bbf 6bac 333e a826 9abc c0af 163f
00000210: f515 c0be 56db dcbe 8b5d 103f 802b c23e
00000220: 1c5b 45be 29c4 4a3f 56d5 373f 6f30 333f
00000230: 67e9 c93d 90be 793d 7ee8 1c3f 4c9a fabe
00000240: c523 7dbe 72ad 40bc 5469 a53f 1ad7 d0be
00000250: 5448 78bf b4b0 7ebe b496 473e 23a5 d4bd
00000260: 56d4 dc3f 5b9a 59bf a83c b53e 7274 d7be
00000270: 80c3 ac3e c7fc 28bf f16b 93bf 9222 f1be
00000280: 708a 713e a77c 6fbf 74a7 9f3f 27fb 213f
00000290: 2893 26bf 77bc 13be 7e0a b83f cb28 493d
000002a0: 656e 06bc 2cbc 01bd 65a0 4c3f 2ea2 09bf
000002b0: 0eba 8c3f b7f8 04bf c5a4 053f a71a 2a3f
000002c0: 9662 d33e d436 8f3a 0ef1 e9bd e400 d9be
000002d0: fbf3 32bf 5f02 a6be ce47 74bc f53e b43d
000002e0: 93de 2b3e de9e 413f 20de 943f 8f44 ca3f
000002f0: 5f82 06bd 0323 82bc 82aa 2f3f e8a7 ecbe
0.44389823 0.19851696 0.7834596 0.30608684 0.703715 -0.3970563 1.0464888 0.4727636
-0.013100922 -0.3171491 0.0663311 -0.31107166 -0.4693368 -0.09150729 -0.24793394 -0.048326142
-0.09886243 0.56450593 1.2470825 1.3635006 0.24956673 -0.7370407 0.5847352 -0.8245516
-0.8539392 -0.22647546 -0.29993153 -1.052271 1.3614032 -0.36921123 0.064336784 -0.61827224
-0.884222 0.124140285 -0.5393088 0.39478514 0.11472135 -0.071602814 0.4822766 0.31255668
0.33574528 0.6335932 0.68073237 0.32429206 -0.6416599 1.3870068 0.73061615 -0.2631044
0.9493536 0.22726111 -0.6207743 1.5417781 -0.120246865 -0.8413629 -0.085503414 -0.9081555
-0.43443567 0.38584673 1.5903431 -0.5975219 0.7422887 -1.5529562 -1.4375174 -0.9284977
-1.4598467 -0.3992914 0.26484895 -0.332062 -1.7135501 0.5928503 -0.036242012 -1.2826681
-0.016768161 -0.1764958 -0.27213088 0.1671807 -0.20228073 0.27040273 0.14995997 -0.12645529
0.017710516 -0.034592032 -0.18269965 -0.29869503 -0.20693494 -0.55509377 -0.20270361 -0.33227932
-0.43568996 -0.073872164 -0.5455391 -0.45089597 0.055488955 -0.16523172 -0.2881076 -0.028502464
-1.6692064 -0.40568525 0.80374026 -1.8413185 -0.99221295 -0.36216077 -0.84746826 0.023800422
0.7387137 -0.2266769 0.23572494 -0.58014995 -0.86354935 -0.45301953 -1.3183632 -0.66707087
0.6731261 -0.8318999 0.89190274 1.0458326 -0.6531286 0.4014824 1.1039792 -0.21718612
0.14646006 0.07031684 -0.3779911 0.358892 1.8858885 0.52623296 1.1031287 0.20083198
-0.9815259 0.17546241 -0.01881726 0.58861923 -0.37516752 -0.4313609 0.56392735 0.37923813
-0.19273037 0.79205567 0.718099 0.6999578 0.09858971 0.06097275 0.61292255 -0.48945844
-0.24720676 -0.011760103 1.2922769 -0.4078911 -0.96985364 -0.24872094 0.19491082 -0.1038306
1.72523 -0.8500115 0.3539784 -0.42081028 0.33742905 -0.6601071 -1.1517316 -0.47096688
0.23587966 -0.9354958 1.2472978 0.63273853 -0.6506829 -0.14427362 1.4378202 0.04911117
-0.008205031 -0.031673595 0.7993224 -0.5376309 1.0994279 -0.5194201 0.52204543 0.6644692
0.41286153 0.0010926374 -0.11422931 -0.42383492 -0.69903535 -0.32423684 -0.014909698 0.088010706
0.16784124 0.7563304 1.1630287 1.5802172 -0.032839175 -0.015885836 0.6861955 -0.46221852

quadjetResNetBlock.reinforce2.conv.module.bias f4 [8]
00000000: 1746 783e 8583 543f d138 0a3f 3a88 cebd
00000010: 608a 9f3f 5312 f03c 5984 ce3f c5a3 293f
0.24245487 0.8301318 0.53992945 -0.10084577 1.2464104 0.029305613 1.6134139 0.6626552

eventConv1.module.weight f4 [8, 8, 1]
00000000: 34e8 ecbe da47 80bd 928a 82ba dc83 703e
00000010: c6ba 16bf 3499 72be 99f6 bbbf c121 54bf
00000020: 24c4 93bf 7e52 ffbd 5925 8a3e cf1e 83be
00000030: 8ef2 083e 1b0e 59bf 7924 a6be af40 6abf
00000040: 5480 943e 561c fe3d aa4b 213e 7947 a73c
00000050: 6598 713e 1d09 253f 90ab 2c3d 86f6 303f
00000060: 0001 a8bd e9b5 d9bd fada eb3d 7bd0 d53d
00000070: d510 a53d e110 d93d afe7 2e3e 630c e93e
00000080: 7df0 b9bf 257e 4bbe b102 b6bd 81f5 b4be
00000090: f3fe acbe 1dba 60bf e350 adbe 78bf ebbe
000000a0: 910d 0fbf 70c6 54be b588 2fbd ea15 9a3d
000000b0: f299 c6be 28f7 99be 4f5d d3bf b324 3ebf
000000c0: 72b2 bcbe 6a90 69be ceff b7bd 5b64 39be
000000d0: c9b7 6abf a155 593e 71c8 b4bf 56d4 abbf
000000e0: 6d76 fdbe 7e5a 65be 08c9 95be 103f 133e
000000f0: c9f0 6fbe 5f75 edbc 9c8b a2bf 5d04 abbf
-0.46270907 -0.062637046 -0.000995951 0.234878 -0.58878744 -0.23691255 -1.4684631 -0.82864004
-1.1544232 -0.12466906 0.2698162 -0.25609443 0.13373777 -0.8478715 -0.324497 -0.9150495
0.29004157 0.124077484 0.1575152 0.020419823 0.2359329 0.6446703 0.042155802 0.69126165
-0.08203316 -0.106304 0.11516376 0.10440155 0.08059851 0.105989225 0.17080568 0.45517263
-1.4526516 -0.19872339 -0.08887232 -0.35343555 -0.3378826 -0.87783986 -0.33850774 -0.46044517
-0.55880076 -0.20778823 -0.042854983 0.07523711 -0.38789326 -0.30071378 -1.651285 -0.7427475
-0.36854893 -0.22808996 -0.08984338 -0.18104689 -0.91686684 0.21224071 -1.412367 -1.3424175
-0.49504414 -0.22397801 -0.29254937 0.14379525 -0.23431696 -0.028986631 -1.2698855 -1.3360707

eventConv1.batchNorm.gamma f4 [8]
00000000: 3afb 0c40 b8d6 813f f89a 763e fd71 723f
00000010: 0763 bc3f 23ae 1040 5210 fc3f dbc7 fa3f
2.2028337 1.0143652 0.24082553 0.9470518 1.4717721 2.2606285 1.969248 1.9592241

eventConv1.batchNorm.bias f4 [8]
00000000: 7958 723e c440 8c3f 76a8 abbe 4bf6 9cbd
00000010: 1c6e 1abe 2e5f c33e 24a2 e33f a554 2e3f
0.23666562 1.0957265 -0.33526963 -0.07664164 -0.15081066 0.38158554 1.7783856 0.6809791

eventConv1.batchNorm.m f4 [1, 8, 1]
00000000: 8e35 83c2 f09e 96c2 4508 2d42 d108 6241
00000010: 83bb 98c2 060f 8fc2 4cb8 8ac2 f078 91c2
-65.6046 -75.310425 43.258076 14.127152 -76.366234 -71.52934 -69.359955 -72.736206

eventConv1.batchNorm.s f4 [1, 8, 1]
00000000: 5d87 7441 f495 5541 8a4d e040 eb75 2e40
00000010: 89f2 5541 f8ba 7f41 a295 8d41 712f 7141
15.283048 13.34911 7.009465 2.7259471 13.371713 15.983147 17.698063 15.074082

eventConv2.module.weight f4 [8, 8, 1]
00000000: 77ef 323f 3ce0 dcbe 2887 78bf 97cc ecbd
00000010: db01 8d3e 4c91 3f3d 6b3f e63e c471 6d3f
00000020: ad2b e43e 166a 25be 1816 58bf af40 44bc
00000030: 1e93 1abf 6d58 983f ba01 b53e a8b5 863f
00000040: afe0 383f 5597 b1bd b80c 1cbd fea9 93be
00000050: eb9c 09bf b9de 033e a16e 8e3f bdea 76bd
00000060: dae8 cbbe d023 38be a0cb 773e 5205 533c
00000070: e7d7 44be 0383 193e 7a1a 6dbe 6b78 34bd
00000080: 35d8 cbbd 5ba2 fe3e 2ea0 f93c c29f 27be
00000090: b434 c13f e56c 7bbd 95e5 cd3f 4aef f03e
000000a0: 1531 31bd aa0d 3f3f a26d f13e e44b 79bc
000000b0: 25a2 b83d 5270 d13e 3e14 0bbf 461b 413e
000000c0: ce03 a7be 410c a1be ae60 eebe 5b02 2c3e
000000d0: 7dc5 d63e 9047 41bf 979d 14bf 7983 10bf
000000e0: 4105 223e 9969 fa3e 8ea5 c13b 93d0 683e
000000f0: b7ca 7e3f bab3 083e e521 3abf 3589 7cbe
0.69896644 -0.43139827 -0.9708123 -0.1156246 0.27540478 0.046769425 0.4497026 0.9275172
0.44564572 -0.1615375 -0.8440871 -0.011978312 -0.60380733 1.1901985 0.3535288 1.0524187
0.7221784 -0.086714424 -0.038098067 -0.2884063 -0.5375506 0.1287793 1.1127511 -0.060282458
-0.3982609 -0.17982411 0.2419877 0.012879686 -0.19222985 0.14991383 -0.23154631 -0.044060152
-0.099533476 0.49733242 0.030471887 -0.16369537 1.5094209 -0.061383147 1.6085688 0.47057563
-0.0432597 0.74630225 0.47153956 -0.015215848 0.090153016 0.40906006 -0.5432776 0.1885806
-0.3262009 -0.3145466 -0.46558136 0.16797774 0.41947547 -0.7549982 -0.58052963 -0.5645061
0.15822317 0.4890869 0.0059096282 0.22735815 0.9952807 0.1334981 -0.7270797 -0.24661715

eventConv2.module.bias f4 [8]
00000000: 6b7d 23bd 8ed4 e53e c8cf 2e3f 3259 af3d
00000010: db06 a73f d182 83be a6d6 4ebe 6a61 c53e
-0.03991453 0.4488873 0.682858 0.085619345 1.3048967 -0.25685742 -0.2019907 0.38550884

select_q.module.weight f4 [1, 8, 1]
00000000: c8cb 103f 23d3 9fbe 09f9 05c0 d469 9abe
00000010: fc84 683c 3c33 3bbf 0ac8 aa3d 3342 8f3d
0.56560946 -0.31215772 -2.093325 -0.30158865 0.014191862 -0.7312505 0.08338936 0.069950484

out.module.weight f4 [4, 8, 1]
00000000: b466 25bf ccdb 263e 90fc 25be 7e52 473e
00000010: 4ab6 a9bf e2f5 6ebe 3a5e 60bf 230c 70bf
00000020: ae19 c73f 5289 aa3f 7a83 0a3f 38d4 94be
00000030: 4ee2 9bbd d489 963c bafa cebd c5be 643d
00000040: 8c46 81bf 169b e03d b9ec 3a3e 3968 a63d
00000050: 7922 bf3f 7be4 48be 37d2 c6bd f0fa dabe
00000060: 839d 2f3e 21cc 59bf dbf8 753f 14d7 893d
00000070: e2f8 8a3f 34c1 a0bf 2a60 ff3d 9c89 25bf
-0.6460984 0.16294783 -0.16209626 0.19465062 -1.3258755 -0.23335984 -0.8764378 -0.9376852
1.5554712 1.3323157 0.5410687 -0.2906816 -0.076115236 0.018376268 -0.10106416 0.055845995
-1.0099654 0.1096708 0.18254365 0.08125348 1.4932395 -0.19618408 -0.09708064 -0.42769575
0.1714993 -0.850771 0.9608285 0.06730476 1.0857203 -1.2558961 0.12469514 -0.646631

out.batchNorm.gamma f4 [4]
00000000: c770 b63e 5b1b 943e bcfb a43f 7343 b03f
0.35632917 0.2892712 1.2889323 1.3770584

out.batchNorm.bias f4 [4]
00000000: e2c0 a53f 6963 c13f 469d 17c0 4fb7 96bf
1.2949488 1.5108463 -2.3689742 -1.1774691

out.batchNorm.m f4 [1, 4, 1]
00000000: bc80 09c3 aa4c 5d43 2155 3241 2fa0 e5c1
-137.50287 221.29947 11.145783 -28.703215

out.batchNorm.s f4 [1, 4, 1]
00000000: 11e2 ff41 6d4a ec41 de1a fe41 bfd9 1e42
31.985384 29.53634 31.763119 39.712643

exp_avg f4 [8, 4, 1]
00000000: 13be 9137 e39f 4c37 e50f 7136 8f03 bb37
00000010: 06a2 5bb7 74de e236 9a76 8f36 a56e f7b7
00000020: 0312 0d37 477b fcb6 4f17 eb36 dad4 5cb7
00000030: 8eab d8b7 91f6 aab7 631d e7b6 bf37 2cb8
00000040: d41f 3e37 3c0b 4037 4f4e 3036 c6f9 30b7
00000050: 582a 5537 50ae b835 d2f3 fdb5 42c9 6cb5
00000060: 1126 a7b7 5386 b237 1186 f436 cadd 34b8
00000070: 0f7c 4eb8 6a9e 58b7 8331 0736 3131 68b8
1.7373857e-05 1.2196574e-05 3.592105e-06 2.2293794e-05 -1.3091141e-05 6.761222e-06 4.275539e-06 -2.9496217e-05
8.408449e-06 -7.5245366e-06 7.0062592e-06 -1.316258e-05 -2.5829093e-05 -2.0380396e-05 -6.8877575e-06 -4.1059913e-05
1.1332293e-05 1.14467075e-05 2.6271625e-06 -1.0548572e-05 1.2705648e-05 1.37598e-06 -1.892093e-06 -8.820972e-07
-1.9925677e-05 2.1281803e-05 7.287374e-06 -4.31219e-05 -4.9229766e-05 -1.2911487e-05 2.0145387e-06 -5.5358923e-05

exp_avg_sq f4 [8, 4, 1]
00000000: 974c 0934 78a8 1e33 f3a5 3d31 b13c 2934
00000010: e3a8 a233 cfcf 4133 d9e9 f531 5045 1f34
00000020: 547d 9333 d260 4d33 ad95 a431 ec9d 6333
00000030: 411c 2234 11d9 c233 1dac 0732 90df 0634
00000040: b605 6c33 e2ac e232 5da8 6631 1661 5133
00000050: 9108 d032 6a36 f831 5f66 9530 8b04 8632
00000060: 5230 ad33 064c 9e33 c26f 9a31 70e2 0934
00000070: 240d 1e35 21e7 df33 987b a232 6bf3 1535
1.2786982e-07 3.6940463e-08 2.759745e-09 1.5761431e-07 7.574433e-08 4.5125315e-08 7.157024e-09 1.4833245e-07
6.868018e-08 4.781834e-08 4.7900444e-09 5.2996185e-08 1.5097704e-07 9.073313e-08 7.897168e-09 1.2561054e-07
5.4953226e-08 2.638848e-08 3.3565108e-09 4.8749904e-08 2.4218282e-08 7.223936e-09 1.0870272e-09 1.5601719e-08
8.06473e-08 7.371277e-08 4.4946953e-09 1.2841497e-07 5.887871e-07 1.0426289e-07 1.8915486e-08 5.5861045e-07

exp_avg f4 [8]
00000000: 64a5 d535 8c61 8837 3ea0 30b5 af88 ef34
00000010: bdeb b2b6 a219 aab7 25df 72b7 99d6 a336
1.5917872e-06 1.6257887e-05 -6.579829e-07 4.461667e-07 -5.332257e-06 -2.0277515e-05 -1.4476279e-05 4.882761e-06

exp_avg_sq f4 [8]
00000000: 7afd 9932 7a53 7a33 ad05 9133 db6d 7f33
00000010: 6f2d a333 2e1d b432 be5e db32 a9e2 1433
1.7926812e-08 5.8283582e-08 6.753121e-08 5.9471727e-08 7.598543e-08 2.0968027e-08 2.553804e-08 3.466508e-08

exp_avg f4 [2]
00000000: 2eb1 26b8 a857 6c38
-3.9742496e-05 5.634842e-05

exp_avg_sq f4 [2]
00000000: 9978 8634 4168 0135
2.504719e-07 4.8207954e-07

exp_avg f4 [2]
00000000: af59 4538 f42a e7b7
4.7051984e-05 -2.7557347e-05

exp_avg_sq f4 [2]
00000000: 12f9 f834 57a5 8934
4.6374822e-07 2.563854e-07

exp_avg f4 [8, 2, 1]
00000000: 2e11 f8b6 af7c 92b7 726e 8337 834c 2636
00000010: 11a1 85b5 fac2 6b36 378e 0eb7 7ef0 08b8
00000020: 26aa db37 ba97 f237 54e5 1d37 b6bb 5a35
00000030: 3fe7 9ab7 ff5e 1637 e5d9 2bb8 f02a 4538
-7.392976e-06 -1.7462617e-05 1.5667847e-05 2.4780463e-06 -9.956149e-07 3.513122e-06 -8.4969715e-06 -3.2648903e-05
2.6186066e-05 2.8919301e-05 9.411324e-06 8.1484484e-07 -1.8465913e-05 8.962815e-06 -4.0972507e-05 4.700845e-05

exp_avg_sq f4 [8, 2, 1]
00000000: c89f 7232 9740 7032 2e8c a332 694e 4932
00000010: 359f 9e32 00fa aa32 b783 9d32 4ca9 f432
00000020: 086c 3733 4912 aa33 df0b b432 e9eb 7233
00000030: 9c8c 7f33 e4ed 6333 7093 bb33 4c69 e733
1.4122584e-08 1.3984525e-08 1.9039444e-08 1.1717568e-08 1.846602e-08 1.9904292e-08 1.8337103e-08 2.8482326e-08
4.270626e-08 7.919568e-08 2.0960156e-08 5.6559575e-08 5.9499698e-08 5.3068916e-08 8.734685e-08 1.0775929e-07

exp_avg f4 [8]
00000000: 433f c537 ea92 2637 b805 d435 dec6 f8b7
00000010: e720 c3b7 58c0 1b37 0b08 3737 adca a437
2.3513689e-05 9.928577e-06 1.5796895e-06 -2.9656509e-05 -2.3261133e-05 9.2835035e-06 1.0909523e-05 1.9644702e-05

exp_avg_sq f4 [8]
00000000: bd98 8432 2fd8 a832 fe65 f331 2ed1 9432
00000010: d4b3 4c33 5786 6e33 dd23 8c32 037a 3533
1.543628e-08 1.9656083e-08 7.083826e-09 1.7324592e-08 4.7661004e-08 5.5535875e-08 1.6314454e-08 4.2253316e-08

exp_avg f4 [8, 8, 3]
00000000: 5caf 9535 84e6 1fb5 cfad 9d36 8a7b e9b5
00000010: f4a9 15b5 b0fe 0a35 5ef5 fdb4 4839 49b6
00000020: 2dfa 8136 0951 f634 9c6e 0e35 29dc 4fb6
00000030: 6b93 38b5 3142 0135 ffe3 6036 99c3 3fb4
00000040: c68e 4135 a9bc 2b37 fc4f 2bb5 b6a1 0bb5
00000050: aee4 13b4 ea07 e1b5 9592 a5b5 45dc 95b7
00000060: 929a 6cb3 e056 0a33 eba8 7fb5 406a e534
00000070: 7080 fb35 e8b4 b3b5 a4ab d935 a381 5c35
00000080: 5824 2cb6 69f4 08b6 7606 c235 8892 6cb5
00000090: a742 1035 0451 ed33 c6a3 1bb5 59c2 3835
000000a0: ca0b 21b4 6f25 b2b5 e5c7 4eb5 ebf4 6ab4
000000b0: cd0b 3033 4dc3 03b7 4fd2 8ab6 dd16 5136
000000c0: 876e b7b1 3fb5 4531 28a7 8931 760f 18b2
000000d0: e839 d4b2 0e7e c131 8985 30b1 8923 a231
000000e0: d0e8 63b2 ac9d 2730 2e60 0b31 ca0d b4b1
000000f0: 7dbf 47b1 240f 1db2 a00a 9330 056f 57b1
00000100: f418 adb1 7af9 8db1 a000 9fb1 dbb4 5031
00000110: 761a 5531 ae52 0eb2 6363 3b31 4b97 1833
00000120: 463f 08b4 3c7f 7cb4 6783 19b4 7852 8bb5
00000130: 3941 0bb6 64f3 bdb3 8703 8434 d9f5 2836
00000140: 80b4 1bb6 e9e1 29b4 18ec 1a34 93a0 21b5
00000150: a650 22b5 6c9b 77b5 95e4 08b4 c49a 58b5
00000160: f081 b2b3 e08e 73b5 8aaa 9eb4 0c59 deb4
00000170: eb35 b534 f9fb 25b6 c325 35b6 72ca d736
00000180: 8d02 1a37 bf8c 7436 21a0 2db6 ed93 c936
00000190: 0539 1137 b510 8d34 7ab9 6fb5 801b 8f35
000001a0: fd56 ef35 cfc6 62b6 7985 82b5 b98c 8736
000001b0: aa2e 8b36 9d35 8c36 59e6 b3b5 a729 2936
000001c0: 7d83 1236 a386 32b5 77e8 0a37 081f c036
000001d0: cb1d 13b5 3a93 dc37 09fb 8736 3543 1132
000001e0: 817b 5eb6 0434 0035 7d88 a536 66fb c434
000001f0: 61fb cdb6 a66a 4336 bece 20b5 51ee 3b34
00000200: 422d 2234 b0ff 14b5 f07d 95b5 15e3 88b6
00000210: 63a3 46b5 173a 54b6 aaf9 2b36 731a f4b4
00000220: e5dd 29b6 89f0 ca36 8d6f 46b6 6715 6bb4
00000230: 12e8 0a35 51d9 b9b6 ea45 14b5 60e5 84b7
00000240: d29e ee36 0fd6 44b4 3fa5 b0b6 c740 9435
00000250: e22b ab36 16f8 5b36 66fb 1533 df20 38b4
00000260: 35ba 74b6 ee90 69b6 6f68 77b5 22f3 3f36
00000270: 6d88 4f36 bd90 b035 aba5 45b6 040b de35
00000280: a0c9 f534 31f1 07b7 2edc 0a37 05d0 f1b4
00000290: 0737 8d35 4fcc 4537 ae3d beb5 2391 c537
000002a0: 7451 76b6 38dc 38b6 081f 88b6 e9df bdb4
000002b0: 39d1 6835 ffe8 e4b6 ae05 af34 85ce 1fb5
000002c0: d1f0 2e36 41a0 e8b4 9d93 c0b4 882e c236
000002d0: 8419 e634 58c1 92b5 5e12 2db6 bdc8 0035
000002e0: 628c eeb5 188c 8cb6 6e44 36b6 b49a b1b6
000002f0: eeaf fab5 8cfd 23b4 74d5 8035 476f 6036
1.1152401e-06 -5.956756e-07 4.6991986e-06 -1.7395807e-06 -5.575414e-07 5.1779625e-07 -4.730345e-07 -2.9984676e-06
3.873624e-06 4.5880032e-07 5.306008e-07 -3.0973554e-06 -6.8759863e-07 4.8152566e-07 3.3511312e-06 -1.7859419e-07
7.2105865e-07 1.023632e-05 -6.3818857e-07 -5.2016856e-07 -1.3773635e-07 -1.676611e-06 -1.2336119e-06 -1.7864755e-05
-5.5088613e-08 3.220964e-08 -9.524071e-07 4.273188e-07 1.8738338e-06 -1.338919e-06 1.6217714e-06 8.214503e-07
-2.5651152e-06 -2.0407845e-06 1.4456007e-06 -8.813008e-07 5.374117e-07 1.1050909e-07 -5.798032e-07 6.8828155e-07
-1.4998582e-07 -1.3272928e-06 -7.7031865e-07 -2.1882049e-07 4.0988926e-08 -7.8536805e-06 -4.1372036e-06 3.1156735e-06
-5.3385665e-09 2.87703e-09 4.0062282e-09 -8.85108e-09 -2.4706381e-08 5.63137e-09 -2.5687277e-09 4.7188604e-09
-1.32660745e-08 6.097831e-10 2.0281834e-09 -5.240257e-09 -2.906716e-09 -9.142045e-09 1.0698677e-09 -3.1349725e-09
-5.0377995e-09 -4.1320023e-09 -4.62758e-09 3.0370788e-09 3.101062e-09 -8.284287e-09 2.7268576e-09 3.5527858e-08
-1.2689006e-07 -2.3515616e-07 -1.4297039e-07 -1.0380309e-06 -2.0750579e-06 -8.845271e-08 2.4589482e-07 2.5177053e-06
-2.3201865e-06 -1.5821537e-07 1.4428258e-07 -6.021084e-07 -6.046706e-07 -9.224084e-07 -1.2749145e-07 -8.0691484e-07
-8.3124064e-08 -9.0732465e-07 -2.9553877e-07 -4.1415512e-07 3.3753108e-07 -2.4733583e-06 -2.6993082e-06 6.431067e-06
9.179709e-06 3.6440758e-06 -2.5872216e-06 6.0074876e-06 8.655949e-06 2.6275453e-07 -8.930434e-07 1.0662334e-06
1.7832205e-06 -3.3792346e-06 -9.7246e-07 4.039696e-06 4.147955e-06 4.1785665e-06 -1.3403579e-06 2.5207207e-06
2.1832232e-06 -6.650609e-07 8.279566e-06 5.7256584e-06 -5.480512e-07 2.6294601e-05 4.052538e-06 8.455392e-09
-3.3152467e-06 4.775941e-07 4.9332725e-06 3.669076e-07 -6.1387404e-06 2.9119342e-06 -5.9905494e-07 1.7502431e-07
1.510389e-07 -5.550637e-07 -1.1138018e-06 -4.0795517e-06 -7.3998507e-07 -3.1624274e-06 2.562631e-06 -4.5467786e-07
-2.5312122e-06 6.048071e-06 -2.956923e-06 -2.1893867e-07 5.1746713e-07 -5.5387286e-06 -5.5236035e-07 -1.5842437e-05
7.111442e-06 -1.8331797e-07 -5.264446e-06 1.1045712e-06 5.1013058e-06 3.2777948e-06 3.492041e-08 -1.7148294e-07
-3.646722e-06 -3.4804066e-06 -9.216664e-07 2.860274e-06 3.0924814e-06 1.3155146e-06 -2.945172e-06 1.6543495e-06
4.5781508e-07 -8.102784e-06 8.276706e-06 -4.5041102e-07 1.0521334e-06 1.1789684e-05 -1.4174054e-06 2.3551815e-05
-3.6704268e-06 -2.754632e-06 -4.0567284e-06 -3.536691e-07 8.6731194e-07 -6.822054e-06 3.2600423e-07 -5.953264e-07
2.6068194e-06 -4.3329968e-07 -3.587019e-07 5.7870675e-06 4.2859403e-07 -1.0934118e-06 -2.57897e-06 4.797583e-07
-1.7773239e-06 -4.188634e-06 -2.7159945e-06 -5.293021e-06 -1.8677654e-06 -1.5272798e-07 9.598866e-07 3.3443373e-06
