nTupleAnalysis/pytorchModels/FvT_ResNet+multijetAttention_9_9_9_np2044_lr0.008_epochs40_stdscale_epoch30_loss0.1518.pkl (torch_old, 88610 bytes, 239 tensors)

jetEmbed.module.weight f4 [9, 4, 1]
0.40572798 1.3449367 0.20226456 0.16679808 -0.6945851 0.17872195 -0.03911296 -0.4216882
0.43076938 -1.3584461 0.44121078 -0.32377866 0.5757087 1.1358813 -0.508898 -0.83612955
-0.6437328 -0.6833952 -0.11425645 0.958381 -0.028946545 -1.734514 -0.46641454 0.09083893
-0.5415665 1.5562001 -0.22862877 0.35222954 -1.1210628 0.50919765 -0.19997722 0.5448514
0.5631986 -0.75107443 -0.073981225 -1.4329687
00000000: 94bb cf3e e326 ac3f 711e 4f3e 1ecd 2a3e
00000010: 54d0 31bf e302 373e e934 20bd 84e7 d7be
00000020: ce8d dc3e 90e1 adbf 61e6 e13e 51c6 a5be
00000030: a561 133f 8f64 913f 2447 02bf 960c 56bf
00000040: accb 24bf fdf2 2ebf 49ff e9bd 7558 753f
00000050: 4e21 edbc 8e04 debf e3cd eebe c309 ba3d
00000060: 1aa4 0abf 9131 c73f a91d 6abe 6e57 b43e
00000070: fc7e 8fbf c75a 023f d4c6 4cbe 627b 0b3f
00000080: c92d 103f 6a46 40bf 7883 97bd 856b b7bf

jetEmbed.module.bias f4 [9]
-0.20508194 -1.2534797 -0.41638398 -0.47089648 -0.35862976 0.7997826 -0.19422795 0.15169977
-0.15565456
00000000: 0001 52be 0672 a0bf 4830 d5be 5819 f1be
00000010: 529e b7be 8dbe 4c3f b1e3 46be 2f57 1b3e
00000020: e963 1fbe

dijetAncillaryEmbed.module.weight f4 [9, 2, 1]
-0.43352062 -0.29007706 -1.2007545 0.46930557 -2.0627458 -1.7480519 -1.4069667 0.14737703
-0.43222684 1.0855542 0.80845475 -1.1904995 -0.10682348 1.6807672 0.5117161 -2.0541544
0.77747434 0.71059054
00000000: 6af6 ddbe fb84 94be 53b2 99bf d248 f03e
00000010: 0704 04c0 2ac0 dfbf 7c17 b4bf 01ea 163e
00000020: d64c ddbe 71f3 8a3f e4f6 4e3f 4a62 98bf
00000030: 45c6 dabd 6123 d73f d4ff 023f 4477 03c0
00000040: 8f08 473f 43e9 353f

dijetAncillaryEmbed.module.bias f4 [9]
0.06143721 -0.46961042 -0.32562423 0.66693693 -0.30410305 -1.2608743 -0.3195231 -0.15004414
-1.2384574
00000000: 95a5 7b3d c770 f0be 38b8 a6be 61bc 2a3f
00000010: 65b3 9bbe 5464 a1bf 8898 a3be 2ca5 19be
00000020: c685 9ebf

dijetResNetBlock.reinforce1.conv.module.weight f4 [9, 9, 3]
1.8284967 1.6259406 -0.059074756 0.6229991 -0.0448773 0.021669073 0.1290733 1.7148836
0.1738327 -0.16935433 0.6716296 0.45097065 -0.13316737 0.7497727 0.3601389 -0.034761652
-0.766653 -0.6202118 -1.0616919 -0.8747262 1.1481203 -0.7702874 -1.9418527 0.7720075
0.59985495 -0.3815622 -1.1390224 -0.45686582 0.5337237 -0.44680297 -5.72266 -1.882973
-1.1008304 -1.487291 1.472615 0.48911768 0.05967283 -0.12372569 0.3395168 0.3126953
0.7105463 0.03562702 -1.530424 0.9807121 -0.0705851 1.5435758 -0.65410155 0.4885011
-1.5186508 -1.9066131 0.028029088 -0.18279827 -0.14234477 -0.09631333 0.6405329 -0.53900343
-0.83683413 0.41117838 -0.79214674 1.0431371 -0.96690404 -1.1356386 0.5892266 -1.6265014
-0.6482413 0.5885857 1.3158869 1.0021678 1.0918268 1.3427292 -0.31711355 -0.17539634
0.64626914 -1.027257 1.6490717 0.5140185 0.39730895 -0.64954406 1.1504548 -1.0264233
0.3112431 0.9951763 1.9404067 -0.9138264 -1.0814042 0.44905606 -0.44771594 -0.60059273
0.31088912 -0.5619949 -0.11944831 1.163949 -1.0196599 0.4141292 -0.49477762 -0.59904116
-1.9597092 -0.7762207 -0.8360656 0.7946985 0.28634578 -0.1489273 -0.50235206 -0.79866606
-1.3232658 -0.42921433 -0.44771957 1.8486261 0.6279257 0.113723114 0.3448836 -3.0564094
-0.17639919 -0.8536664 0.4229415 0.4156076 -0.25531435 -0.30738214 -2.900936 0.02174748
-0.96595335 -1.4648502 0.7127357 1.0269866 -1.5074068 -0.27151692 1.1896206 0.049844075
0.49445337 -1.6257848 0.72880304 0.048354138 -0.10771067 -0.68588024 -0.2646341 0.3818964
-1.0510352 -0.3599458 2.1307747 0.2203361 -1.4684284 -0.25346813 -0.56058484 -2.4612992
0.5869759 -0.33113903 -1.8211253 0.5805444 -2.235376 0.4643315 0.2067916 0.19934241
-0.029714061 -0.19454606 -0.083126985 0.5833327 -0.994903 0.4306217 0.060049836 -0.18110476
0.3410404 -0.6412488 -0.45265302 0.79573923 -0.8234519 -0.14956836 0.35440773 1.4332032
0.08535982 -1.9968572 0.028072733 -0.5145271 -0.12800826 2.0402114 -0.09449598 0.23654178
-0.8395221 0.2580217 0.6584241 -1.3653638 0.022794746 0.9766078 -0.4121567 -0.36758596
-1.0502919 -1.6949291 -0.6056544 0.35391256 1.5459434 0.76860815 -1.8971449 -0.05599342
-0.8146277 0.2620424 0.7802876 -0.6954315 1.3217951 -0.41061175 0.7422027 -2.1295161
0.035787653 -0.84608036 -0.15268067 0.5224969 -2.0672152 1.4373105 0.06921897 1.7106298
-1.5452906 -0.42074397 -0.01607516 0.76371336 -1.1713387 0.014484062 0.43069425 -0.5547759
-0.19421479 0.15080476 0.19009759 0.058677733 0.1410608 0.064517744 0.45697084 0.5668972
-3.1616921 0.33922023 0.45207274 -3.9343152 -0.72826964 -0.9186988 0.20708512 -0.3495693
-0.35685128 0.43828928 0.19310854 -0.44522056 0.014385311 -0.635483 -0.50405663 0.76250905
-0.12846455 -0.23686829 -0.52025265
00000000: 2e0c ea3f d21e d03f 5ff8 71bd de7c 1f3f
00000010: 42d1 37bd 5783 b13c cb2b 043e 4e81 db3f
00000020: 3301 323e 396b 2dbe ebef 2b3f a0e5 e63e
00000030: 075d 08be 1bf1 3f3f 2064 b83e 3c62 0ebd
00000040: 5f43 44bf 33c6 1ebf 85e5 87bf 0eee 5fbf
00000050: 9bf5 923f 8e31 45bf a18e f8bf 49a2 453f
00000060: 1890 193f 1f5c c3be 7ccb 91bf 51ea e9be
00000070: 1ea2 083f 5cc3 e4be 0820 b7c0 4205 f1bf
00000080: 03e8 8cbf 8d5f bebf a67e bc3f a26d fa3e
00000090: 7f6b 743d e563 fdbd 25d5 ad3e 9919 a03e
000000a0: 5de6 353f a3ed 113d efe4 c3bf f30f 7b3f
000000b0: ec8e 90bd e493 c53f 3373 27bf d11c fa3e
000000c0: 2663 c2bf e60b f4bf 429d e53c 782f 3bbe
000000d0: d4c2 11be ec3f c5bd f7f9 233f 21fc 09bf
000000e0: c33a 56bf f985 d23e 21ca 4abf 8485 853f
000000f0: 0687 77bf 9b5c 91bf 8ed7 163f 3331 d0bf
00000100: 24f3 25bf 8dad 163f fb6e a83f 0947 803f
00000110: fbc0 8b3f 8dde ab3f b55c a2be 199b 33be
00000120: e571 253f 287d 83bf c814 d33f b796 033f
00000130: 146c cb3e 8548 26bf 1a42 933f d761 83bf
00000140: 415b 9f3e e0c3 7e3f 3f5f f83f 87f0 69bf
00000150: 746b 8abf adea e53e 063b e5be 72c0 19bf
00000160: dc2c 9f3e e6de 0fbf 51a1 f4bd 48fc 943f
00000170: 3784 82bf be08 d43e 7e53 fdbe c35a 19bf
00000180: c0d7 fabf 66b6 46bf 6508 56bf 5c71 4b3f
00000190: ea9b 923e 6680 18be 259a 00bf 6175 4cbf
000001a0: c660 a9bf fbc1 dbbe 803b e5be c89f ec3f
000001b0: bdbf 203f aae7 e83d 9594 b03e 369c 43c0
000001c0: fda1 34be e289 5abf ca8b d83e 85ca d43e
000001d0: 90b8 82be 3161 9dbe efa8 39c0 c527 b23c
000001e0: b848 77bf 3680 bbbf d975 363f 4c74 833f
000001f0: b5f2 c0bf 4404 8bbe 7d45 983f 4d29 4c3d
00000200: fe28 fd3e b719 d0bf d692 3a3f fd0e 463d
00000210: 6997 dcbd d995 2fbf 1f7e 87be ed87 c33e
00000220: 5288 86bf d14a b8be 9d5e 0840 c99f 613e
00000230: 76f5 bbbf 93c6 81be 7d82 0fbf ed85 1dc0
00000240: 0d44 163f 0e8b a9be a21a e9bf 8f9e 143f
00000250: 6610 0fc0 dcbc ed3e 2dc1 533e 6b20 4c3e
00000260: e76a f3bc 1537 47be 7b3e aabd 4b55 153f
00000270: f7b1 7ebf 737a dc3e d1f6 753d 8773 39be
00000280: d99c ae3e e228 24bf 23c2 e7be 91b5 4b3f
00000290: becd 52bf 7328 19be ee74 b53e 3473 b73f
000002a0: 21d1 ae3d 0499 ffbf caf8 e53c 0cb8 03bf
000002b0: 9914 03be d392 0240 1c87 c1bd 0238 723e
000002c0: ecea 56bf 6c1b 843e 7b8e 283f 3ec4 aebf
000002d0: 0cbc ba3c f802 7a3f 3406 d3be 3a34 bcbe
000002e0: f76f 86bf 70f3 d8bf 2b0c 1bbf 0734 b53e
000002f0: 79e1 c53f 81c3 443f a5d5 f2bf 5b59 65bd
00000300: 718b 50bf 6c2a 863e eec0 473f cc07 32bf
00000310: 9530 a93f b43b d2be ff00 3e3f fe49 08c0
00000320: 1396 123d b998 58bf 5258 1cbe 5bc2 053f
00000330: 414d 04c0 caf9 b73f adc2 8d3d ebf5 da3f
00000340: 15cc c5bf c16b d7be 0eb0 83bc b882 433f
00000350: 6dee 95bf 8f4e 6d3c f583 dc3e cb05 0ebf
00000360: 3ee0 46be 906c 1a3e f1a8 423e 1058 703d
00000370: 3e72 103e e121 843d 15f8 e93e 2d20 113f
00000380: 2a59 4ac0 46ae ad3e 1476 e73e d2cb 7bc0
00000390: e16f 3abf d82f 6bbf 1f0e 543e bffa b2be
000003a0: 36b5 b6be 7467 e03e 3fbe 453e f3f3 e3be
000003b0: 5eb0 6b3c 04af 22bf db09 01bf cb33 433f
000003c0: 368c 03be 9a8d 72be 472f 05bf

dijetResNetBlock.reinforce1.conv.batchNorm.gamma f4 [9]
0.6608233 1.32272 0.2933361 1.4567592 1.3960721 1.6894913 0.54003024 1.7657769
2.4179504
00000000: b72b 293f e44e a93f 2630 963e 1677 ba3f
00000010: 7eb2 b23f 4041 d83f 6c3f 0a3f fa04 e23f
00000020: b3bf 1a40

dijetResNetBlock.reinforce1.conv.batchNorm.bias f4 [9]
-1.0928352 -1.2829101 -0.93997383 -0.36916932 -1.40424 -1.2068825 -0.30027938 -1.0475284
-1.132229
00000000: 06e2 8bbf 6636 a4bf 20a2 70bf c303 bdbe
00000010: 23be b3bf 207b 9abf 38be 99be 6915 86bf
00000020: e1ec 90bf

dijetResNetBlock.reinforce1.conv.batchNorm.m f4 [1, 9, 1]
-1.6991419 -0.51574 1.8511351 -2.3837404 0.95990264 0.01592397 0.923534 0.1596237
-2.95716
00000000: 7b7d d9bf 8907 04bf fff1 ec3f 348f 18c0
00000010: 2ebc 753f fc72 823c b96c 6c3f 6574 233e
00000020: 1c42 3dc0

dijetResNetBlock.reinforce1.conv.batchNorm.s f4 [1, 9, 1]
1.7687503 2.1466784 1.9672115 3.3456652 1.5339618 2.7980719 1.1515356 2.7197866
3.6363995
00000000: 6966 e23f 2e63 0940 96cd fb3f 611f 5640
00000010: dc58 c43f 9c13 3340 8565 933f fc10 2e40
00000020: c5ba 6840

dijetResNetBlock.reinforce1.conv.batchNorm.m_biased f4 [1, 9, 1]
0.0 0.0 0.0 0.0 0.0 0.0 0.0 0.0
0.0
00000000: 0000 0000 0000 0000 0000 0000 0000 0000
00000010: 0000 0000 0000 0000 0000 0000 0000 0000
00000020: 0000 0000

dijetResNetBlock.reinforce1.conv.batchNorm.s_biased f4 [1, 9, 1]
0.0 0.0 0.0 0.0 0.0 0.0 0.0 0.0
0.0
00000000: 0000 0000 0000 0000 0000 0000 0000 0000
00000010: 0000 0000 0000 0000 0000 0000 0000 0000
00000020: 0000 0000

dijetResNetBlock.reinforce1.conv.batchNorm.m_biased_first_moment f4 [1, 9, 1]
0.0 0.0 0.0 0.0 0.0 0.0 0.0 0.0
0.0
00000000: 0000 0000 0000 0000 0000 0000 0000 0000
00000010: 0000 0000 0000 0000 0000 0000 0000 0000
00000020: 0000 0000

dijetResNetBlock.reinforce1.conv.batchNorm.s_biased_first_moment f4 [1, 9, 1]
0.0 0.0 0.0 0.0 0.0 0.0 0.0 0.0
0.0
00000000: 0000 0000 0000 0000 0000 0000 0000 0000
00000010: 0000 0000 0000 0000 0000 0000 0000 0000
00000020: 0000 0000

dijetResNetBlock.reinforce1.conv.batchNorm.m_biased_second_moment f4 [1, 9, 1]
0.0 0.0 0.0 0.0 0.0 0.0 0.0 0.0
0.0
00000000: 0000 0000 0000 0000 0000 0000 0000 0000
00000010: 0000 0000 0000 0000 0000 0000 0000 0000
00000020: 0000 0000

dijetResNetBlock.reinforce1.conv.batchNorm.s_biased_second_moment f4 [1, 9, 1]
0.0 0.0 0.0 0.0 0.0 0.0 0.0 0.0
0.0
00000000: 0000 0000 0000 0000 0000 0000 0000 0000
00000010: 0000 0000 0000 0000 0000 0000 0000 0000
00000020: 0000 0000

dijetResNetBlock.reinforce1.conv.batchNorm.m_first_moment f4 [1, 9, 1]
0.0 0.0 0.0 0.0 0.0 0.0 0.0 0.0
0.0
00000000: 0000 0000 0000 0000 0000 0000 0000 0000
00000010: 0000 0000 0000 0000 0000 0000 0000 0000
00000020: 0000 0000

dijetResNetBlock.reinforce1.conv.batchNorm.s_first_moment f4 [1, 9, 1]
0.0 0.0 0.0 0.0 0.0 0.0 0.0 0.0
0.0
00000000: 0000 0000 0000 0000 0000 0000 0000 0000
00000010: 0000 0000 0000 0000 0000 0000 0000 0000
00000020: 0000 0000

dijetResNetBlock.reinforce1.conv.batchNorm.m_second_moment f4 [1, 9, 1]
0.0 0.0 0.0 0.0 0.0 0.0 0.0 0.0
0.0
00000000: 0000 0000 0000 0000 0000 0000 0000 0000
00000010: 0000 0000 0000 0000 0000 0000 0000 0000
00000020: 0000 0000

dijetResNetBlock.reinforce1.conv.batchNorm.s_second_moment f4 [1, 9, 1]
0.0 0.0 0.0 0.0 0.0 0.0 0.0 0.0
0.0
00000000: 0000 0000 0000 0000 0000 0000 0000 0000
00000010: 0000 0000 0000 0000 0000 0000 0000 0000
00000020: 0000 0000

dijetResNetBlock.convJ.module.weight f4 [9, 9, 1]
-1.513685 0.39267084 0.41408962 -0.09075002 -2.144691 -1.0741026 0.3848709 -0.37398475
0.293068 -0.013502773 -0.29722714 -0.56582814 0.5971718 -0.56381255 -0.63408035 0.4175479
-0.7195353 2.1665766 -1.1861068 0.20720154 -1.4125147 -0.8005168 -1.3864319 -1.3808446
0.98498094 -0.36976323 -0.14645046 -0.4745842 -0.14582896 0.23153697 -1.4300727 0.18176097
-0.83627 -1.0014896 -1.0299075 1.3033806 0.041638967 1.1349106 0.40419725 -1.6948761
-1.0335722 0.34419063 0.3387782 0.40297994 -2.824989 -0.8627358 -0.7850152 1.4008771
0.08477177 -0.49795055 -0.52853894 -0.859275 -1.4438586 -0.50203717 -0.07395287 -2.1856263
-0.45149428 -0.36136186 -0.12146164 0.7270813 -1.4856515 -0.3655136 1.1076511 0.42040655
0.6475076 -0.38963974 0.49051237 -2.039331 -0.84854835 -0.28008762 -0.49247032 -0.83219415
0.09848061 0.09571917 1.243884 -0.38521037 0.086328685 0.62188566 0.054029454 2.1941543
-0.3976141
00000000: 6ec0 c1bf 270c c93e 8e03 d43e 26db b9bd
00000010: 9e42 09c0 327c 89bf cc0d c53e ee7a bfbe
00000020: 020d 963e bc3a 5dbc 282e 98be 1dda 10bf
00000030: 40e0 183f 0556 10bf 1753 22bf d7c8 d53e
00000040: 7733 38bf 31a9 0a40 59d2 97bf a42c 543e
00000050: 48cd b4bf abee 4cbf 9a76 b1bf 84bf b0bf
00000060: b627 7c3f 9b51 bdbe 1cf7 15be b3fc f2be
00000070: 3054 15be 0718 6d3e 9f0c b7bf 8c1f 3a3e
00000080: ca15 56bf d030 80bf 02d4 83bf 2dd5 a63f
00000090: 9f8d 2a3d c044 913f f1f2 ce3e b3f1 d8bf
000000a0: 184c 84bf c139 b03e 5674 ad3e 6353 ce3e
000000b0: 9fcc 34c0 41dc 5cbf c2f6 48bf f14f b33f
000000c0: d29c ad3d 60f3 febe 544e 07bf 72f9 5bbf
000000d0: 5cd0 b8bf 8285 00bf 9a74 97bd 4de1 0bc0
000000e0: 422a e7be 6c04 b9be e1c0 f8bd 0022 3a3f
000000f0: d429 bebf 9924 bbbe 83c7 8d3f 873f d73e
00000100: 0fc3 253f dc7e c7be 7024 fb3e 6684 02c0
00000110: 773a 59bf a567 8fbe 1225 fcbe ad0a 55bf
00000120: 34b0 c93d 6a08 c43d 9737 9f3f 4b3a c5be
00000130: 18cd b03d e633 1f3f fd4d 5d3d 066d 0c40
00000140: 1394 cbbe

dijetResNetBlock.convJ.batchNorm.gamma f4 [9]
1.5513194 1.1445395 0.78871536 0.31114572 0.9514723 0.12393634 0.6620469 0.31384075
0.7172509
00000000: a291 c63f 4580 923f 40e9 493f 7e4e 9f3e
00000010: b093 733f 56d2 fd3d e87b 293f bcaf a03e
00000020: c19d 373f

dijetResNetBlock.convJ.batchNorm.bias f4 [9]
-1.0537088 -2.195659 0.19695845 -0.20794162 -0.42540157 -0.8452679 0.00233275 -0.42294496
-1.1631149
00000000: eedf 86bf ad85 0cc0 7aaf 493e a6ee 54be
00000010: 3cce d9be 7a63 58bf 0de1 183b 3e8c d8be
00000020: f3e0 94bf

dijetResNetBlock.convJ.batchNorm.m f4 [1, 9, 1]
-0.76778454 -0.101040326 -0.85396487 -0.6684935 -0.26270548 -1.0758882 0.78908867 -0.92314976
1.0707481
00000000: 878d 44bf 3bee cebd 719d 5abf 6422 2bbf
00000010: 5581 86be b4b6 89bf b701 4a3f 8b53 6cbf
00000020: 460e 893f

dijetResNetBlock.convJ.batchNorm.s f4 [1, 9, 1]
1.5649788 1.1371444 1.6255493 1.0101548 1.3324889 1.0830729 1.3540368 1.267705
0.9899186
00000000: 3a51 c83f f38d 913f 0012 d03f c14c 813f
00000010: ff8e aa3f 22a2 8a3f 1451 ad3f 2844 a23f
00000020: 4e6b 7d3f

dijetResNetBlock.convJ.batchNorm.m_biased f4 [1, 9, 1]
0.0 0.0 0.0 0.0 0.0 0.0 0.0 0.0
0.0
00000000: 0000 0000 0000 0000 0000 0000 0000 0000
00000010: 0000 0000 0000 0000 0000 0000 0000 0000
00000020: 0000 0000

dijetResNetBlock.convJ.batchNorm.s_biased f4 [1, 9, 1]
0.0 0.0 0.0 0.0 0.0 0.0 0.0 0.0
0.0
00000000: 0000 0000 0000 0000 0000 0000 0000 0000
00000010: 0000 0000 0000 0000 0000 0000 0000 0000
00000020: 0000 0000

dijetResNetBlock.convJ.batchNorm.m_biased_first_moment f4 [1, 9, 1]
0.0 0.0 0.0 0.0 0.0 0.0 0.0 0.0
0.0
00000000: 0000 0000 0000 0000 0000 0000 0000 0000
00000010: 0000 0000 0000 0000 0000 0000 0000 0000
00000020: 0000 0000

dijetResNetBlock.convJ.batchNorm.s_biased_first_moment f4 [1, 9, 1]
0.0 0.0 0.0 0.0 0.0 0.0 0.0 0.0
0.0
00000000: 0000 0000 0000 0000 0000 0000 0000 0000
00000010: 0000 0000 0000 0000 0000 0000 0000 0000
00000020: 0000 0000

dijetResNetBlock.convJ.batchNorm.m_biased_second_moment f4 [1, 9, 1]
0.0 0.0 0.0 0.0 0.0 0.0 0.0 0.0
0.0
00000000: 0000 0000 0000 0000 0000 0000 0000 0000
00000010: 0000 0000 0000 0000 0000 0000 0000 0000
00000020: 0000 0000

dijetResNetBlock.convJ.batchNorm.s_biased_second_moment f4 [1, 9, 1]
0.0 0.0 0.0 0.0 0.0 0.0 0.0 0.0
0.0
00000000: 0000 0000 0000 0000 0000 0000 0000 0000
00000010: 0000 0000 0000 0000 0000 0000 0000 0000
00000020: 0000 0000

dijetResNetBlock.convJ.batchNorm.m_first_moment f4 [1, 9, 1]
0.0 0.0 0.0 0.0 0.0 0.0 0.0 0.0
0.0
00000000: 0000 0000 0000 0000 0000 0000 0000 0000
00000010: 0000 0000 0000 0000 0000 0000 0000 0000
00000020: 0000 0000

dijetResNetBlock.convJ.batchNorm.s_first_moment f4 [1, 9, 1]
0.0 0.0 0.0 0.0 0.0 0.0 0.0 0.0
0.0
00000000: 0000 0000 0000 0000 0000 0000 0000 0000
00000010: 0000 0000 0000 0000 0000 0000 0000 0000
00000020: 0000 0000

dijetResNetBlock.convJ.batchNorm.m_second_moment f4 [1, 9, 1]
0.0 0.0 0.0 0.0 0.0 0.0 0.0 0.0
0.0
00000000: 0000 0000 0000 0000 0000 0000 0000 0000
00000010: 0000 0000 0000 0000 0000 0000 0000 0000
00000020: 0000 0000

dijetResNetBlock.convJ.batchNorm.s_second_moment f4 [1, 9, 1]
0.0 0.0 0.0 0.0 0.0 0.0 0.0 0.0
0.0
00000000: 0000 0000 0000 0000 0000 0000 0000 0000
00000010: 0000 0000 0000 0000 0000 0000 0000 0000
00000020: 0000 0000

dijetResNetBlock.reinforce2.conv.module.weight f4 [9, 9, 3]
-0.119741544 0.32929042 -1.0684955 0.8573677 0.871151 1.0853014 0.16202655 0.12579045
0.013862505 0.34229013 0.5940757 0.43145463 -0.11845744 -0.17297386 0.2508159 0.48460963
0.7534176 -0.8206571 -0.13828522 0.053759526 0.44252533 -0.3955836 0.2806872 0.23880257
-0.09654543 -0.6557706 0.27362323 -0.20379 -0.4014135 0.2774293 1.0403008 1.1277751
-1.1038731 0.58282214 -0.033590242 -1.9596877 0.78719443 1.1639245 0.48513374 0.075523265
-0.024649454 0.16108885 0.6420576 1.087292 0.58118254 0.029488489 -0.012388558 0.22174847
-0.5207138 -0.6826309 -1.2648542 0.35939673 -0.17615592 -3.1694837 0.7157851 -0.19009052
0.2027794 -0.026570076 -0.24936207 0.4611238 -0.54936504 0.2888161 0.7927297 -0.5037576
-0.056891505 -0.18258628 0.30897784 0.46236137 0.76932466 -0.02411471 0.07658555 -1.3174031
0.36904976 0.014087366 1.2489183 -0.046314627 0.31216207 -0.47446197 0.6620899 0.19262443
-1.2210797 0.3219611 0.061125543 1.4464535 -0.75254315 -0.2228579 -0.107521676 0.64601785
0.06013891 -0.6919735 -0.021406014 -0.025404083 0.1665794 -0.2831753 -0.33113998 0.09930311
-0.1136837 0.33824787 0.29613298 1.3665377 -0.783312 0.6769104 0.9464922 0.16353005
0.23706587 -0.8725993 -0.002775587 -0.09069709 0.4447053 0.44194785 0.02136732 -1.3680215
-0.04433796 -0.9353877 0.09977818 -0.27269316 0.0956795 0.802479 0.72164255 0.075836256
-1.5275086 -1.6168085 -0.5227288 -0.7233879 0.8580821 -0.80426383 -0.19655062 0.18702742
0.49270684 -0.48062497 -0.88491356 0.000847014 -0.7271382 0.12564005 0.22640549 0.16737956
-0.325343 -0.20158674 -1.7848265 -1.5360415 0.18672107 0.5249115 -0.1875116 0.12918587
-0.08864228 -0.8723322 -1.3490608 -0.5926678 -0.791381 0.9809308 1.5195693 1.044357
-0.43464845 -0.5882874 0.81563175 -0.57336915 -0.12046394 -0.7998456 0.043765627 -0.19859335
0.033360504 -0.035561044 -0.592405 0.04131501 -0.467212 0.25727537 1.1713595 0.38251954
0.35089388 -1.3285615 -0.18685073 -0.86195254 -0.8023112 0.2386858 0.736128 0.5298229
0.23458414 0.95922303 0.4249733 -0.7879709 -0.06404886 0.14490432 -0.105227455 1.1569886
0.62939715 0.50121534 1.2234423 0.87073845 0.28676403 -0.6646987 0.446778 1.4856735
0.62764543 0.33924654 0.50162303 0.07739184 -0.70477355 -0.75342584 0.29796138 0.21867354
0.22871295 0.10880935 -0.19199356 -0.9862168 0.27708542 0.37973312 -0.0016365096 -0.24335968
0.014294728 -1.650814 0.37406856 0.1951793 0.49581954 -0.28566855 -0.2631094 -0.53588146
0.3177911 0.4593619 -0.05582967 -0.7354671 -0.29220846 -0.44224533 0.29739478 -0.082640484
0.27564216 -0.5133263 -0.50292844 0.6105793 -0.223918 -0.24149881 0.10885893 0.001510238
0.5267179 0.31713435 0.3727837 0.62011385 -0.7785103 -0.4224899 -0.2080199 0.5056844
-0.44455817 -0.20411153 0.027206836
00000000: 0e3b f5bd c198 a83e 76c4 88bf 737c 5b3f
00000010: c003 5f3f 28eb 8a3f 4aea 253e 36cf 003e
00000020: 8f1f 633c a740 af3e 5815 183f 9fe7 dc3e
00000030: d099 f2bd 0f20 31be f16a 803e c11e f83e
00000040: fadf 403f 9516 52bf a49a 0dbe f332 5c3d
00000050: ae92 e23e ef89 cabe 3cb6 8f3e a988 743e
00000060: 9cb9 c5bd 95e0 27bf 5818 8c3e 53ae 50be
00000070: 1286 cdbe 370b 8e3e 9428 853f ef5a 903f
00000080: b74b 8dbf d533 153f ec95 09bd 0cd7 fabf
00000090: 9385 493f 7afb 943f 7363 f83e f1ab 9a3d
000000a0: a7ed c9bc 7af4 243e e35d 243f 622c 8b3f
000000b0: 61c8 143f d891 f13c 61f9 4abc 0812 633e
000000c0: 804d 05bf e6c0 2ebf bee6 a1bf d902 b83e
000000d0: 3862 34be d2d8 4ac0 b13d 373f 17a7 42be
000000e0: 67a5 4f3e 7da9 d9bc c558 7fbe 6b18 ec3e
000000f0: 30a3 0cbf b4df 933e 55f0 4a3f 42f6 00bf
00000100: 1107 69bd e6f7 3abe 5832 9e3e a1ba ec3e
00000110: 76f2 443f 368c c5bc e3d8 9c3d aaa0 a8bf
00000120: 17f4 bc3e b2ce 663c 8edc 9f3f 68b4 3dbd
00000130: b5d3 9f3e aeec f2be b97e 293f 573f 453e
00000140: 574c 9cbf 16d8 a43e c75e 7a3d 6325 b93f
00000150: aba6 40bf dd34 64be 5334 dcbd 6d61 253f
00000160: 3854 763d 2d25 31bf aa5b afbc 391c d0bc
00000170: ca93 2a3e 5afc 90be 2e8b a9be 6e5f cb3d
00000180: 00d3 e8bd d32e ad3e be9e 973e b5ea ae3f
00000190: 2387 48bf 004a 2d3f 504d 723f 6c74 273e
000001a0: 65c1 723e ab62 5fbf 9fe6 35bb 65bf b9bd
000001b0: 6ab0 e33e fd46 e23e 850a af3c 541b afbf
000001c0: b99b 35bd 9175 6fbf 8158 cc3d 709e 8bbe
000001d0: 9df3 c33d 446f 4d3f 91bd 383f 0a50 9b3d
000001e0: 6785 c3bf 95f3 cebf 8ed1 05bf f32f 39bf
000001f0: 45ab 5b3f 3ce4 4dbf 9144 49be 1e84 3f3e
00000200: 1244 fc3e 7a14 f6be b289 62bf 260a 5e3a
00000210: bb25 3abf c9a7 003e d7d6 673e 8c65 2b3e
00000220: 5c93 a6be c16c 4ebe 3275 e4bf 029d c4bf
00000230: cf33 3f3e 9a60 063f 0a03 40be 4d49 043e
00000240: 158a b5bd 2a51 5fbf 06ae acbf 14b9 17bf
00000250: f297 4abf 481e 7b3f 3f81 c23f 7dad 853f
00000260: 3e8a debe 019a 16bf 3ecd 503f 52c8 12bf
00000270: ccb5 f6bd aec2 4cbf 9643 333d 0e5c 4bbe
00000280: 06a5 083d 75a8 11bd dba7 17bf ee39 293d
00000290: 6936 efbe 99b9 833e 1cef 953f 9ad9 c33e
000002a0: 5da8 b33e 4e0e aabf cc55 3fbe eca8 5cbf
000002b0: 4464 4dbf 0d6a 743e e272 3c3f 79a2 073f
000002c0: d336 703e a48f 753f 1a96 d93e 76b8 49bf
000002d0: 0c2c 83bd cc61 143e 7e81 d7bd 3418 943f
000002e0: 2c20 213f a64f 003f c299 9c3f b7e8 5e3f
000002f0: bcd2 923e b229 2abf 16c0 e43e 8d2a be3f
00000300: 5fad 203f b9b1 ad3e 5e6a 003f 9d7f 9e3d
00000310: 0a6c 34bf 84e0 40bf 658e 983e f5eb 5f3e
00000320: ba33 6a3e 70d7 de3d f699 44be b478 7cbf
00000330: 24de 8d3e 616c c23e 2680 d6ba 4833 79be
00000340: 6f34 6a3c e04d d3bf ea85 bf3e 15dd 473e
00000350: 0fdc fd3e 2643 92be 46b6 86be 872f 09bf
00000360: 84b5 a23e 7c31 eb3e a7ad 64bd 9247 3cbf
00000370: 599c 95be fb6d e2be 2144 983e 6a3f a9bd
00000380: f820 8d3e 5a69 03bf ebbf 00bf ed4e 1c3f
00000390: c34a 65be 774b 77be 6ef1 de3d 2ef3 c53a
000003a0: fcd6 063f 6f5f a23e 81dd be3e c8bf 1e3f
000003b0: 734c 47bf 9950 d8be 2b03 55be 8874 013f
000003c0: 219d e3be 9d02 51be dfe0 de3c

dijetResNetBlock.reinforce2.conv.module.bias f4 [9]
0.21482338 0.47500744 -0.66195714 0.5223965 0.32595912 0.13817513 0.79232585 0.63071865
0.0329299
00000000: a9fa 5b3e 2d34 f33e 0676 29bf c7bb 053f
00000010: 1de4 a63e c87d 0d3e ded5 4a3f c776 213f
00000020: 81e1 063d

dijetResNetBlock.multijetAttention.jetEmbed.module.weight f4 [5, 5, 1]
-0.677226 -1.7612785 -0.55723715 0.6827094 0.83644235 -0.24594276 0.61587286 0.63101506
-0.502101 0.98336583 -0.31067798 2.739299 0.66545635 0.021788748 0.8065164 -1.7002223
0.6268169 -0.5304099 0.6180627 -0.17118402 -0.46069738 -1.4641422 0.5950853 0.045070756
-1.2036674
00000000: af5e 2dbf 9371 e1bf 18a7 0ebf 0bc6 2e3f
00000010: 1621 563f 6bd8 7bbe d8a9 1d3f 348a 213f
00000020: b189 00bf ddbd 7b3f 2f11 9fbe ad50 2f40
00000030: 595b 2a3f 517e b23c dc77 4e3f e2a0 d9bf
00000040: 1377 203f f1c8 07bf 5b39 1e3f dd4a 2fbe
00000050: 87e0 ebbe 0369 bbbf 8357 183f 1d9c 383d
00000060: c611 9abf

dijetResNetBlock.multijetAttention.jetEmbed.module.bias f4 [5]
0.6746022 -1.1565151 0.37239218 -1.0050017 -0.47019982
00000000: bbb2 2c3f b008 94bf 30aa be3e e5a3 80bf
00000010: 08be f0be

dijetResNetBlock.multijetAttention.jetConv1.module.weight f4 [5, 5, 1]
0.4332942 1.0807347 1.7262164 0.524124 -0.9275869 -0.8895596 0.2880745 -1.1517972
-1.3206664 0.30377564 -1.2251452 -0.27044407 -0.9039114 -1.5774126 -0.35410857 -1.7429155
0.047967847 -0.6916768 -0.78456634 -1.6134874 0.589818 1.7226198 -0.10728517 1.4849865
0.23799762
00000000: bdd8 dd3e 8455 8a3f a9f4 dc3f fe2c 063f
00000010: 5676 6dbf 2eba 63bf 807e 933e 176e 93bf
00000020: 990b a9bf 7b88 9b3e 8fd1 9cbf a577 8abe
00000030: bd66 67bf a8e8 c9bf b84d b5be db17 dfbf
00000040: ef79 443d bb11 31bf 57d9 48bf c186 cebf
00000050: 50fe 163f ce7e dc3f 54b8 dbbd 0a14 be3f
00000060: a6b5 733e

dijetResNetBlock.multijetAttention.jetConv1.batchNorm.gamma f4 [5]
1.1231717 1.0820777 1.2395173 1.72919 1.7738458
00000000: 17c4 8f3f 8681 8a3f 81a8 9e3f 1956 dd3f
00000010: 610d e33f

dijetResNetBlock.multijetAttention.jetConv1.batchNorm.bias f4 [5]
-1.2856882 0.72498715 -0.2527118 -0.20505154 -0.80458325
00000000: 6e91 a4bf c298 393f 7163 81be 08f9 51be
00000010: 2bf9 4dbf

dijetResNetBlock.multijetAttention.jetConv1.batchNorm.m f4 [1, 5, 1]
2.865696 -2.9670618 -3.3480325 -3.3221831 1.6499234
00000000: 9067 3740 57e4 3dc0 2a46 56c0 a69e 54c0
00000010: b130 d33f

dijetResNetBlock.multijetAttention.jetConv1.batchNorm.s f4 [1, 5, 1]
2.611164 1.4006132 1.261332 1.5847089 1.034982
00000000: 501d 2740 4b47 b33f 5473 a13f bed7 ca3f
00000010: 4a7a 843f

dijetResNetBlock.multijetAttention.jetConv1.batchNorm.m_biased f4 [1, 5, 1]
0.0 0.0 0.0 0.0 0.0
00000000: 0000 0000 0000 0000 0000 0000 0000 0000
00000010: 0000 0000

dijetResNetBlock.multijetAttention.jetConv1.batchNorm.s_biased f4 [1, 5, 1]
0.0 0.0 0.0 0.0 0.0
00000000: 0000 0000 0000 0000 0000 0000 0000 0000
00000010: 0000 0000

dijetResNetBlock.multijetAttention.jetConv1.batchNorm.m_biased_first_moment f4 [1, 5, 1]
0.0 0.0 0.0 0.0 0.0
00000000: 0000 0000 0000 0000 0000 0000 0000 0000
00000010: 0000 0000

dijetResNetBlock.multijetAttention.jetConv1.batchNorm.s_biased_first_moment f4 [1, 5, 1]
0.0 0.0 0.0 0.0 0.0
00000000: 0000 0000 0000 0000 0000 0000 0000 0000
00000010: 0000 0000

dijetResNetBlock.multijetAttention.jetConv1.batchNorm.m_biased_second_moment f4 [1, 5, 1]
0.0 0.0 0.0 0.0 0.0
00000000: 0000 0000 0000 0000 0000 0000 0000 0000
00000010: 0000 0000

dijetResNetBlock.multijetAttention.jetConv1.batchNorm.s_biased_second_moment f4 [1, 5, 1]
0.0 0.0 0.0 0.0 0.0
00000000: 0000 0000 0000 0000 0000 0000 0000 0000
00000010: 0000 0000

dijetResNetBlock.multijetAttention.jetConv1.batchNorm.m_first_moment f4 [1, 5, 1]
0.0 0.0 0.0 0.0 0.0
00000000: 0000 0000 0000 0000 0000 0000 0000 0000
00000010: 0000 0000

dijetResNetBlock.multijetAttention.jetConv1.batchNorm.s_first_moment f4 [1, 5, 1]
0.0 0.0 0.0 0.0 0.0
00000000: 0000 0000 0000 0000 0000 0000 0000 0000
00000010: 0000 0000

dijetResNetBlock.multijetAttention.jetConv1.batchNorm.m_second_moment f4 [1, 5, 1]
0.0 0.0 0.0 0.0 0.0
00000000: 0000 0000 0000 0000 0000 0000 0000 0000
00000010: 0000 0000

dijetResNetBlock.multijetAttention.jetConv1.batchNorm.s_second_moment f4 [1, 5, 1]
0.0 0.0 0.0 0.0 0.0
00000000: 0000 0000 0000 0000 0000 0000 0000 0000
00000010: 0000 0000

dijetResNetBlock.multijetAttention.attention.q_linear.module.weight f4 [8, 9, 1]
-0.27519017 0.44127163 0.010821218 -0.883952 0.3191202 1.0333087 -0.19814125 0.7970012
-0.44576475 0.40987605 0.7875493 -0.19966812 -0.8861499 0.23280555 0.5299158 0.27126905
-1.049856 1.321982 0.5144416 -0.41119605 1.0047578 -0.17602599 2.4133544 -0.30855244
0.38584974 0.17249621 0.2720561 -0.73108935 0.536658 0.5425782 -0.63912696 0.76103467
-0.33804256 0.06938137 -1.6618559 0.16772427 0.3190369 -0.4844011 0.82501495 0.083682604
0.10122914 -0.76826197 0.07406664 0.46858522 0.08223791 0.2196812 0.033453796 -0.102570176
-0.3337362 -0.87504494 0.21949227 -0.4118661 0.48964077 0.3891899 0.27896035 -0.024495756
-0.27806008 -0.15660271 -0.7977415 0.24649197 -0.14975207 0.007634088 0.18926787 -0.99862945
0.6184379 -0.2998371 -0.01650404 -0.97011083 0.094606996 0.26270023 0.3548338 0.0923231
00000000: bae5 8cbe 5bee e13e 7a4b 313c ae4a 62bf
00000010: b963 a33e 7643 843f 8ae5 4abe 4508 4c3f
00000020: 473b e4be 46db d13e d59c 493f cd75 4cbe
00000030: b8da 62bf 9464 6e3e 90a8 073f c7e3 8a3e
00000040: ae61 86bf b536 a93f 72b2 033f 4a88 d2be
00000050: e79b 803f 2840 34be 6674 1a40 96fa 9dbe
00000060: 198e c53e d9a2 303e f04a 8b3e ac28 3bbf
00000070: 6b62 093f 68e6 0a3f d39d 23bf 2bd3 423f
00000080: ea13 adbe d217 8e3d b2b7 d4bf e9bf 2b3e
00000090: ce58 a33e 6c03 f8be 2e34 533f c961 ab3d
000000a0: 3951 cf3d d1ac 44bf 40b0 973d 67ea ef3e
000000b0: 596c a83d 1cf4 603e d906 093d 5010 d2bd
000000c0: 79df aabe f202 60bf 95c2 603e 1de0 d2be
000000d0: 32b2 fa3e e643 c73e e4d3 8e3e 53ab c8bc
000000e0: e45d 8ebe 765c 20be c938 4cbf 6468 7c3e
000000f0: 9b58 19be 5f27 fa3b 70cf 413e 2ea6 7fbf
00000100: f251 1e3f 4084 99be 7b33 87bc 2f59 78bf
00000110: 50c1 c13d a580 863e c7ac b53e e513 bd3d

dijetResNetBlock.multijetAttention.attention.q_linear.module.bias f4 [8]
-0.42495772 -0.50114715 -0.35633463 -1.105187 -0.7137716 0.5922969 -1.131916 0.41692126
00000000: 0f94 d9be 2e4b 00bf 7e71 b6be c576 8dbf
00000010: bcb9 36bf c5a0 173f a0e2 90bf b476 d53e

dijetResNetBlock.multijetAttention.attention.k_linear.module.weight f4 [8, 5, 1]
0.006360815 -0.045668766 -0.6146435 0.8771087 -0.9287329 -0.3660802 0.97185475 -0.1502264
-0.42735428 0.15411703 -0.37597027 0.74013823 0.37119266 0.3419529 -0.2864475 0.39678097
-0.53583556 -0.44488603 1.1088898 1.0936147 0.26488084 -0.35198244 0.33409452 0.32655615
0.5553413 -0.44432777 -0.07739878 0.12658572 -0.42197457 -0.6808449 -0.6610432 -0.6135457
0.18634413 -0.3538311 1.0270149 0.43591228 -0.034942966 0.026559077 -0.2631177 0.2447297
00000000: 626e d03b 2c0f 3bbd 4759 1dbf 328a 603f
00000010: 70c1 6dbf dd6e bbbe 79cb 783f f3d4 19be
00000020: 2ece dabe dbd0 1d3e 2d7f c0be b379 3d3f
00000030: f70c be3e 7314 af3e 3fa9 92be e026 cb3e
00000040: 852c 09bf 1ac8 e3be 1af0 8d3f 91fb 8b3f
00000050: 769e 873e 0b37 b4be 700e ab3e 5e32 a73e
00000060: d92a 0e3f ee7e e3be 4083 9ebd b09f 013e
00000070: 0d0d d8be da4b 2ebf 213a 29bf 5511 1dbf
00000080: ffd0 3e3e 5a29 b5be 3975 833f e52f df3e
00000090: 5b20 0fbd 6c92 d93c 5db7 86be 6c9a 7a3e

dijetResNetBlock.multijetAttention.attention.k_linear.module.bias f4 [8]
0.20867117 0.040715776 -0.20617528 -0.08174064 -0.10685522 -0.32903087 -0.14223172 0.14700283
00000000: e5ad 553e 96c5 263d 9d1f 53be a367 a7bd
00000010: e9d6 dabd bc76 a8be 31a5 11be e987 163e

dijetResNetBlock.multijetAttention.attention.v_linear.module.weight f4 [10, 5, 1]
1.2282344 0.999608 -0.6307557 1.6798322 -0.35412604 0.4592282 -1.5555315 0.040183116
1.3994669 -0.08465357 0.6372228 -1.172147 1.452956 0.52227485 -1.2330687 -1.6480482
0.12157485 0.33238825 0.59905726 -0.7509995 -0.027854463 -1.8884637 -0.19087404 0.3381321
0.119458735 -1.4687927 0.6062747 -1.3290313 -0.095006704 0.3351156 0.54588187 0.62897605
1.1714486 -1.54999 0.08770185 -1.3715013 -0.93126976 0.8792474 1.5282569 -1.2674158
-1.141703 1.0433592 -0.13390274 0.4414206 -0.8464514 -1.1862227 0.6204893 -0.70328206
0.37292615 -0.30077103
00000000: c936 9d3f 4fe6 7f3f 3579 21bf be04 d73f
00000010: 0250 b5be f51f eb3e a81b c7bf 0d97 243d
00000020: bb21 b33f da5e adbd 0921 233f ea08 96bf
00000030: 76fa b93f ceb3 053f 32d5 9dbf 3ef3 d2bf
00000040: 3cfc f83d cb2e aa3e d15b 193f 8141 40bf
00000050: 0b2f e4bc 2eb9 f1bf 7c74 43be a71f ad3e
00000060: c8a6 f43d 6601 bcbf d234 1b3f b31d aabf
00000070: e092 c2bd 4694 ab3e eabe 0b3f 9304 213f
00000080: 07f2 953f 1366 c6bf 079d b33d 5b8d afbf
00000090: b267 6ebf 5c16 613f ec9d c33f ae3a a2bf
000000a0: 5323 92bf cb8c 853f cd1d 09be e201 e23e
000000b0: 0ab1 58bf 25d6 97bf 63d8 1e3f 4b0a 34bf
000000c0: 2df0 be3e a9fe 99be

dijetResNetBlock.multijetAttention.attention.v_linear.module.bias f4 [10]
-0.89419806 -0.01593841 -0.726699 -0.060751263 0.41998467 1.2564332 0.14261736 -0.12931189
0.5596239 1.0372224
00000000: 2aea 64bf 4591 82bc f208 3abf 51d6 78bd
00000010: 3b08 d73e ced2 a03f 490a 123e 566a 04be
00000020: 8343 0f3f b4c3 843f

dijetResNetBlock.multijetAttention.attention.o_linear.module.weight f4 [9, 10, 1]
-0.88850546 0.20227788 0.58805966 0.87630004 -0.006700255 -0.80940783 3.3767166 -0.52497125
0.8706453 -0.24186808 -0.13407932 -0.45256993 -1.3413008 -0.07398403 -0.33489037 1.4471849
-0.16980624 -0.4743692 1.342788 1.6350778 0.49109283 1.1074486 0.47490633 0.39376205
1.165226 0.5758264 0.52228755 -1.9796014 0.3796003 0.39964435 2.3287363 0.28996402
-0.8220678 -0.5491792 -0.50622547 -1.3249083 0.79411465 0.29140264 0.35923418 -0.29650703
0.46059594 1.6741551 1.0947824 0.067972556 0.80900043 -0.6440071 0.4650256 0.5767903
-0.2274732 -0.7201922 -0.20657441 0.636942 2.368077 -0.3109176 0.39997527 -1.9258883
0.63281864 -0.012218063 -0.5201319 -0.7304651 -1.0621134 -0.1268805 1.029738 -1.1539733
-0.10835146 1.4143466 0.5549792 -0.0475786 1.5832411 1.2831993 -1.0473343 -0.13364859
-1.9261299 -1.6376208 0.63813734 -0.052315943 0.08085015 1.1139327 -0.09861496 0.4545961
0.17314899 -1.0042475 0.6491902 0.13182496 -1.2767279 -0.18173046 -0.57318187 1.5071924
0.7290225 0.12909688
00000000: 1875 63bf ef21 4f3e 148b 163f 3355 603f
00000010: d08d dbbb 5a35 4fbf 201c 5840 8464 06bf
00000020: 9ce2 5e3f 44ac 77be 174c 09be 3fb7 e7be
00000030: bfaf abbf f084 97bd c076 abbe 5b3d b93f
00000040: b0e1 2dbe 85e0 f2be 7ae0 ab3f 3b4a d13f
00000050: 8570 fb3e e0c0 8d3f ec26 f33e 2e9b c93e
00000060: 2026 953f 5c69 133f a3b4 053f 9463 fdbf
00000070: f85a c23e 2f9e cc3e 040a 1540 2a76 943e
00000080: 0973 52bf 0297 0cbf fe97 01bf 9896 a9bf
00000090: 194b 4b3f ba32 953e 8bed b73e c5cf 97be
000000a0: 3bd3 eb3e b74a d63f d421 8c3f 3235 8b3d
000000b0: a71a 4f3f a6dd 24bf d617 ee3e 87a8 133f
000000c0: bcee 68be 845e 38bf 3e88 53be a20e 233f
000000d0: 938e 1740 9730 9fbe 8fc9 cc3e 8283 f6bf
000000e0: 6700 223f 452e 48bc 5d27 05bf c3ff 3abf
000000f0: 55f3 87bf f6ec 01be 74ce 833f 66b5 93bf
00000100: 5fe7 ddbd 4f09 b53f 1e13 0e3f c7e1 42bd
00000110: a5a7 ca3f e03f a43f 0d0f 86bf 2ddb 08be
00000120: 6d8b f6bf 8f9d d1bf f85c 233f 3e49 56bd
00000130: c394 a53d 5995 8e3f a4f6 c9bd d2c0 e83e
00000140: f84d 313e 2f8b 80bf 5431 263f 1ffd 063e
00000150: d26b a3bf 8d17 3abe 0cbc 12bf aeeb c03f
00000160: 38a1 3a3f f931 043e

dijetResNetBlock.multijetAttention.attention.o_linear.batchNorm.gamma f4 [9]
0.93806046 0.3261271 0.66740286 0.81850994 0.4800785 1.5393487 0.5138539 0.5004779
1.656604
00000000: bb24 703f 22fa a63e eada 2a3f de89 513f
00000010: d9cc f53e 6109 c53f ee8b 033f 521f 003f
00000020: 9a0b d43f

dijetResNetBlock.multijetAttention.attention.o_linear.batchNorm.bias f4 [9]
0.0 0.0 0.0 0.0 0.0 0.0 0.0 0.0
0.0
00000000: 0000 0000 0000 0000 0000 0000 0000 0000
00000010: 0000 0000 0000 0000 0000 0000 0000 0000
00000020: 0000 0000

dijetResNetBlock.multijetAttention.attention.o_linear.batchNorm.m f4 [1, 9, 1]
0.0 0.0 0.0 0.0 0.0 0.0 0.0 0.0
0.0
00000000: 0000 0000 0000 0000 0000 0000 0000 0000
00000010: 0000 0000 0000 0000 0000 0000 0000 0000
00000020: 0000 0000

dijetResNetBlock.multijetAttention.attention.o_linear.batchNorm.s f4 [1, 9, 1]
8.727778 7.6925564 3.8533878 3.7331643 7.2178135 8.7233515 4.618286 4.1599274
6.1322947
00000000: fba4 0b41 6c29 f640 e89d 7640 2aec 6e40
00000010: 54f8 e640 d992 0b41 00c9 9340 201e 8540
00000020: c23b c440

dijetResNetBlock.multijetAttention.attention.o_linear.batchNorm.m_biased f4 [1, 9, 1]
0.0 0.0 0.0 0.0 0.0 0.0 0.0 0.0
0.0
00000000: 0000 0000 0000 0000 0000 0000 0000 0000
00000010: 0000 0000 0000 0000 0000 0000 0000 0000
00000020: 0000 0000

dijetResNetBlock.multijetAttention.attention.o_linear.batchNorm.s_biased f4 [1, 9, 1]
0.0 0.0 0.0 0.0 0.0 0.0 0.0 0.0
0.0
00000000: 0000 0000 0000 0000 0000 0000 0000 0000
00000010: 0000 0000 0000 0000 0000 0000 0000 0000
00000020: 0000 0000

dijetResNetBlock.multijetAttention.attention.o_linear.batchNorm.m_biased_first_moment f4 [1, 9, 1]
0.0 0.0 0.0 0.0 0.0 0.0 0.0 0.0
0.0
00000000: 0000 0000 0000 0000 0000 0000 0000 0000
00000010: 0000 0000 0000 0000 0000 0000 0000 0000
00000020: 0000 0000

dijetResNetBlock.multijetAttention.attention.o_linear.batchNorm.s_biased_first_moment f4 [1, 9, 1]
0.0 0.0 0.0 0.0 0.0 0.0 0.0 0.0
0.0
00000000: 0000 0000 0000 0000 0000 0000 0000 0000
00000010: 0000 0000 0000 0000 0000 0000 0000 0000
00000020: 0000 0000

dijetResNetBlock.multijetAttention.attention.o_linear.batchNorm.m_biased_second_moment f4 [1, 9, 1]
0.0 0.0 0.0 0.0 0.0 0.0 0.0 0.0
0.0
00000000: 0000 0000 0000 0000 0000 0000 0000 0000
00000010: 0000 0000 0000 0000 0000 0000 0000 0000
00000020: 0000 0000

dijetResNetBlock.multijetAttention.attention.o_linear.batchNorm.s_biased_second_moment f4 [1, 9, 1]
0.0 0.0 0.0 0.0 0.0 0.0 0.0 0.0
0.0
00000000: 0000 0000 0000 0000 0000 0000 0000 0000
00000010: 0000 0000 0000 0000 0000 0000 0000 0000
00000020: 0000 0000

dijetResNetBlock.multijetAttention.attention.o_linear.batchNorm.m_first_moment f4 [1, 9, 1]
0.0 0.0 0.0 0.0 0.0 0.0 0.0 0.0
0.0
00000000: 0000 0000 0000 0000 0000 0000 0000 0000
00000010: 0000 0000 0000 0000 0000 0000 0000 0000
00000020: 0000 0000

dijetResNetBlock.multijetAttention.attention.o_linear.batchNorm.s_first_moment f4 [1, 9, 1]
0.0 0.0 0.0 0.0 0.0 0.0 0.0 0.0
0.0
00000000: 0000 0000 0000 0000 0000 0000 0000 0000
00000010: 0000 0000 0000 0000 0000 0000 0000 0000
00000020: 0000 0000

dijetResNetBlock.multijetAttention.attention.o_linear.batchNorm.m_second_moment f4 [1, 9, 1]
0.0 0.0 0.0 0.0 0.0 0.0 0.0 0.0
0.0
00000000: 0000 0000 0000 0000 0000 0000 0000 0000
00000010: 0000 0000 0000 0000 0000 0000 0000 0000
00000020: 0000 0000

dijetResNetBlock.multijetAttention.attention.o_linear.batchNorm.s_second_moment f4 [1, 9, 1]
0.0 0.0 0.0 0.0 0.0 0.0 0.0 0.0
0.0
00000000: 0000 0000 0000 0000 0000 0000 0000 0000
00000010: 0000 0000 0000 0000 0000 0000 0000 0000
00000020: 0000 0000

dijetEmbed.module.weight f4 [9, 9, 1]
-0.11882001 0.3534576 1.1260031 -0.3105471 0.13072026 -0.38362628 0.34875962 -2.142365
-0.11013286 -0.20262726 0.07598505 1.0871898 -0.5300472 0.099329226 1.1507732 -0.15699898
-0.33923578 -1.2846648 -0.2782584 -0.3048719 -0.35708466 0.895963 -1.9223616 0.3229126
-1.098537 0.36871913 0.7713127 0.78187037 0.013833175 0.40749785 -0.13982198 0.52303916
0.41877902 -0.22224136 0.7681443 -0.5069047 0.2742783 -0.7611417 -1.8720462 -1.6010392
0.0067678946 -0.25037095 0.6769829 -1.0994598 -1.1507035 0.8362622 -0.2672205 -0.40350816
0.021681294 0.07762097 -0.65607053 0.72915936 0.7707157 0.26975775 -0.31627333 0.9091891
0.35636848 0.48465765 0.70896167 -1.132065 -0.26259008 -0.6853374 0.019784972 -1.3830508
0.080002055 0.18224736 -0.43826053 0.14676934 -0.11942144 0.09581556 0.21535589 0.37726545
0.24000813 1.7230905 -0.48651165 -0.26274312 0.20212524 -1.0662752 -0.21240431 -0.44051892
-0.22710398
00000000: e857 f3bd 65f8 b43e df20 903f 0800 9fbe
00000010: 88db 053e aa6a c4be 9f90 b23e 821c 09c0
00000020: 568d e1bd 857d 4fbe 0d9e 9b3d 0929 8b3f
00000030: 2cb1 07bf 1f6d cb3d 894c 933f 57c4 20be
00000040: 50b0 adbe e56f a4bf e377 8ebe 2b18 9cbe
00000050: cdd3 b6be d55d 653f f20f f6bf cd54 a53e
00000060: dc9c 8cbf c1c8 bc3e c074 453f a828 483f
00000070: 8ba4 623c 8fa3 d03e 7e2d 0fbe e5e5 053f
00000080: 346a d63e 3d93 63be 1ba5 443f 82c4 01bf
00000090: 356e 8c3e 2fda 42bf 369f efbf daee ccbf
000000a0: 37c5 dd3b 9f30 80be c04e 2d3f 19bb 8cbf
000000b0: 414a 93bf 4815 563f 20d1 88be 9f98 cebe
000000c0: f89c b13c bef7 9e3d 3df4 27bf 30aa 3a3f
000000d0: a04d 453f b01d 8a3e 94ee a1be 9ec0 683f
000000e0: ee75 b63e 0c25 f83e 837e 353f 82e7 90bf
000000f0: 3572 86be 4672 2fbf 1814 a23c cf07 b1bf
00000100: 1ed8 a33d 0d9f 3a3e af63 e0be b44a 163e
00000110: 3a93 f4bd f33a c43d 4186 5c3e f028 c13e
00000120: b1c4 753e 3b8e dc3f 0e18 f9be 4486 86be
00000130: ebf9 4e3e b57b 88bf 8480 59be b28b e1be
00000140: f28d 68be

dijetEmbed.module.bias f4 [9]
0.95735925 -0.26612324 -0.80165035 1.1597627 0.19894274 2.6183758 1.3696755 2.0894346
-0.23555675
00000000: 7f15 753f 4e41 88be f538 4dbf 1b73 943f
00000010: a5b7 4b3e 7893 2740 8751 af3f 4cb9 0540
00000020: ca35 71be

quadjetAncillaryEmbed.module.weight f4 [9, 6, 1]
-0.46930665 -0.048070014 -0.8046411 -1.3940957 -0.3408512 -0.45449367 -0.13229008 0.34387878
0.2663554 0.88038576 0.4605847 0.55221874 0.7911066 -0.20367031 0.28219965 0.25705826
-1.3752928 -0.15620501 0.40636516 0.16357385 -0.5269649 -1.5459297 0.08675982 -0.22274676
0.3809521 -0.09499831 -1.0104947 -0.8604 -0.3145198 0.57629067 0.29010457 0.17119141
0.5773799 -1.6872882 0.19142732 0.20485811 -0.01408966 0.18653412 0.47525588 -1.1190997
1.2577807 0.2969103 -0.3533241 0.021301953 2.3803701 -0.51086515 -0.23099089 0.028575672
0.051085435 0.07775796 0.13584317 0.33286986 0.018472219 -2.9648454
00000000: f648 f0be 10e5 44bd f6fc 4dbf ba71 b2bf
00000010: 0c84 aebe 65b3 e8be 0d77 07be e110 b03e
00000020: bc5f 883e f660 613f c2d1 eb3e 355e 0d3f
00000030: f685 4a3f f38e 50be 797c 903e 249d 833e
00000040: 9809 b0bf 35f4 1fbe 180f d03e e77f 273e
00000050: 2ce7 06bf 06e1 c5bf 22af b13d ba17 64be
00000060: 270c c33e 798e c2bd e457 81bf 2d43 5cbf
00000070: bd08 a1be c987 133f 9688 943e cd4c 2f3e
00000080: 2bcf 133f 0ff9 d7bf 8605 443e 53c6 513e
00000090: 51d8 66bc cd02 3f3e bd54 f33e a93e 8fbf
000000a0: f5fe a03f a004 983e e5e6 b4be 6f81 ae3c
000000b0: fc57 1840 0fc8 02bf e088 6cbe 8717 ea3c
000000c0: f63e 513d 913f 9f3d 791a 0b3e eb6d aa3e
000000d0: 0d53 973c 07c0 3dc0

quadjetAncillaryEmbed.module.bias f4 [9]
-1.049909 0.22250876 0.34417295 -1.153388 0.33051386 1.0505943 0.8574431 0.4160218
-0.1541383
00000000: 6b63 86bf 56d9 633e 7037 b03e 38a2 93bf
00000010: 1d39 a93e e079 863f 6481 5b3f cf00 d53e
00000020: 6ed6 1dbe

quadjetResNetBlock.reinforce1.sym.weight f4 [9, 1, 2]
0.5 0.5 0.5 0.5 0.5 0.5 0.5 0.5
0.5 0.5 0.5 0.5 0.5 0.5 0.5 0.5
0.5 0.5
00000000: 0000 003f 0000 003f 0000 003f 0000 003f
00000010: 0000 003f 0000 003f 0000 003f 0000 003f
00000020: 0000 003f 0000 003f 0000 003f 0000 003f
00000030: 0000 003f 0000 003f 0000 003f 0000 003f
00000040: 0000 003f 0000 003f

quadjetResNetBlock.reinforce1.antisym.weight f4 [9, 1, 2]
0.5 -0.5 0.5 -0.5 0.5 -0.5 0.5 -0.5
0.5 -0.5 0.5 -0.5 0.5 -0.5 0.5 -0.5
0.5 -0.5
00000000: 0000 003f 0000 00bf 0000 003f 0000 00bf
00000010: 0000 003f 0000 00bf 0000 003f 0000 00bf
00000020: 0000 003f 0000 00bf 0000 003f 0000 00bf
00000030: 0000 003f 0000 00bf 0000 003f 0000 00bf
00000040: 0000 003f 0000 00bf

quadjetResNetBlock.reinforce1.conv.module.weight f4 [9, 9, 3]
0.26425388 -0.7752477 -1.6005117 0.16772492 0.28644088 1.1579016 -0.7079342 1.2989811
-0.90648335 -0.3265554 2.153471 0.047021843 -0.428866 0.6548811 2.4658315 -0.064336374
-0.120030634 0.12675838 0.007854433 0.44778493 1.1019014 0.02118356 -0.07447397 0.33410376
0.19271904 -1.1327513 -0.20765029 0.018984627 0.3626244 -1.4350287 0.70796037 0.8225549
-0.42655382 -0.26037675 0.14182554 -2.1417325 -0.47675884 0.42713186 0.147352 0.26499093
-1.4752305 -2.065763 -1.8510025 0.08915014 -0.49576634 -0.36024997 0.83363646 -1.393325
0.18503153 -1.1013472 0.55875814 0.67468214 -0.5211534 -0.2154853 0.5628463 -2.7912636
-0.5370047 -0.8626162 0.44689423 0.46308845 1.3031067 0.39585215 0.48199973 -0.39699388
1.5385529 0.92207026 0.9207104 1.987875 -2.072736 -0.052857198 -1.1024737 -0.03849753
-0.25362718 0.9782664 1.3409585 -0.5106601 -3.8778567 -0.60143334 -0.66514856 0.4772087
-0.4883938 0.2401238 0.2196015 -1.9742861 -0.3787442 -0.14635414 -0.96165645 -0.50634784
-1.0232633 0.76627177 0.09167585 0.43726683 -1.5738028 -0.2571093 -0.7874935 -2.2843492
1.2824866 -0.8471076 -0.69135785 0.16922903 -0.28213942 0.047940582 0.24027142 -0.542089
-1.8488954 -0.18439808 0.8763483 -1.085784 -1.0858636 0.27707744 -0.15902989 -0.4030886
-1.1524451 -0.64225036 0.442224 1.418973 3.084498 0.50199413 -0.62785876 0.65786606
0.70153373 -0.46012938 -0.80370855 0.36220807 0.18506917 -0.2875206 0.6699375 -1.505052
-0.19355918 -1.0144557 -1.9061173 0.18629861 -1.1114345 -0.69819784 -0.12570733 -0.80282503
0.84337765 0.49445125 0.42043903 0.080895744 -0.09214889 -0.10837334 0.8028387 0.028176896
-1.1610007 -0.05409806 0.6192944 0.89533824 0.3403425 0.07113385 -2.1597397 -2.1280112
-0.47783798 0.36512557 -0.80916184 1.0255487 1.2032968 -0.72739893 -0.57736397 0.6860556
0.18752328 0.4680269 -0.5651166 1.4933 -0.31617856 0.34857342 -1.1420591 0.0021632835
0.8939125 1.1733947 1.33938 -0.66335434 0.68166524 -0.15636627 1.4048574 -0.44715777
-0.7092355 1.4961838 -1.2732552 -0.32379824 0.028167302 -1.0176313 -1.6111122 -0.69188786
-0.5116862 -0.7217668 0.46712494 0.60039556 -1.026768 0.0040056175 -0.47386634 -2.0722966
-0.51768893 -0.11484709 -0.20320539 0.13081399 0.25850868 0.5399009 0.4065332 0.3633087
-1.0253451 -0.67829823 -0.87089276 -1.9459443 0.24516554 1.1916555 0.9913186 -0.10155805
0.6889165 0.094370626 -0.81064767 -1.2289335 -2.4878042 0.48184714 -0.7493037 -0.34893218
-0.48963842 0.007618911 1.5111946 -1.6914504 -0.924492 -1.4597926 0.20570126 0.962553
0.11299856 0.38254133 -0.60248816 -0.18755169 1.6276908 -0.083153464 0.3004042 -0.39451173
2.2616804 -0.038318194 -0.31024495 -0.119705155 -0.8277366 -0.7802239 0.69071406 0.14478774
-1.2797201 -0.62861514 -1.0800704
00000000: 494c 873e a276 46bf 91dd ccbf 15c0 2b3e
00000010: 61a8 923e 1f36 943f 2d3b 35bf 0345 a63f
00000020: 4b0f 68bf 4532 a7be 78d2 0940 fa99 403d
00000030: 5394 dbbe 4aa6 273f 2fd0 1d40 cac2 83bd
00000040: 9fd2 f5bd f3cc 013e e1af 003c 1144 e53e
00000050: 1b0b 8d3f 2589 ad3c cf85 98bd a60f ab3e
00000060: 2458 453e fffd 90bf 47a2 54be a685 9b3c
00000070: e8a9 b93e 05af b7bf e43c 353f f592 523f
00000080: 4365 dabe 1a50 85be b73a 113e 2512 09c0
00000090: bc19 f4be 07b1 da3e 71e3 163e e4ac 873e
000000a0: 5ad4 bcbf 7635 04c0 a6ed ecbf 5994 b63d
000000b0: 16d5 fdbe af72 b8be 3369 553f 7958 b2bf
000000c0: e878 3d3e f2f8 8cbf c60a 0f3f f8b7 2c3f
000000d0: 4f6a 05bf 2ea8 5cbe b216 103f 10a4 32c0
000000e0: 2479 09bf 6ad4 5cbf 52cf e43e ee19 ed3e
000000f0: 33cc a63f 22ad ca3e abc8 f63e c842 cbbe
00000100: 4def c43f cc0c 6c3f adb3 6b3f b072 fe3f
00000110: b5a7 04c0 ca80 58bd dc1d 8dbf 96af 1dbd
00000120: 6cdb 81be ab6f 7a3f 87a4 ab3f 9fba 02bf
00000130: ce2e 78c0 89f7 19bf 2d47 2abf b354 f43e
00000140: c10e fabe 03e3 753e 37df 603e 68b5 fcbf
00000150: c3ea c1be dcdd 15be 1e2f 76bf 03a0 01bf
00000160: 4bfa 82bf 632a 443f 8cc0 bb3d 70e1 df3e
00000170: 5f72 c9bf d5a3 83be 2d99 49bf c732 12c0
00000180: 8528 a43f 0bdc 58bf d4fc 30bf 604a 2d3e
00000190: 9474 90be 585d 443d b609 763e 58c6 0abf
000001a0: 9ba8 ecbf dad2 3cbe 5d58 603f f8fa 8abf
000001b0: 94fd 8abf 18dd 8d3e bbd8 22be a161 cebe
000001c0: 5283 93bf 856a 24bf 2f6b e23e e8a0 b53f
000001d0: 6a68 4540 b082 003f 5abb 20bf e969 283f
000001e0: b797 333f 1496 ebbe d8bf 4dbf 5673 b93e
000001f0: c682 3d3e e635 93be 0681 2b3f 8ba5 c0bf
00000200: 6134 46be afd9 81bf a7fb f3bf 10c5 3e3e
00000210: 7c43 8ebf 18bd 32bf 6cb9 00be f185 4dbf
00000220: 99e7 573f b728 fd3e c943 d73e abac a53d
00000230: 8fb8 bcbd d7f2 ddbd d686 4d3f 3cd3 e63c
00000240: ac9b 94bf ed95 5dbd 148a 1e3f e334 653f
00000250: 5f41 ae3e a0ae 913d 2d39 0ac0 5631 08c0
00000260: 2ea7 f4be bdf1 ba3e 3b25 4fbf 2e45 833f
00000270: a105 9a3f d136 3abf 20ce 13bf 57a1 2f3f
00000280: 1a06 403e 39a1 ef3e 7bab 10bf 7424 bf3f
00000290: 28e2 a1be 3778 b23e fe2e 92bf e0c5 0d3b
000002a0: 73d7 643f cc31 963f ce70 ab3f 97d1 29bf
000002b0: 9d81 2e3f 7b1e 20be 5ed2 b33f ddf1 e4be
000002c0: 7590 35bf f382 bf3f 07fa a2bf e2c8 a5be
000002d0: 1dbf e63c be41 82bf ed38 cebf 901f 31bf
000002e0: defd 02bf b6c5 38bf 002b ef3e 86b3 193f
000002f0: 226d 83bf 8e41 833b 9c9e f2be 82a0 04c0
00000300: 4387 04bf f334 ebbd 1315 50be 1af4 053e
00000310: 405b 843e f236 0a3f 1f25 d03e 9903 ba3e
00000320: 823e 83bf f4a4 2dbf d4f2 5ebf b414 f9bf
00000330: ad0c 7b3e 2b88 983f 0ec7 7d3f abfd cfbd
00000340: d55c 303f 6345 c13d 9b86 4fbf b14d 9dbf
00000350: 2f38 1fc0 abb4 f63e 5ed2 3fbf 3da7 b2be
00000360: e3b1 fabe 0fa8 f93b d36e c13f 7281 d8bf
00000370: 82ab 6cbf 7cda babf 5aa3 523e e069 763f
00000380: ca6b e73d 75dc c33e aa3c 1abf 8d0d 40be
00000390: 2c58 d03f 5d4c aabd 94ce 993e 71fd c9be
000003a0: 5fbf 1040 8af3 1cbd 6dd8 9ebe fa27 f5bd
000003b0: 8ce6 53bf c1bc 47bf a3d2 303f 3d43 143e
000003c0: decd a3bf ecec 20bf bf3f 8abf

quadjetResNetBlock.reinforce1.conv.batchNorm.gamma f4 [9]
0.6877735 0.9111842 1.4311386 2.276032 2.028825 1.1631982 1.2817805 0.84172964
0.5802449
00000000: ed11 303f 5e43 693f 8d2f b73f 82aa 1140
00000010: 45d8 0140 aee3 943f 6211 a43f 987b 573f
00000020: ee8a 143f

quadjetResNetBlock.reinforce1.conv.batchNorm.bias f4 [9]
-0.1371774 -0.17308526 0.036263697 -1.3579236 -1.4195029 -0.36885318 -0.12072587 0.07941147
-0.5472223
00000000: 3b78 0cbe 433d 31be 3e89 143d 71d0 adbf
00000010: 45b2 b5bf 53da bcbe 203f f7bd 7ba2 a23d
00000020: c316 0cbf

quadjetResNetBlock.reinforce1.conv.batchNorm.m f4 [1, 9, 1]
3.4162862 -11.546682 -2.4886842 -0.30150777 -0.6770841 -9.53622 -0.86949766 -1.8550582
-4.26449
00000000: 6fa4 5a40 36bf 38c1 9a46 1fc0 3a5f 9abe
00000010: 6255 2dbf 5b94 18c1 6697 5ebf 8c72 edbf
00000020: b476 88c0

quadjetResNetBlock.reinforce1.conv.batchNorm.s f4 [1, 9, 1]
3.5100503 4.291715 4.302487 4.7780046 4.1318817 5.3563204 4.3998957 4.0987177
3.683254
00000000: aaa4 6040 bb55 8940 f9ad 8940 6ae5 9840
00000010: 6038 8440 fa66 ab40 f2cb 8c40 b228 8340
00000020: 6fba 6b40

quadjetResNetBlock.reinforce1.conv.batchNorm.m_biased f4 [1, 9, 1]
0.0 0.0 0.0 0.0 0.0 0.0 0.0 0.0
0.0
00000000: 0000 0000 0000 0000 0000 0000 0000 0000
00000010: 0000 0000 0000 0000 0000 0000 0000 0000
00000020: 0000 0000

quadjetResNetBlock.reinforce1.conv.batchNorm.s_biased f4 [1, 9, 1]
0.0 0.0 0.0 0.0 0.0 0.0 0.0 0.0
0.0
00000000: 0000 0000 0000 0000 0000 0000 0000 0000
00000010: 0000 0000 0000 0000 0000 0000 0000 0000
00000020: 0000 0000

quadjetResNetBlock.reinforce1.conv.batchNorm.m_biased_first_moment f4 [1, 9, 1]
0.0 0.0 0.0 0.0 0.0 0.0 0.0 0.0
0.0
00000000: 0000 0000 0000 0000 0000 0000 0000 0000
00000010: 0000 0000 0000 0000 0000 0000 0000 0000
00000020: 0000 0000

quadjetResNetBlock.reinforce1.conv.batchNorm.s_biased_first_moment f4 [1, 9, 1]
0.0 0.0 0.0 0.0 0.0 0.0 0.0 0.0
0.0
00000000: 0000 0000 0000 0000 0000 0000 0000 0000
00000010: 0000 0000 0000 0000 0000 0000 0000 0000
00000020: 0000 0000

quadjetResNetBlock.reinforce1.conv.batchNorm.m_biased_second_moment f4 [1, 9, 1]
0.0 0.0 0.0 0.0 0.0 0.0 0.0 0.0
0.0
00000000: 0000 0000 0000 0000 0000 0000 0000 0000
00000010: 0000 0000 0000 0000 0000 0000 0000 0000
00000020: 0000 0000

quadjetResNetBlock.reinforce1.conv.batchNorm.s_biased_second_moment f4 [1, 9, 1]
0.0 0.0 0.0 0.0 0.0 0.0 0.0 0.0
0.0
00000000: 0000 0000 0000 0000 0000 0000 0000 0000
00000010: 0000 0000 0000 0000 0000 0000 0000 0000
00000020: 0000 0000

quadjetResNetBlock.reinforce1.conv.batchNorm.m_first_moment f4 [1, 9, 1]
0.0 0.0 0.0 0.0 0.0 0.0 0.0 0.0
0.0
00000000: 0000 0000 0000 0000 0000 0000 0000 0000
00000010: 0000 0000 0000 0000 0000 0000 0000 0000
00000020: 0000 0000

quadjetResNetBlock.reinforce1.conv.batchNorm.s_first_moment f4 [1, 9, 1]
0.0 0.0 0.0 0.0 0.0 0.0 0.0 0.0
0.0
00000000: 0000 0000 0000 0000 0000 0000 0000 0000
00000010: 0000 0000 0000 0000 0000 0000 0000 0000
00000020: 0000 0000

quadjetResNetBlock.reinforce1.conv.batchNorm.m_second_moment f4 [1, 9, 1]
0.0 0.0 0.0 0.0 0.0 0.0 0.0 0.0
0.0
00000000: 0000 0000 0000 0000 0000 0000 0000 0000
00000010: 0000 0000 0000 0000 0000 0000 0000 0000
00000020: 0000 0000

quadjetResNetBlock.reinforce1.conv.batchNorm.s_second_moment f4 [1, 9, 1]
0.0 0.0 0.0 0.0 0.0 0.0 0.0 0.0
0.0
00000000: 0000 0000 0000 0000 0000 0000 0000 0000
00000010: 0000 0000 0000 0000 0000 0000 0000 0000
00000020: 0000 0000

quadjetResNetBlock.convD.module.weight f4 [9, 9, 1]
-0.4516778 -0.41801944 0.110006675 0.7965965 -2.691414 -1.3098046 -0.66469944 -0.07002227
-0.0061154687 -0.5980663 0.9058633 -1.0030763 0.21246214 -1.8767772 -0.7769135 -1.3952144
0.20962225 -0.8643816 1.2500824 -1.4431468 0.56549585 0.5182853 -0.76932484 -0.66133034
-1.1269597 0.9316949 -0.9391928 0.24216579 1.230302 0.25126806 -1.4444058 -0.59526414
-0.8088999 1.6269372 0.12813732 -0.4896146 -0.28816697 -0.35161853 -1.1637106 -0.14169297
-0.5474365 0.6841726 -1.6389782 0.12506512 -1.8661896 1.3814586 -0.40781292 -0.9788543
-1.3698194 -0.9177494 0.80059725 -0.082203075 0.13799804 -0.59431565 -0.9641445 -0.5968362
0.049945243 0.2193857 0.41766116 -1.2371658 -0.6623541 1.0132271 -0.9428099 0.29261187
1.4023885 0.040802293 -0.63296175 0.48120603 0.21685447 1.29755 -1.46155 -0.27593258
0.55507535 -1.9715916 1.5035305 -1.2473352 0.28322986 0.16985565 0.73707694 -0.8230043
0.11593612
00000000: 5042 e7be a506 d6be 2e4b e13d c0ed 4b3f
00000010: 2140 2cc0 ada7 a7bf be29 2abf d667 8fbd
00000020: 4564 c8bb df1a 19bf a8e6 673f ce64 80bf
00000030: ad8f 593e 3c3a f0bf cee3 46bf 6396 b2bf
00000040: 37a7 563e 1d48 5dbf b302 a03f 09b9 b8bf
00000050: 56c4 103f 58ae 043f 79f2 44bf f24c 29bf
00000060: 3740 90bf 8f83 6e3f f06e 70bf 4ffa 773e
00000070: 897a 9d3f 35a6 803e 4ae2 b8bf 3b63 18bf
00000080: 1014 4fbf 7a3f d03f 6e36 033e c4ae fabe
00000090: 9f8a 93be 5807 b4be 78f4 94bf f617 11be
000000a0: cc24 0cbf ef25 2f3f 0aca d1bf 1211 003e
000000b0: 4ddf eebf a3d3 b03f dbcc d0be 3296 7abf
000000c0: 3e56 afbf a0f1 6abf f1f3 4c3f 165a a8bd
000000d0: 5c4f 0d3e 1225 18bf 2dd2 76bf 42ca 18bf
000000e0: 6293 4c3d a5a6 603e afd7 d53e 735b 9ebf
000000f0: 0a90 29bf 6db1 813f fd5b 71bf 39d1 953e
00000100: 7781 b33f 4e20 273d c809 22bf a360 f63e
00000110: 190f 5e3e 1e16 a63f 1214 bbbf 0947 8dbe
00000120: 6b19 0e3f 1d5d fcbf b073 c03f aea8 9fbf
00000130: 8103 913e a4ee 2d3e 13b1 3c3f 69b0 52bf
00000140: eb6f ed3d

quadjetResNetBlock.convD.batchNorm.gamma f4 [9]
1.6244301 0.62921077 0.544313 1.2035434 0.66789156 0.5734241 0.27954096 1.8673646
0.66783243
00000000: 53ed cf3f f513 213f 1958 0b3f b60d 9a3f
00000010: f1fa 2a3f eccb 123f fe1f 8f3e ce05 ef3f
00000020: 11f7 2a3f

quadjetResNetBlock.convD.batchNorm.bias f4 [9]
-0.18598153 0.74940336 0.4217938 0.51102155 0.15948881 -0.016964158 0.23718305 0.067810014
0.63361603
00000000: f171 3ebe e6d8 3f3f 5bf5 d73e 4fd2 023f
00000010: 0951 233e 6bf8 8abc 1de0 723e fadf 8a3d
00000020: a934 223f

quadjetResNetBlock.convD.batchNorm.m f4 [1, 9, 1]
-7.419689 -8.938361 -3.0244718 -0.60271794 -4.837315 0.9975266 -6.8127513 2.793788
0.63155264
00000000: 186e edc0 8703 0fc1 f290 41c0 b94b 1abf
00000010: 49cb 9ac0 e75d 7f3f 0f02 dac0 6ccd 3240
00000020: 6fad 213f

quadjetResNetBlock.convD.batchNorm.s f4 [1, 9, 1]
5.8048477 5.256254 3.820903 4.5337014 4.7580013 3.8191857 4.841032 4.7595205
4.514602
00000000: 50c1 b940 3c33 a840 ad89 7440 1514 9140
00000010: 8c41 9840 8a6d 7440 bce9 9a40 fe4d 9840
00000020: 9f77 9040

quadjetResNetBlock.convD.batchNorm.m_biased f4 [1, 9, 1]
0.0 0.0 0.0 0.0 0.0 0.0 0.0 0.0
0.0
00000000: 0000 0000 0000 0000 0000 0000 0000 0000
00000010: 0000 0000 0000 0000 0000 0000 0000 0000
00000020: 0000 0000

quadjetResNetBlock.convD.batchNorm.s_biased f4 [1, 9, 1]
0.0 0.0 0.0 0.0 0.0 0.0 0.0 0.0
0.0
00000000: 0000 0000 0000 0000 0000 0000 0000 0000
00000010: 0000 0000 0000 0000 0000 0000 0000 0000
00000020: 0000 0000

quadjetResNetBlock.convD.batchNorm.m_biased_first_moment f4 [1, 9, 1]
0.0 0.0 0.0 0.0 0.0 0.0 0.0 0.0
0.0
00000000: 0000 0000 0000 0000 0000 0000 0000 0000
00000010: 0000 0000 0000 0000 0000 0000 0000 0000
00000020: 0000 0000

quadjetResNetBlock.convD.batchNorm.s_biased_first_moment f4 [1, 9, 1]
0.0 0.0 0.0 0.0 0.0 0.0 0.0 0.0
0.0
00000000: 0000 0000 0000 0000 0000 0000 0000 0000
00000010: 0000 0000 0000 0000 0000 0000 0000 0000
00000020: 0000 0000

quadjetResNetBlock.convD.batchNorm.m_biased_second_moment f4 [1, 9, 1]
0.0 0.0 0.0 0.0 0.0 0.0 0.0 0.0
0.0
00000000: 0000 0000 0000 0000 0000 0000 0000 0000
00000010: 0000 0000 0000 0000 0000 0000 0000 0000
00000020: 0000 0000

quadjetResNetBlock.convD.batchNorm.s_biased_second_moment f4 [1, 9, 1]
0.0 0.0 0.0 0.0 0.0 0.0 0.0 0.0
0.0
00000000: 0000 0000 0000 0000 0000 0000 0000 0000
00000010: 0000 0000 0000 0000 0000 0000 0000 0000
00000020: 0000 0000

quadjetResNetBlock.convD.batchNorm.m_first_moment f4 [1, 9, 1]
0.0 0.0 0.0 0.0 0.0 0.0 0.0 0.0
0.0
00000000: 0000 0000 0000 0000 0000 0000 0000 0000
00000010: 0000 0000 0000 0000 0000 0000 0000 0000
00000020: 0000 0000

quadjetResNetBlock.convD.batchNorm.s_first_moment f4 [1, 9, 1]
0.0 0.0 0.0 0.0 0.0 0.0 0.0 0.0
0.0
00000000: 0000 0000 0000 0000 0000 0000 0000 0000
00000010: 0000 0000 0000 0000 0000 0000 0000 0000
00000020: 0000 0000

quadjetResNetBlock.convD.batchNorm.m_second_moment f4 [1, 9, 1]
0.0 0.0 0.0 0.0 0.0 0.0 0.0 0.0
0.0
00000000: 0000 0000 0000 0000 0000 0000 0000 0000
00000010: 0000 0000 0000 0000 0000 0000 0000 0000
00000020: 0000 0000

quadjetResNetBlock.convD.batchNorm.s_second_moment f4 [1, 9, 1]
0.0 0.0 0.0 0.0 0.0 0.0 0.0 0.0
0.0
00000000: 0000 0000 0000 0000 0000 0000 0000 0000
00000010: 0000 0000 0000 0000 0000 0000 0000 0000
00000020: 0000 0000

quadjetResNetBlock.reinforce2.sym.weight f4 [9, 1, 2]
0.5 0.5 0.5 0.5 0.5 0.5 0.5 0.5
0.5 0.5 0.5 0.5 0.5 0.5 0.5 0.5
0.5 0.5
00000000: 0000 003f 0000 003f 0000 003f 0000 003f
00000010: 0000 003f 0000 003f 0000 003f 0000 003f
00000020: 0000 003f 0000 003f 0000 003f 0000 003f
00000030: 0000 003f 0000 003f 0000 003f 0000 003f
00000040: 0000 003f 0000 003f

quadjetResNetBlock.reinforce2.antisym.weight f4 [9, 1, 2]
0.5 -0.5 0.5 -0.5 0.5 -0.5 0.5 -0.5
0.5 -0.5 0.5 -0.5 0.5 -0.5 0.5 -0.5
0.5 -0.5
00000000: 0000 003f 0000 00bf 0000 003f 0000 00bf
00000010: 0000 003f 0000 00bf 0000 003f 0000 00bf
00000020: 0000 003f 0000 00bf 0000 003f 0000 00bf
00000030: 0000 003f 0000 00bf 0000 003f 0000 00bf
00000040: 0000 003f 0000 00bf
