nTupleAnalysis/pytorchModels/SvB_ResNet_8_8_8_np1391_lr0.01_epochs20_offset1_epoch20.pkl (torch_old, 63266 bytes, 137 tensors)

inputGBN.canJetScaler.m f4 [1, 4, 1]
0.0 0.0 0.0 0.0
00000000: 0000 0000 0000 0000 0000 0000 0000 0000

inputGBN.canJetScaler.s f4 [1, 4, 1]
1.0 1.0 3.1415927 1.0
00000000: 0000 803f 0000 803f db0f 4940 0000 803f

inputGBN.dijetScaler.m f4 [1, 2, 1]
0.0 0.0
00000000: 0000 0000 0000 0000

inputGBN.dijetScaler.s f4 [1, 2, 1]
1.0 1.0
00000000: 0000 803f 0000 803f

inputGBN.quadjetScaler.m f4 [1, 6, 1]
0.0 0.0 0.0 0.0 0.0 0.0
00000000: 0000 0000 0000 0000 0000 0000 0000 0000
00000010: 0000 0000 0000 0000

inputGBN.quadjetScaler.s f4 [1, 6, 1]
1.0 1.0 1.0 1.0 1.0 1.0
00000000: 0000 803f 0000 803f 0000 803f 0000 803f
00000010: 0000 803f 0000 803f

inputGBN.dijetGBN.gamma f4 [2]
1.5825199 0.8114152
00000000: 0390 ca3f e8b8 4f3f

inputGBN.dijetGBN.bias f4 [2]
0.4471643 0.27243662
00000000: b8f2 e43e d07c 8b3e

inputGBN.dijetGBN.m f4 [1, 2, 1]
183.74942 2.155134
00000000: dabf 3743 b7ed 0940

inputGBN.dijetGBN.s f4 [1, 2, 1]
114.57228 0.9481988
00000000: 0225 e542 28bd 723f

inputGBN.quadjetGBN.gamma f4 [6]
0.77434784 0.9135936 0.5989185 0.4086324 1.2787266 0.44808567
00000000: a93b 463f 45e1 693f b952 193f 4438 d13e
00000010: 50ad a33f 7c6b e53e

inputGBN.quadjetGBN.bias f4 [6]
-0.27646613 0.0213176 -0.03563235 -0.023973841 0.26748216 -0.054324895
00000000: f88c 8dbe 3fa2 ae3c 3af3 11bd ca64 c4bc
00000010: 6cf3 883e c883 5ebd

inputGBN.quadjetGBN.m f4 [1, 6, 1]
2.5697954 492.53134 3.5352964 1.3423758 4.90981 2016.9547
00000000: 8777 2440 0344 f643 4c42 6240 f8d2 ab3f
00000010: 2a1d 9d40 8d1e fc44

inputGBN.quadjetGBN.s f4 [1, 6, 1]
0.88041514 191.26624 3.130405 3.657847 1.0004734 0.88501287
00000000: e362 613f 2844 3f43 8e58 4840 2a1a 6a40
00000010: 830f 803f 3490 623f

jetEmbed.module.weight f4 [8, 4, 1]
0.13735296 -0.6214163 -0.08139247 0.53200084 -0.14593217 0.66720426 0.11736376 0.41158032
0.08574403 0.23482406 -0.477139 -0.31808284 0.669668 -0.54456085 -0.15804422 -0.47968236
-0.106151536 -0.21497078 -0.0020881917 -0.5708493 -0.12548937 -0.5750556 -0.3267263 -0.42885402
-0.6982317 -0.24502721 0.2021181 0.46973988 -0.9386092 0.13819262 0.15231007 0.5014765
00000000: 41a6 0c3e 2315 1fbf 18b1 a6bd 3531 083f
00000010: 3e6f 15be e6cd 2a3f 695c f03d a8ba d23e
00000020: 919a af3d b875 703e 904b f4be c1db a2be
00000030: 5d6f 2b3f 5768 0bbf 58d6 21be ed98 f5be
00000040: fa65 d9bd 4d21 5cbe 0bda 08bb 2e23 12bf
00000050: 4980 00be d836 13bf ab48 a7be c192 dbbe
00000060: 50bf 32bf 6ae8 7abe 0cf8 4e3e bf81 f03e
00000070: b148 70bf 5e82 0d3e 2cf7 1b3e c460 003f

jetEmbed.module.bias f4 [8]
-0.020038955 -0.28825408 -0.72143257 -0.39534235 -0.14026983 0.1924859 0.059545495 -0.38073596
00000000: bc28 a4bc 0a96 93be ceaf 38bf 506a cabe
00000010: e5a2 0fbe 061b 453e fae5 733d d3ef c2be

dijetEmbed1.module.weight f4 [8, 2, 1]
0.21934283 -0.31619263 -0.058751505 0.9211268 -0.7595541 0.31958562 -1.2238014 0.2968482
-1.2940696 -0.54677665 -1.9667605 -0.35834068 0.6633462 -1.0113595 0.39001969 0.99483246
00000000: 689b 603e 00e4 a1be 6ba5 70bd f7ce 6b3f
00000010: 2372 42bf baa0 a33e 86a5 9cbf 7dfc 973e
00000020: 13a4 a5bf 8ef9 0bbf cfbe fbbf 6e78 b7be
00000030: 0ed1 293f 3a74 81bf a9b0 c73e 57ad 7e3f

dijetEmbed1.module.bias f4 [8]
0.49853578 -0.2956505 0.07834854 0.15707351 -0.86816436 0.641829 0.6149144 0.6028306
00000000: 1540 ff3e 815f 97be 3375 a03d e1d7 203e
00000010: 0540 5ebf e84e 243f 086b 1d3f 1b53 1a3f

dijetResNetBlock.reinforce1.conv.module.weight f4 [8, 8, 3]
-0.19706188 0.17358017 -0.5177231 0.1562982 0.05940555 -0.19937798 0.11215484 -0.12580547
-1.2058196 0.2887133 -0.055655647 -1.607049 -0.19923967 0.15099463 -2.802304 -0.14353801
-0.097215675 -1.5784252 0.052124795 -0.30993885 0.34467638 0.2077646 -0.22277024 -0.14279917
-0.3448879 -0.88233995 -0.17352794 -1.747969 0.7565835 0.68861836 -0.64951056 0.5345306
0.069453366 0.68073404 -0.87693703 -0.080892585 -0.059798095 -0.47365317 -0.41846144 1.1045972
-0.62045807 -1.1325394 0.08043243 -0.63210505 -0.02211752 -0.812744 0.09324634 0.6547494
0.76955485 0.42270198 0.61737114 0.57501453 0.2333095 0.0052155284 -0.32098916 -0.41680467
-1.1129396 0.2918108 0.5374979 -1.0034087 0.78916115 -0.74462324 -0.4023835 0.36380655
-0.25643006 0.014433453 0.18505576 0.32423526 1.5495462 0.77045524 0.69580245 0.10569241
0.7744051 -0.36762518 -0.5012567 -0.19642465 0.17082146 -0.048539232 0.4317155 0.66492975
-0.5093442 1.162262 0.32975793 -0.4168183 -0.003726064 -0.28268325 -0.6600355 0.13659298
-0.0070198644 -0.29804468 -1.0425023 -0.19499536 -0.9028512 -0.6751129 0.671196 -0.50218165
0.24254154 0.5710125 0.6093541 0.81380814 -1.3419687 0.649469 1.7494541 0.34582087
-1.7052058 0.3645864 1.840116 -1.3779675 -0.39519793 0.29534137 0.018817686 -0.407571
0.67693514 -0.27924988 -0.5588967 -0.50405866 0.67526585 0.32550558 -0.36782724 0.40297103
-0.6917284 -0.4303507 -0.022066899 -0.31736624 -0.16469607 0.24038698 -0.19723581 0.6966458
-0.79848844 0.15137544 0.6210676 -1.0905519 -0.25153947 0.22491176 -0.5429323 -0.07384875
0.4437596 -1.049981 -0.44222674 -0.7332531 0.25611988 -0.35108054 -0.5392249 0.15344775
0.55995834 -0.27850989 -0.24089386 0.050882056 0.35405675 -0.12641574 0.093989946 -0.31250244
0.7929874 0.18646704 -0.64154804 0.95070076 0.070526816 0.12895663 0.25460413 -0.12057757
-0.2900491 0.8292735 0.029797813 0.48937586 -0.16852237 0.1904033 0.68556905 -0.50308937
0.5990319 0.14000623 -0.36061624 -0.76071006 -0.26611337 0.8709828 -0.070570335 -0.22913021
0.2717428 0.29044357 -0.43400854 0.51351106 -0.7390643 -0.33579373 0.7780652 -0.7132424
-0.8715656 1.533626 -0.12356598 -0.36791664 -0.27714273 -0.67056143 -0.38071766 0.23643675
00000000: 97ca 49be 00bf 313e 8089 04bf a30c 203e
00000010: 3c53 733d be29 4cbe 70b1 e53d 26d3 00be
00000020: 4c58 9abf 3bd2 933e 2df7 63bd c8b3 cdbf
00000030: 7c05 4cbe 569e 1a3e f358 33c0 a1fb 12be
00000040: 0319 c7bd d609 cabf cf80 553d 4eb0 9ebe
00000050: 6c79 b03e 3ec0 543e e21d 64be f239 12be
00000060: 2695 b0be 08e1 61bf 4fb1 31be 73bd dfbf
00000070: 75af 413f 4b49 303f 5346 26bf ffd6 083f
00000080: 913d 8e3d 9644 2e3f f27e 60bf 03ab a5bd
00000090: d9ee 74bd ab82 f2be 9440 d6be 7163 8d3f
000000a0: 57d6 1ebf 0df7 90bf c2b9 a43d a3d1 21bf
000000b0: cd2f b5bc fe0f 50bf f0f7 be3d a89d 273f
000000c0: 8c01 453f 656c d83e 090c 1e3f 2734 133f
000000d0: b0e8 6e3e 06e7 aa3b b158 a4be 6c67 d5be
000000e0: ce74 8ebf 3a68 953e 7699 093f b26f 80bf
000000f0: 7706 4a3f a19f 3ebf 3605 cebe da44 ba3e
00000100: cd4a 83be 4a7a 6c3c 427f 3d3e 2a02 a63e
00000110: 8857 c63f 8e3c 453f 1c20 323f 4375 d83d
00000120: 6a3f 463f 5e39 bcbe 5c52 00bf 8b23 49be
00000130: d2eb 2e3e 13d1 46bd d009 dd3e d638 2a3f
00000140: 6264 02bf 00c5 943f 08d6 a83e 3569 d5be
00000150: fb30 74bb dcbb 90be 16f8 28bf 08df 0b3e
00000160: e406 e6bb 5099 98be b770 85bf ddac 47be
00000170: 4221 67bf 33d4 2cbf 80d3 2b3f fa8e 00bf
00000180: cf5c 783e e02d 123f a1fe 1b3f bb55 503f
00000190: a1c5 abbf 9a43 263f 1dee df3f 6f0f b13e
000001a0: 2f44 dabf 12ab ba3e ec88 eb3f 3d61 b0bf
000001b0: 6257 cabe fc36 973e 8c27 9a3c 25ad d0be
000001c0: 9f4b 2d3f d7f9 8ebe db13 0fbf fd09 01bf
000001d0: 39de 2c3f aba8 a63e da53 bcbe 3852 ce3e
000001e0: 1d15 31bf ed56 dcbe a4c5 b4bc d47d a2be
000001f0: 16a6 28be 0128 763e 2ff8 49be 6157 323f
00000200: bd69 4cbf 2a02 1b3e 49fe 1e3f 3497 8bbf
00000210: c8c9 80be 454f 663e 9cfd 0abf 033e 97bd
00000220: 7534 e33e c765 86bf 8b6b e2be 7ab6 3bbf
00000230: 2522 833e d4c0 b3be a50a 0abf 6821 1d3e
00000240: 6e59 0f3f d998 8ebe e1ac 76be b469 503d
00000250: ed46 b53e 2173 01be cd7d c03d 5200 a0be
00000260: 3901 4b3f 37f1 3e3e 7e3c 24bf 2061 733f
00000270: 5d70 903d 350d 043e 795b 823e 5ff1 f6bd
00000280: 5181 94be 454b 543f 8b1a f43c 798f fa3e
00000290: 2191 2cbe 15f9 423e 7481 2f3f 77ca 00bf
000002a0: 285a 193f cb5d 0f3e b1a2 b8be e5bd 42bf
000002b0: 0340 88be bbf8 5e3f 2e87 90bd 1ca1 6abe
000002c0: df21 8b3e 05b5 943e 5e36 debe 7675 033f
000002d0: 5133 3dbf 28ed abbe 482f 473f 0e97 36bf
000002e0: ec1e 5fbf db4d c43f 2910 fdbd 925f bcbe
000002f0: a7e5 8dbe eaa9 2bbf 6ded c2be 7a1c 723e

dijetResNetBlock.reinforce1.conv.batchNorm.gamma f4 [8]
2.0017445 1.4647734 0.60609245 0.88670343 1.0181111 2.2486038 0.12340331 1.079282
00000000: 951c 0040 b27d bb3f e028 1b3f fffe 623f
00000010: 7751 823f 20e9 0f40 e0ba fc3d ea25 8a3f

dijetResNetBlock.reinforce1.conv.batchNorm.bias f4 [8]
0.8011507 0.32493237 -0.28898376 -0.55072695 -0.40376297 -0.19762883 -0.6199247 -1.13104
00000000: 3618 4d3f 895d a63e aef5 93be 71fc 0cbf
00000010: 05ba cebe 365f 4abe 63b3 1ebf ebc5 90bf

dijetResNetBlock.reinforce1.conv.batchNorm.m f4 [1, 8, 1]
-2.0738938 -0.14400968 0.54850584 -1.6713176 -0.23097207 -0.9242104 0.34149784 1.4725287
00000000: adba 04c0 4677 13be e16a 0c3f bced d5bf
00000010: f183 6cbe 0e99 6cbf ced8 ae3e d27b bc3f

dijetResNetBlock.reinforce1.conv.batchNorm.s f4 [1, 8, 1]
3.4924617 2.3231454 1.7832137 1.0606372 2.314087 2.2158973 2.1334355 1.8633215
00000000: 7e84 5f40 6aae 1440 5940 e43f f6c2 873f
00000010: 001a 1440 43d1 0d40 358a 0840 5281 ee3f

dijetResNetBlock.convJ.module.weight f4 [8, 8, 1]
-0.9438371 -0.40319455 -0.08203459 -0.95708597 0.3403225 0.43626875 0.6312951 0.72196656
-1.2598499 -0.6619558 0.32893184 -0.72515947 0.5981983 -0.47130963 0.12779503 0.1306636
-0.53272605 -0.06125507 -1.5390464 -0.9382992 -0.8021136 -0.24127194 -0.37470943 -0.19783501
-0.38741702 0.9093905 -0.30790684 -0.25248373 -1.1264489 -1.3931301 -0.7266315 0.19431628
-0.3442598 0.6402302 0.11225925 -0.4112704 0.17991649 1.0813327 -0.046415664 -0.32637042
0.21851707 -0.011858893 0.05103981 -0.9324283 -0.8458383 -1.2822059 0.44190094 0.83084065
0.22360568 -0.67653716 0.274679 1.3912598 -0.14865282 0.2555083 -0.5820614 -0.6523981
-0.5582126 -0.034565028 -0.2958035 -0.26335147 0.28864205 0.76259077 1.1879108 0.7117211
00000000: 4f9f 71bf 846f cebe c001 a8bd 9603 75bf
00000010: c03e ae3e 9e5e df3e 8e9c 213f cdd2 383f
00000020: c342 a1bf ef75 29bf c169 a83e 0da4 39bf
00000030: 8623 193f 7f4f f1be b3dc 023e aecc 053e
00000040: bc60 08bf 99e6 7abd 79ff c4bf 6034 70bf
00000050: 5157 4dbf fe0f 77be ead9 bfbe 4395 4abe
00000060: 865b c6be d1cd 683f f7a5 9dbe 8c45 81be
00000070: 7a2f 90bf 1652 b2bf 8604 3abf d9fa 463e
00000080: d242 b0be 20e6 233f 2de8 e53d 0992 d2be
00000090: 073c 383e 1c69 8a3f 5a1e 3ebd 061a a7be
000000a0: f0c2 5f3e cd4b 42bc 1f0f 513d 9fb3 6ebf
000000b0: dc88 58bf 531f a4bf d740 e23e f9b1 543f
000000c0: e3f8 643e 8a31 2dbf baa2 8c3e cd14 b23f
000000d0: 7238 18be fcd1 823e fa01 15bf 9003 27bf
000000e0: 05e7 0ebf 0f94 0dbd 8e73 97be 01d6 86be
000000f0: e4c8 933e 2639 433f 760d 983f 5b33 363f

dijetResNetBlock.convJ.batchNorm.gamma f4 [8]
0.37712926 0.2286632 0.22812694 0.66987884 0.14655714 0.9068401 0.24330944 0.70751125
00000000: 1617 c13e b026 6a3e 1c9a 693e 2e7d 2b3f
00000010: 1313 163e ac26 683f 1c26 793e 751f 353f

dijetResNetBlock.convJ.batchNorm.bias f4 [8]
-0.22145304 0.48941028 0.47068733 -0.5699226 0.0010212049 -0.4639119 -0.033163995 -0.13338172
00000000: 96c4 62be fc93 fa3e eefd f03e 73e6 11bf
00000010: f3d9 853a dc85 edbe f8d6 07bd 3895 08be

dijetResNetBlock.convJ.batchNorm.m f4 [1, 8, 1]
0.16171005 -0.07162825 0.34551722 -0.36763576 0.21441114 -0.2663225 -0.026410583 0.20964259
00000000: 5297 253e d5b1 92bd a2e7 b03e c13a bcbe
00000010: 988e 5b3e 6c5b 88be 025b d8bc 8cac 563e

dijetResNetBlock.convJ.batchNorm.s f4 [1, 8, 1]
0.58053726 0.5626247 0.35631564 0.8013167 0.3157258 0.5745698 0.4862192 0.50750947
00000000: 179e 143f 2c08 103f 016f b63e 1723 4d3f
00000010: d0a6 a13e 0217 133f b9f1 f83e 24ec 013f

dijetResNetBlock.reinforce2.conv.module.weight f4 [8, 8, 3]
-0.008299075 -0.8737737 0.29819152 -0.28407055 0.059234496 1.0936655 0.1907243 0.35714746
0.10246329 -0.5752025 0.48202053 -0.11700967 0.76725274 -0.21678115 0.65891945 -0.020393081
-0.8848711 -0.899479 0.1642101 -0.39483202 -0.07397909 0.2373166 -0.2440669 0.1891306
0.017895225 0.73901963 0.09488218 -1.4783565 -1.4976766 0.08595046 -0.5906444 -0.556729
0.6885623 -0.53813213 -0.124936625 0.7537261 0.21392532 0.21450779 0.16895624 -0.3798385
-0.4735586 -0.32068527 0.57440305 0.639312 0.07463077 0.2973193 -0.34431845 0.4475785
-0.07578719 -0.23234682 -3.2444959 -0.19424471 -0.48707277 -0.28122604 0.38797152 0.357283
-0.25234893 0.5288721 0.33749485 -0.10190097 -0.6311492 -0.12970853 0.43466803 -0.6500075
-0.56600285 -0.14830288 -0.2415709 -0.042272158 -0.21744071 -0.18121612 -0.57110053 0.35845086
0.67082065 -0.28159901 0.82692975 -0.3897329 0.76408416 0.08018374 -0.678474 0.47677222
0.5199448 -0.33593342 -0.019684073 -0.18549225 -0.35400295 -0.72553927 -0.32641083 0.27406764
0.67071295 -0.34529835 0.61341155 -0.42242292 0.08845772 0.6096264 0.21066315 0.6208235
0.08490352 0.26581636 0.39537287 0.19577453 0.2775525 0.17398138 0.10089517 0.013419652
0.35895666 0.76087314 0.36743885 0.15380205 -1.2437347 -0.799523 0.16698289 -0.44301382
-0.53766364 -0.6314103 -0.2514678 0.37546438 0.47646552 -1.1293333 -0.6634781 0.052236993
0.07998893 -0.22245313 -0.57386273 -0.23989278 0.60772127 0.20858365 -0.50206757 -0.05052894
-0.054809056 -0.14354967 -0.2923827 0.1037655 -0.04408875 -0.026242403 -0.55622333 -0.009747865
0.43984997 -0.6644177 0.33363545 -0.10541086 0.58600134 0.21076798 0.40383953 0.33780512
-0.35893014 -0.17774986 -1.2318656 0.035674706 0.5489942 -1.2388058 -0.42543322 0.005465766
0.33481872 0.35585755 0.60377276 0.6063686 -0.7434493 -0.5159758 0.62716484 -0.70774597
-0.4332003 0.4447484 0.014614254 -0.05904073 0.29792264 -0.24072741 -0.20063126 -0.98335123
-0.047120173 0.032948244 -0.85118115 0.3109777 0.09067245 -1.6733594 -0.074047156 -0.04772264
-0.119749516 -0.65183896 -1.2112899 0.014142851 -0.006175062 -0.20032276 -0.48086694 -0.06026914
-0.024959175 0.17308366 -0.01216332 -0.18196082 -0.19086616 -0.39961073 -0.42109376 -0.32208478
00000000: d8f8 07bc a2af 5fbf 8fac 983e b271 91be
00000010: df9f 723d 3bfd 8b3f 3b4d 433e 08dc b63e
00000020: 46d8 d13d 7940 13bf 65cb f63e c4a2 efbd
00000030: ad6a 443f e1fb 5dbe f2ae 283f 640f a7bc
00000040: ea86 62bf 4144 66bf b126 283e 6c27 cabe
00000050: 5982 97bd 1f03 733e acec 79be 74ab 413e
00000060: 0299 923c 6430 3d3f 9751 c23d c93a bdbf
00000070: deb3 bfbf cb06 b03d 7934 17bf cb85 0ebf
00000080: 9e45 303f 07c3 09bf c6de ffbd 32f4 403f
00000090: 3d0f 5b3e eea7 5b3e dd02 2d3e 317a c2be
000000a0: 4676 f2be dc30 a4be 140c 133f f4a9 233f
000000b0: 04d8 983d 3c3a 983e 824a b0be 0229 e53e
000000c0: 5036 9bbd 53ec 6dbe d2a5 4fc0 16e8 46be
000000d0: 9a61 f9be dcfc 8fbe 34a4 c63e cced b63e
000000e0: e133 81be 2964 073f 20cc ac3e 75b1 d0bd
000000f0: fe92 21bf 50d2 04be cf8c de3e e466 26bf
00000100: 90e5 10bf b6dc 17be 5d5e 77be 9225 2dbd
00000110: c7a8 5ebe b890 39be a533 12bf df86 b73e
00000120: e7ba 2b3f bf2d 90be abb1 533f 128b c7be
00000130: 059b 433f 5f37 a43d 79b0 2dbf 7d1b f43e
00000140: 1a1b 053f 77ff abbe 7e40 a1bc aef1 3dbe
00000150: e03f b5be f1bc 39bf 521f a7be 9852 8c3e
00000160: d8b3 2b3f f2ca b0be 8a08 1d3f d147 d8be
00000170: 5229 b53d 7a10 1c3f 15b8 573e 4aee 1e3f
00000180: e6e1 ad3d 1519 883e 506e ca3e 1e79 483e
00000190: 5c1b 8e3e 2d28 323e 20a2 ce3d 1ade 5b3c
000001a0: 2bc9 b73e 95c8 423f f220 bc3e 497e 1d3e
000001b0: b332 9fbf 8aad 4cbf 90fd 2a3e b5d2 e2be
000001c0: 53a4 09bf 1ba4 21bf 63c0 80be de3c c03e
000001d0: 4af3 f33e fe8d 90bf b3d9 29bf 75f6 553d
000001e0: 3cd1 a33d c1ca 63be abe8 12bf 74a6 75be
000001f0: 9f93 1b3f f496 553e 8087 00bf 6ff7 4ebd
00000200: 767f 60bd affe 12be 2fb3 95be 0283 d43d
00000210: 6896 34bd 4ffa d6bc a764 0ebf 82b5 1fbc
00000220: 0434 e13e 4717 2abf 44d2 aa3e a6e1 d7bd
00000230: 2f04 163f 90d3 573e 0ec4 ce3e cbf4 ac3e
00000240: b1c5 b7be 0f04 36be c6ad 9dbf a41f 123d
00000250: e28a 0c3f 3091 9ebf 62d2 d9be 2b1a b33b
00000260: 5c6d ab3e f632 b63e da90 1a3f f93a 1b3f
00000270: b152 3ebf fd16 04bf e08d 203f d72e 35bf
00000280: 6ecc ddbe 10b6 e33e a070 6f3c b1d4 71bd
00000290: 5189 983e 3f81 76be 4872 4dbe e8bc 7bbf
000002a0: 1501 41bd bdf4 063d 02e7 59bf 7838 9f3e
000002b0: 7ab2 b93d a430 d6bf 09a6 97bd d178 43bd
000002c0: 3c3f f5bd ebde 26bf 8c0b 9bbf 6bb7 673c
000002d0: 2d58 cabb 6921 4dbe 3134 f6be c6dc 76bd
000002e0: 2f77 ccbc d83c 313e a948 47bc f053 3abe
000002f0: 6b72 43be c799 ccbe 9a99 d7be 4ce8 a4be

dijetResNetBlock.reinforce2.conv.module.bias f4 [8]
-0.56332886 0.60758734 -0.28225508 -0.24926242 -0.9742084 0.30303386 0.66004044 0.74645513
00000000: 5236 10bf d88a 1b3f bd83 90be a63e 7fbe
00000010: b965 79bf 4127 9b3e 69f8 283f af17 3f3f

dijetEmbed2.module.weight f4 [8, 8, 1]
-1.0993319 -0.2729245 0.012777114 -0.6077438 0.72855234 0.42138934 0.96788025 -1.1917499
-0.61843127 0.037425935 0.7713295 0.09509476 -0.34878868 0.24777406 0.46522498 -0.21156491
-0.36023462 0.14974312 0.48890504 0.04568393 0.1993298 0.1114599 0.23831572 0.5233248
0.47472823 -0.4403405 -0.7328778 0.6496772 0.41227123 0.5445012 0.39665014 0.03376311
-0.27997956 -0.13146742 0.22823702 -0.2080318 0.94824 0.3795622 -0.25879467 -1.2796448
-1.3717549 -0.10544471 -0.33827937 0.43002027 -0.14505742 0.35112017 0.39685056 -0.1727361
-0.15212336 0.1597844 0.12929724 0.1930352 0.09296368 -0.70254624 0.05069198 -0.3107987
-1.7825352 0.24536979 -0.101087905 0.2188244 -0.43080384 -0.109674275 -0.5596482 0.5705376
00000000: e8b6 8cbf c3bc 8bbe 1a57 513c 1995 1bbf
00000010: 6882 3a3f 58c0 d73e 00c7 773f 438b 98bf
00000020: 8351 1ebf f04b 193d da75 453f 0bc1 c23d
00000030: 6e94 b2be 7cb8 7d3e f831 ee3e 79a4 58be
00000040: ac70 b8be 4356 193e c351 fa3e 131f 3b3d
00000050: 1c1d 4c3e 1745 e43d 0909 743e 9df8 053f
00000060: 940f f33e 4f74 e1be e19d 3bbf 3f51 263f
00000070: 3715 d33e 6e64 0b3f ba15 cb3e 304b 0a3d
00000080: 7b59 8fbe 659f 06be f7b6 693e 4a06 55be
00000090: dbbf 723f fa55 c23e bc80 84be 67cb a3bf
000000a0: aa95 afbf 65f3 d7bd f432 adbe 9e2b dc3e
000000b0: ef89 14be 06c6 b33e ff2f cb3e bbe1 30be
000000c0: 3ac6 1bbe 869e 233e 7f66 043e 05ab 453e
000000d0: be63 be3d 12da 33bf 65a2 4f3d 0221 9fbe
000000e0: 1d2a e4bf 3842 7b3e 2d07 cfbd 8113 603e
000000f0: 5292 dcbe e89c e0bd 1b45 0fbf c10e 123f

dijetEmbed2.module.bias f4 [8]
0.3103874 2.5168753 0.39009368 1.6259596 -0.44135937 1.5192266 1.1219499 1.6990097
00000000: 19eb 9e3e 7c14 2140 5cba c73e 721f d03f
00000010: dbf9 e1be 0476 c23f 0e9c 8f3f 2679 d93f

quadjetEmbed.module.weight f4 [8, 6, 1]
-1.0816555 0.72669846 0.59532565 0.38528702 0.3768262 -0.6222769 0.47639588 0.7011521
0.1743861 0.11436065 0.050183453 0.3951147 -0.012564327 -0.18435648 0.36931664 0.5597735
-1.6135612 0.016592523 0.1298069 -0.31971282 -0.38170293 0.019953638 -0.08210759 -0.106413975
0.16398896 -0.4600744 1.2101419 1.0229462 -0.19319144 -0.47169563 0.5594468 -0.8768816
0.1505941 -0.014977017 -0.100060955 0.53900695 0.3078418 0.42463982 -0.18504249 -0.16801412
-1.0464191 0.1536355 -0.6485035 -0.38250807 -0.4666639 -0.5470053 -0.5220124 -0.36934453
00000000: b073 8abf e908 3a3f 4367 183f 5744 c53e
00000010: 5def c03e 8a4d 1fbf 29ea f33e b47e 333f
00000020: 4592 323e eb35 ea3d 2a8d 4d3d 794c ca3e
00000030: 9bda 4dbc f2c7 3cbe 1217 bd3e 514d 0f3f
00000040: 2c89 cebf 0bed 873c 1aec 043e 66b1 a3be
00000050: 916e c3be d075 a33c 0628 a8bd 92ef d9bd
00000060: b9ec 273e df8e ebbe eee5 9a3f e7ef 823f
00000070: fad3 45be 1782 f1be e837 0f3f 507b 60bf
00000080: 5735 1a3e 2a62 75bc c2ec ccbd 5cfc 093f
00000090: 719d 9d3e 646a d93e c77b 3dbe e50b 2cbe
000000a0: 10f1 85bf a052 1d3e 5304 26bf 19d8 c3be
000000b0: 92ee eebe 8a08 0cbf 9ba2 05bf ba1a bdbe

quadjetEmbed.module.bias f4 [8]
-0.25006282 0.04255266 0.028217556 -0.008630816 0.39340764 0.3381435 -0.6195245 0.007880903
00000000: 3c08 80be b34b 2e3d 8128 e73c 4468 0dbc
00000010: ba6c c93e 2521 ad3e 2899 1ebf e71e 013c

quadjetResNetBlock.reinforce1.sym.weight f4 [8, 1, 2]
0.5 0.5 0.5 0.5 0.5 0.5 0.5 0.5
0.5 0.5 0.5 0.5 0.5 0.5 0.5 0.5
00000000: 0000 003f 0000 003f 0000 003f 0000 003f
00000010: 0000 003f 0000 003f 0000 003f 0000 003f
00000020: 0000 003f 0000 003f 0000 003f 0000 003f
00000030: 0000 003f 0000 003f 0000 003f 0000 003f

quadjetResNetBlock.reinforce1.antisym.weight f4 [8, 1, 2]
0.5 -0.5 0.5 -0.5 0.5 -0.5 0.5 -0.5
0.5 -0.5 0.5 -0.5 0.5 -0.5 0.5 -0.5
00000000: 0000 003f 0000 00bf 0000 003f 0000 00bf
00000010: 0000 003f 0000 00bf 0000 003f 0000 00bf
00000020: 0000 003f 0000 00bf 0000 003f 0000 00bf
00000030: 0000 003f 0000 00bf 0000 003f 0000 00bf

quadjetResNetBlock.reinforce1.conv.module.weight f4 [8, 8, 3]
0.45631686 0.47198817 0.82068443 0.8 0.37636933 -0.5439428 0.49820757 0.09485225
-0.2718427 -0.9129375 -0.8030505 0.27602392 0.20959318 0.4297193 -0.33939743 -0.12667866
-0.83818054 -1.8814244 -0.08720869 -0.10417822 0.5316964 -0.6891047 0.08555385 -0.9230632
-0.06318307 0.63873285 -0.37063998 0.14462267 0.8066701 -0.5425742 0.67494917 -1.573293
-0.21342427 -0.011802098 -0.48419413 0.32085288 0.2848393 0.0033997048 -0.5289776 -0.17268297
2.108097 -0.47544643 -0.4228319 -0.5482377 -0.85774463 0.1023858 0.623397 0.038262326
-0.08186504 -3.9835856 -0.14852372 -0.13405713 0.029542442 -0.62737715 0.6011987 1.4907317
-0.23007898 -0.34279248 0.46514982 0.8566619 -0.5962353 -0.38939962 -0.5915749 0.3089365
0.2434795 -0.056416254 -0.18531238 1.0067337 1.4208688 -0.6382106 -2.6593206 -0.11471129
0.17331067 -0.17579137 -0.009732571 0.19676693 0.9602664 1.2010545 -0.23428312 0.006818813
-0.0017111988 0.24807481 0.091783375 -1.4598248 0.18510854 0.15079506 0.58700883 0.9731147
-0.89579284 -1.0269852 -0.461199 -0.11871231 -0.70358515 0.46797636 0.20458286 0.3189771
-0.40305692 -0.42329094 -0.11704524 -0.22035855 0.51734453 0.124837294 -0.7421951 0.59611124
0.13867629 -1.313631 0.58324504 0.20624743 0.61739516 0.40416402 -0.7374054 -0.7313009
0.91411054 0.22703996 0.50273657 0.26288134 -0.1201871 0.20834385 0.14669698 0.87714726
-1.3471059 0.51487565 -1.2595592 1.133561 0.5494301 -0.3578309 0.25755233 -1.050693
-0.5416107 -0.48074383 -0.54697144 -0.6517005 -0.8809861 -0.18919694 -1.4528941 0.070630744
0.41273212 0.25938228 -0.25664404 -0.413379 -0.39607108 0.12035257 0.09516561 -0.6132741
0.5884808 1.4467847 -1.0861949 0.21015473 -0.0979371 -0.34797585 0.3433399 -0.56354934
2.0519 -0.5931658 0.8786593 -0.016931497 -0.20650065 0.1340213 -0.8067647 -0.113581926
-0.43859842 0.40826303 0.21809359 -2.4736204 -0.50402886 0.5209956 2.3098874 1.0365714
0.055274203 0.42741212 -0.08529534 0.41254517 -0.32038915 -0.80143213 0.05226289 0.48299468
-0.6897126 -0.075726755 -0.29340592 0.21042147 0.33996075 0.6571697 -0.19407968 0.8483223
-0.4115964 -0.5396226 0.4291599 0.44888318 -0.8717233 0.432335 -0.09919255 -0.3130709
00000000: 5da2 e93e 6fa8 f13e 6018 523f cdcc 4c3f
00000010: 7bb3 c03e d63f 0bbf 1015 ff3e e541 c23d
00000020: f72e 8bbe 46b6 69bf b894 4dbf 0253 8d3e
00000030: 989f 563e 2b04 dc3e 80c5 adbe 0db8 01be
00000040: 0093 56bf 84d2 f0bf 789a b2bd 645b d5bd
00000050: 411d 083f 2a69 30bf db36 af3d df4d 6cbf
00000060: 2066 81bd ff83 233f 86c4 bdbe f717 143e
00000070: ef81 4e3f 25e6 0abf 78c9 2c3f aa61 c9bf
00000080: e48b 5abe 965d 41bc 4be8 f7be d446 a43e
00000090: 75d6 913e 95cd 5e3b 136b 07bf ced3 30be
000000a0: 10eb 0640 b76d f3be 6c7d d8be 4e59 0cbf
000000b0: 2795 5bbf a5af d13d f296 1f3f f5b8 1c3d
000000c0: dca8 a7bd 11f3 7ec0 9a16 18be 4646 09be
000000d0: fe02 f23c ca9b 20bf 28e8 193f 4cd0 be3f
000000e0: d399 6bbe 7f82 afbe 1e28 ee3e 324e 5b3f
000000f0: e0a2 18bf 635f c7be 7471 17bf ed2c 9e3e
00000100: b152 793e bb14 67bd 87c2 3dbe a6dc 803f
00000110: 07df b53f c561 23bf 4f32 2ac0 c1ed eabd
00000120: 5a78 313e a702 34be 5d75 1fbc 457d 493e
00000130: 05d4 753f 27bc 993f eae7 6fbe 5970 df3b
00000140: 4e4a e0ba 5307 7e3e ecf8 bb3d 8adb babf
00000150: 188d 3d3e 056a 1a3e 3646 163f 0c1e 793f
00000160: ae52 65bf 4074 83bf 4622 ecbe 711f f3bd
00000170: 281e 34bf 999a ef3e 2b7e 513e f750 a33e
00000180: 7a5d cebe 97b9 d8be 6ab5 efbd aca5 61be
00000190: b170 043f b2aa ff3d 8000 3ebf bf9a 183f
000001a0: 2801 0e3e 1025 a8bf 8c4f 153f 8732 533e
000001b0: 9c0d 1e3f 96ee ce3e 9ac6 3cbf 8936 3bbf
000001c0: 2603 6a3f 2a7d 683e 58b3 003f 6298 863e
000001d0: a724 f6bd 1758 553e bc37 163e b98c 603f
000001e0: f76d acbf e4ce 033f 3c39 a1bf 8718 913f
000001f0: 73a7 0c3f 9d35 b7be e6dd 833e 1c7d 86bf
00000200: 00a7 0abf 0e24 f6be 5206 0cbf d8d5 26bf
00000210: 4e88 61bf d8bc 41be 6ff8 b9bf daa6 903d
00000220: a051 d33e c1cd 843e d966 83be 6aa6 d3be
00000230: d4c9 cabe 697b f63d 30e6 c23d 88ff 1cbf
00000240: ada6 163f 3e30 b93f 6f08 8bbf cd32 573e
00000250: 3f93 c8bd e429 b2be 3fca af3e c544 10bf
00000260: 5452 0340 b7d9 17bf d1ef 603f ecb3 8abc
00000270: e874 53be e13c 093e 2288 4ebf a49d e8bd
00000280: f98f e0be da07 d13e ed53 5f3e cc4f 1ec0
00000290: 0908 01bf f85f 053f 32d5 1340 5fae 843f
000002a0: 3467 623d c3d5 da3e 53af aebd 1f39 d33e
000002b0: 0c0a a4be a82a 4dbf 9d11 563d 144b f73e
000002c0: 0191 30bf a116 9bbd 4d39 96be ba78 573e
000002d0: 560f ae3e 463c 283f d3bc 46be a62b 593f
000002e0: c3bc d2be b524 0abf d9ba db3e 04d4 e53e
000002f0: 4229 5fbf 035b dd3e 7725 cbbd d44a a0be

quadjetResNetBlock.reinforce1.conv.batchNorm.gamma f4 [8]
0.665142 1.7982916 1.4365095 1.8617215 1.2536037 1.1462563 1.3266693 0.60414547
00000000: bf46 2a3f 6b2e e63f 8bdf b73f e44c ee3f
00000010: 1676 a03f 87b8 923f 4dd0 a93f 47a9 1a3f

quadjetResNetBlock.reinforce1.conv.batchNorm.bias f4 [8]
0.040080667 0.057458915 -0.811735 -0.9302586 0.087538235 -1.4482722 0.04171608 0.31697914
00000000: a02b 243d 0a5a 6b3d ddcd 4fbf 6d25 6ebf
00000010: 3f47 b33d fc60 b9bf 7bde 2a3d 174b a23e

quadjetResNetBlock.reinforce1.conv.batchNorm.m f4 [1, 8, 1]
-3.993992 2.1558125 -3.385189 4.3167405 -4.9564734 0.20183821 1.4035318 2.462662
00000000: 919d 7fc0 d5f8 0940 f0a6 58c0 bd22 8a40
00000010: 6e9b 9ec0 adae 4e3e eea6 b33f 419c 1d40

quadjetResNetBlock.reinforce1.conv.batchNorm.s f4 [1, 8, 1]
3.0848203 2.7957642 2.335381 2.7798424 3.192639 2.5116434 2.7610784 3.3294907
00000000: b26d 4540 cded 3240 e276 1540 f0e8 3140
00000010: 3354 4c40 c4be 2040 82b5 3040 6016 5540

quadjetResNetBlock.convD.module.weight f4 [8, 8, 1]
0.13003072 0.29773837 0.15757644 0.73870045 1.306553 0.6048215 -1.105477 -0.33408213
-0.06611558 -0.71743995 -0.078099996 0.3774242 -0.23415786 -0.74149394 -0.4163091 0.15614708
0.35928446 0.5776057 0.9520358 -0.7470108 0.3369583 1.1589193 0.16907838 0.396227
0.08691786 1.3645984 0.045673173 -1.0874479 0.24591346 -0.27711293 -0.118396744 0.2594385
-0.19178477 -2.0533504 0.6715522 0.248294 -0.36136183 0.014508104 0.13542344 0.9394668
0.9401448 -0.17040081 0.42709 0.889219 0.8233338 0.6669151 -0.3379057 0.66835743
0.45473558 0.47910222 0.45965403 -0.15779571 -1.0517555 0.35074326 1.3037175 0.8311712
-0.062470242 1.5429465 1.4664559 -0.9337953 0.35306606 0.29876167 0.21100648 -0.27537704
00000000: c626 053e 2a71 983e b85b 213e 791b 3d3f
00000010: 213d a73f 95d5 1a3f 4580 8dbf d00c abbe
00000020: 9b67 87bd 25aa 37bf e4f2 9fbd bf3d c13e
00000030: 14c7 6fbe 8cd2 3dbf 7726 d5be 05e5 1f3e
00000040: 22f4 b73e f8dd 133f 9eb8 733f 1a3c 3fbf
00000050: cc85 ac3e 7857 943f e222 2d3e 44de ca3e
00000060: fe01 b23d 29ab ae3f cb13 3b3d 7e31 8bbf
00000070: bdd0 7b3e bfe1 8dbe fe79 f2bd 20d5 843e
00000080: 3a63 44be 186a 03c0 d8ea 2b3f c840 7e3e
00000090: 6b04 b9be 66b3 6d3c 71ac 0a3e e580 703f
000000a0: 54ad 703f 8d7d 2ebe 8aab da3e dba3 633f
000000b0: 01c6 523f f3ba 2a3f fa01 adbe 7919 2b3f
000000c0: 1ad3 e83e e34c f53e c657 eb3e 3395 21be
000000d0: ed9f 86bf 9f94 b33e 37e0 a63f a3c7 543f
000000e0: cce0 7fbd 457f c53f d4b4 bb3f 350d 6fbf
000000f0: 13c5 b43e 4af7 983e 1512 583e 38fe 8cbe

quadjetResNetBlock.convD.batchNorm.gamma f4 [8]
1.860473 -0.123629734 1.0510794 0.9539861 0.80671257 1.4750177 0.33235043 0.7721417
00000000: fb23 ee3f 9631 fdbd c589 863f 6f38 743f
00000010: b784 4e3f 61cd bc3f d629 aa3e 14ab 453f

quadjetResNetBlock.convD.batchNorm.bias f4 [8]
-0.90904176 -0.24968879 0.29178378 0.2985279 0.46830422 -0.13299985 0.7612092 0.9607201
00000000: f6b6 68bf 6bae 7fbe af64 953e a6d8 983e
00000010: 92c5 ef3e 1d31 08be 9bde 423f c1f1 753f

quadjetResNetBlock.convD.batchNorm.m f4 [1, 8, 1]
4.3335776 -2.2510803 2.8958817 -0.67504483 -2.6588228 5.7329526 3.3425572 1.731008
00000000: abac 8a40 b311 10c0 2056 3940 bdcf 2cbf
00000010: 272a 2ac0 5974 b740 75ec 5540 ac91 dd3f

quadjetResNetBlock.convD.batchNorm.s f4 [1, 8, 1]
2.9829388 2.7703447 5.025263 3.349727 3.4450173 4.478278 3.2241824 3.8596747
00000000: 78e8 3e40 544d 3140 f4ce a040 ed61 5640
00000010: 2a7b 5c40 0e4e 8f40 0159 4e40 e904 7740

quadjetResNetBlock.reinforce2.sym.weight f4 [8, 1, 2]
0.5 0.5 0.5 0.5 0.5 0.5 0.5 0.5
0.5 0.5 0.5 0.5 0.5 0.5 0.5 0.5
00000000: 0000 003f 0000 003f 0000 003f 0000 003f
00000010: 0000 003f 0000 003f 0000 003f 0000 003f
00000020: 0000 003f 0000 003f 0000 003f 0000 003f
00000030: 0000 003f 0000 003f 0000 003f 0000 003f

quadjetResNetBlock.reinforce2.antisym.weight f4 [8, 1, 2]
0.5 -0.5 0.5 -0.5 0.5 -0.5 0.5 -0.5
0.5 -0.5 0.5 -0.5 0.5 -0.5 0.5 -0.5
00000000: 0000 003f 0000 00bf 0000 003f 0000 00bf
00000010: 0000 003f 0000 00bf 0000 003f 0000 00bf
00000020: 0000 003f 0000 00bf 0000 003f 0000 00bf
00000030: 0000 003f 0000 00bf 0000 003f 0000 00bf

quadjetResNetBlock.reinforce2.conv.module.weight f4 [8, 8, 3]
1.2820259 0.54974174 -0.79307574 0.0037077938 0.5286917 -0.053702455 0.17358103 0.26385337
0.1315471 -0.14882603 1.4285921 0.88647676 -0.3089713 1.1767733 0.665031 0.45026204
0.7950925 -0.52325356 -0.72678494 0.11011027 0.9669099 -0.21093222 -1.1849672 0.6534531
-0.27022338 -0.15905882 -0.99785405 0.6471211 0.48476914 0.44333586 -0.03147512 -1.7002639
1.6103505 -0.32974783 0.5929331 -0.23494649 -0.6624379 1.0134434 0.022411792 -0.30377567
-1.6364708 -0.77580684 0.095083445 -1.9031748 -0.8103751 0.26926515 0.61787003 0.1378438
-0.13360424 -0.34695616 0.6176437 -0.16589412 -0.4777973 -1.030297 -0.4454936 0.71112335
-0.28218704 0.00080457405 0.06161938 -0.57263887 0.58211505 -0.43043712 -0.2924285 -0.118415765
0.851316 -0.39047337 0.952896 -0.04118847 0.9155847 0.06418179 -0.50886923 -0.07948114
0.07857602 0.22145662 0.05925902 0.2409048 -0.87341803 -0.93162626 -0.39392704 0.82430285
0.02908533 -0.28279004 -0.71335506 -0.902592 0.2512085 -0.6042372 0.036775682 -0.7386333
0.6112727 0.5360614 1.1526659 -0.11210918 -0.4012818 0.4684614 -0.7387306 0.42994598
-0.31947827 -0.2770414 0.053056244 -0.91345507 -0.9664634 -0.40681833 -0.313857 0.8712514
-0.34897035 -0.09113813 -0.6172632 -0.86263466 0.20375346 0.5188951 0.6203326 -0.4652976
1.1361543 0.032850247 0.36947602 -0.602463 1.1323365 -0.32944477 -0.24294066 -0.6480002
-1.0791253 0.6534842 0.27977964 1.130516 -0.051953264 0.026406568 1.3530428 0.29738858
0.28668457 0.61089474 0.022153134 0.26257718 1.1046033 -0.70429444 -0.9034061 0.609283
-0.22034466 0.3007396 0.580355 0.575696 -0.25264257 0.98507565 -0.28739306 0.5042202
-1.5760534 -0.37893328 0.7437311 0.6762003 0.5569471 0.48603052 0.9847258 -0.9132694
0.729443 0.74657285 0.9159562 -0.31378514 0.44299954 0.44799793 -0.83988875 0.39133275
-1.1644827 0.229762 0.06876135 0.2978925 -1.5714923 0.60105777 0.5402808 -0.23059537
-0.37437347 -0.09735367 0.36578587 0.50382805 0.2936801 0.48315448 0.21421973 0.66205317
-0.6211776 0.36461264 0.24555197 -0.1005488 -0.6140204 -0.1626024 0.13068002 0.054370545
0.13120735 0.9186798 -0.26452622 0.14648338 0.9898945 -0.15945444 1.2984717 -0.7101063
00000000: 6d19 a43f e0bb 0c3f 0307 4bbf 75fe 723b
00000010: 5758 073f 1bf7 5bbd 3abf 313e ca17 873e
00000020: 48b4 063e da65 18be 1bdc b63f 24f0 623f
00000030: 7c31 9ebe 82a0 963f 793f 2a3f bf88 e63e
00000040: 2f8b 4b3f f2f3 05bf 940e 3abf 7e81 e13d
00000050: 6887 773f 9efe 57be 01ad 97bf b448 273f
00000060: b85a 8abe 51e0 22be 5d73 7fbf baa9 253f
00000070: a933 f83e ebfc e23e 0eec 00bd 3fa2 d9bf
00000080: f71f ce3f b5d4 a8be 77ca 173f d095 70be
00000090: 8895 29bf 83b8 813f ef98 b73c 7c88 9bbe
000000a0: e077 d1bf 479b 46bf 1cbb c23d 3b9b f3bf
000000b0: be74 4fbf 1fdd 893e bb2c 1e3f ed26 0d3e
000000c0: 8dcf 08be 3da4 b1be e61d 1e3f 26e0 29be
000000d0: d9a1 f4be c6e0 83bf bd17 e4be 2e0c 363f
000000e0: d27a 90be 0dea 523a 9a64 7c3d 7698 12bf
000000f0: 7e05 153f 4162 dcbe 30b9 95be f783 f2bd
00000100: d8ef 593f 20ec c7be fef0 733f 3eb5 28bd
00000110: c263 6a3f be71 833d 4145 02bf 02c7 a2bd
00000120: 77ec a03d 86c5 623e 96b9 723d bfaf 763e
00000130: 5398 5fbf 0f7f 6ebf ceb0 c9be 8305 533f
00000140: 5c44 ee3c dbc9 90be 709e 36bf 4510 67bf
00000150: 679e 803e 4aaf 1abf 19a2 163d 1217 3dbf
00000160: 5e7c 1c3f 523b 093f 8e8a 933f 7f99 e5bd
00000170: cf74 cdbe 2cda ef3e 731d 3dbf e121 dc3e
00000180: a892 a3be 5fd8 8dbe 8151 593d 31d8 69bf
00000190: 256a 77bf 7e4a d0be ddb1 a0be 550a 5f3f
000001a0: 3eac b2be a1a6 babd f604 1ebf a0d5 5cbf
000001b0: bfa4 503e 4fd6 043f 1ece 1e3f 7d3b eebe
000001c0: 816d 913f fb8d 063d f62b bd3e 043b 1abf
000001d0: 67f0 903f fcac a8be 70c5 78be 57e3 25bf
000001e0: c720 8abf be4a 273f 473f 8f3e c0b4 903f
000001f0: f2cc 54bd 9652 d83c 8230 ad3f 5143 983e
00000200: 52c8 923e 9963 1c3f 7d7a b53c 8470 863e
00000210: a463 8d3f a44c 34bf 9f45 67bf f8f9 1b3f
00000220: 08a2 61be 8afa 993e 2592 143f d060 133f
00000230: 5e5a 81be eb2d 7c3f 2f25 93be 9314 013f
00000240: 1ebc c9bf 8b03 c2be 2965 3e3f 761b 2d3f
00000250: 1694 0e3f fed8 f83e fd16 7c3f 06cc 69bf
00000260: c7bc 3a3f 661f 3f3f 1b7c 6a3f 72a8 a0be
00000270: d6d0 e23e fc5f e53e f302 57bf c45c c83e
00000280: c50d 95bf bb46 6b3e c0d2 8c3d 5e85 983e
00000290: a926 c9bf ecde 193f d84f 0a3f 3121 6cbe
000002a0: e1ad bfbe 5c61 c7bd 4948 bb3e e0fa 003f
000002b0: 3d5d 963e 0660 f73e 6b5c 5b3e 517c 293f
000002c0: 7f05 1fbf 82ae ba3e fa71 7b3e 87ec cdbd
000002d0: 7130 1dbf 3e81 26be fcd0 053e a6b3 5e3d
000002e0: 385b 063e 992e 6b3f fb6f 87be bdff 153e
000002f0: ba69 7d3f 0648 23be 5234 a63f 87c9 35bf

quadjetResNetBlock.reinforce2.conv.module.bias f4 [8]
-0.11712675 0.34651974 0.63011366 0.67149884 -0.07468371 0.87737906 -0.05774002 0.2815602
00000000: 26e0 efbd 096b b13e 214f 213f 59e7 2b3f
00000010: c6f3 98bd ea9b 603f cd80 6cbd a928 903e

eventConv1.module.weight f4 [8, 8, 1]
-0.5720449 -0.9148858 -0.75342387 -0.049862854 -0.44168985 -0.8693505 -0.17460649 -0.12966362
0.35279322 -0.5148867 1.1455597 0.5392307 -0.39368284 1.0591419 -0.3203605 -0.32746038
-0.80522746 0.41313118 -0.67666084 -0.7486384 -0.38543695 -0.41121563 -0.12890716 0.50911456
-0.14843374 0.09777685 -1.2213713 -0.44050196 0.12308202 -0.6428333 -0.06423687 0.503917
-0.41894308 0.6666628 -1.4449658 -0.7654769 -0.32895198 -0.52760553 0.017430488 0.28399745
-0.5237634 -0.49973089 -0.14345436 -0.09669515 0.8181082 -1.0213397 -0.77075326 1.0754776
-0.07490871 -0.7439773 0.24578273 0.6844697 0.6501031 -0.5103967 -0.7506094 0.68234783
0.14214858 -0.13971706 0.9539742 -0.98950905 0.65785295 -1.0948662 -0.4138241 0.036372464
00000000: 8971 12bf f535 6abf 63e0 40bf fe3c 4cbd
00000010: 2c25 e2be c18d 5ebf 0bcc 32be 8ac6 04be
00000020: 50a1 b43e 9dcf 03bf b3a1 923f 060b 0a3f
00000030: cc90 c9be f691 873f 4b06 a4be e3a8 a7be
00000040: 6323 4ebf ee85 d33e a539 2dbf c4a6 3fbf
00000050: fe57 c5be db8a d2be 3d00 04be 5555 023f
00000060: 04ff 17be 3b3f c83d e555 9cbf 7989 e1be
00000070: 6d12 fc3d b990 24bf 9f8e 83bd b400 013f
00000080: b57f d6be 6aaa 2a3f a4f4 b8bf 4bf6 43bf
00000090: 656c a8be 2811 07bf 62ca 8e3c 1d68 913e
000000a0: 5c15 06bf badc ffbe b3e5 12be 1b08 c6bd
000000b0: 8a6f 513f 42bb 82bf 1650 45bf 40a9 893f
000000c0: bd69 99bd 4c75 3ebf 78ae 7b3e 6839 2f3f
000000d0: 286d 263f 5ca9 02bf f027 40bf 59ae 2e3f
000000e0: 668f 113e fd11 0fbe a737 743f 7750 7dbf
000000f0: 0d69 283f 9324 8cbf c1e0 d3be 4bfb 143d

eventConv1.batchNorm.gamma f4 [8]
2.1834989 1.1199515 0.9037011 0.87145084 2.030858 1.8739762 0.6802871 1.7914778
00000000: 72be 0b40 925a 8f3f f558 673f 6717 5f3f
00000010: 94f9 0140 74de ef3f 4c27 2e3f 254f e53f

eventConv1.batchNorm.bias f4 [8]
-1.8979527 -0.36639732 -0.32354322 0.08022486 0.17222536 0.23201297 -0.41603386 -0.027980423
00000000: 1df0 f2bf 6e98 bbbe 75a7 a5be ee4c a43d
00000010: d85b 303e cf94 6d3e 6402 d5be 3337 e5bc

eventConv1.batchNorm.m f4 [1, 8, 1]
-7.698537 6.441765 -4.6675444 -4.138601 -5.1842155 -4.845418 -1.1673007 -3.8409448
00000000: 6a5a f6c0 f022 ce40 865c 95c0 6b6f 84c0
00000010: 18e5 a5c0 aa0d 9bc0 1c6a 95bf 0ad2 75c0

eventConv1.batchNorm.s f4 [1, 8, 1]
4.9593244 6.049065 4.236424 4.3547153 4.8584075 6.204474 3.3589776 5.022747
00000000: c9b2 9e40 f191 c140 c990 8740 d459 8b40
00000010: 1378 9b40 0d8b c640 7df9 5640 58ba a040

eventConv2.module.weight f4 [8, 8, 1]
0.27724236 -0.21269263 -0.0026123603 -0.17382954 -0.47316495 -0.24256562 0.17812942 0.46613395
0.85830057 -0.86540693 0.5501979 0.92704535 -1.4665866 0.0058971155 -0.18523467 0.1918149
0.28579083 0.03131609 -0.025950525 -0.1532669 0.39738223 0.57042944 -0.08642534 -0.098280326
0.36999723 -0.5419337 0.57788897 0.5733361 -0.7593198 0.5990186 -0.07707158 -0.24822319
-0.0719292 -0.844651 0.30811384 0.11363923 -0.4049591 0.39481428 -0.17621219 -1.1534307
0.3450912 0.06720663 -0.3954493 -0.7709425 -0.32728264 -0.008662368 0.19686286 0.03462307
-0.1878793 0.48981822 0.04566333 0.066353485 0.29217643 0.6144475 0.6156207 0.6172811
0.3005481 0.9714904 0.21741326 -0.26126775 0.56151253 0.10693141 0.18907067 -0.014639545
00000000: b6f2 8d3e 19cc 59be 2234 2bbb 5f00 32be
00000010: ad42 f2be 1f63 78be 8f67 363e 1ca9 ee3e
00000020: 96b9 5b3f 4f8b 5dbf c5d9 0c3f d852 6d3f
00000030: 1cb9 bbbf 973c c13b 28ae 3dbe 206b 443e
00000040: 2d53 923e 4d45 003d 3296 d4bc 00f2 1cbe
00000050: af75 cb3e aa07 123f c5ff b0bd 3247 c9bd
00000060: 4770 bd3e 2bbc 0abf 88f0 133f 28c6 123f
00000070: c862 42bf 4859 193f b4d7 9dbd 382e 7ebe
00000080: 9e4f 93bd 0c3b 58bf 19c1 9d3e afbb e83d
00000090: cd56 cfbe 1925 ca3e f870 34be 9ea3 93bf
000000a0: cbaf b03e a1a3 893d 5578 cabe 7d5c 45bf
000000b0: 9791 a7be 9bec 0dbc 6b96 493e ecd0 0d3d
000000c0: 6e63 40be 74c9 fa3e 7909 3b3d 56e4 873d
000000d0: 2698 953e 6e4c 1d3f 5199 1d3f 2206 1e3f
000000e0: 71e1 993e 98b3 783f 95a1 5e3e e3c4 85be
000000f0: 49bf 0f3f dbfe da3d be9b 413e b4da 6fbc

eventConv2.module.bias f4 [8]
-0.24272765 0.7043688 3.350305 1.2041353 0.35153127 0.9968897 0.7213773 0.5164575
00000000: 998d 78be 8451 343f 666b 5640 1b21 9a3f
00000010: e8fb b33e 2a34 7f3f 2fac 383f 8f36 043f

select_q.module.weight f4 [1, 8, 1]
0.5219786 0.09657342 0.26256076 0.5660533 0.6529241 0.9677074 0.67038345 -0.90371394
00000000: 64a0 053f 49c8 c53d 5d6e 863e dee8 103f
00000010: 0926 273f acbb 773f 409e 2b3f cc59 67bf

out.module.weight f4 [4, 8, 1]
0.3341807 -0.8452919 -0.09356996 -0.23804702 -0.638793 1.4195367 0.32567945 0.071232796
-0.03504042 -0.3702902 0.2138654 1.4478741 0.63124377 0.45288044 -0.7577133 -0.14081936
0.5355947 0.06393399 -1.2783686 0.7959255 -0.6468752 -0.11122437 -0.23851462 0.15975867
1.560401 0.5664289 -0.30198532 -0.5763283 -0.2505052 0.16066916 -0.7885737 -0.19140519
00000000: bc19 ab3e 0d65 58bf 9ba1 bfbd 99c2 73be
00000010: f087 23bf 61b3 b53f 75bf a63e 80e2 913d
00000020: 8b86 0fbd ad96 bdbe 88ff 5a3e f053 b93f
00000030: 3199 213f f2df e73e 80f9 41bf f332 10be
00000040: bc1c 093f d3ef 823d 95a1 a3bf c6c1 4b3f
00000050: 9d99 25bf 9ac9 e3bd 2d3d 74be c797 233e
00000060: 38bb c73f 7c01 113f d29d 9abe 408a 13bf
00000070: 3842 80be 7586 243e f7df 49bf b9ff 43be

out.batchNorm.gamma f4 [4]
1.1229148 0.90856934 1.5220089 1.4157612
00000000: acbb 8f3f 0098 683f 30d1 c23f aa37 b53f

out.batchNorm.bias f4 [4]
0.43381044 0.7278644 -2.1796975 1.5547272
00000000: 671c de3e 5255 3a3f 2a80 0bc0 4d01 c73f

out.batchNorm.m f4 [1, 4, 1]
12.049809 10.206285 -7.2696247 -5.297132
00000000: 05cc 4041 f24c 2341 c4a0 e8c0 1b82 a9c0

out.batchNorm.s f4 [1, 4, 1]
6.8619027 6.135245 4.15454 7.765815
00000000: b594 db40 ed53 c440 fef1 8440 8e81 f840

exp_avg f4 [2]
0.0021695772 -0.002912118
00000000: 772f 0e3b 3cd9 3ebb

exp_avg_sq f4 [2]
0.00017207384 0.0008133704
00000000: b86e 3439 5d38 553a

exp_avg f4 [2]
-0.0035914104 0.0016553565
00000000: de5d 6bbb 8cf8 d83a

exp_avg_sq f4 [2]
0.0017016771 0.00020141061
00000000: cf0a df3a c031 5339

exp_avg f4 [6]
8.01384e-05 0.00041082487 -8.613308e-05 -0.00011097907 -0.00048601683 -0.00016053827
00000000: fa0f a838 fb63 d739 58a2 b4b8 6fbd e8b8
00000010: 13d0 feb9 2a56 28b9

exp_avg_sq f4 [6]
2.6289337e-05 0.00010385747 1.960592e-05 1.8604482e-05 6.252736e-05 3.7779704e-05
00000000: ec87 dc37 0ece d938 6577 a437 d210 9c37
00000010: 1f21 8338 a675 1e38

exp_avg f4 [6]
8.821777e-05 -8.826377e-06 -0.00013647861 -5.1924744e-05 9.234179e-05 6.5556225e-05
00000000: 8e01 b938 0015 14b7 b31b 0fb9 c5c9 59b8
00000010: 9fa7 c138 3b7b 8938

exp_avg_sq f4 [6]
2.1313519e-05 2.7227372e-05 2.9058876e-05 1.4041413e-05 4.284571e-05 1.5438594e-05
00000000: 6fca b237 5666 e437 76c3 f337 6993 6b37
00000010: 3bb5 3338 2182 8137

exp_avg f4 [8, 4, 1]
0.00035224098 -0.00037937035 0.0002858862 -6.8732625e-05 -0.00042503697 -0.0002538352 -0.0003268001 -0.0004997879
-0.0004147146 -5.4308857e-05 0.00011148356 -9.2477516e-05 -0.0005198002 0.000116945674 -0.00010806555 -0.001019334
0.00043478064 0.0007715546 0.00057010737 0.000649763 -0.00046701814 0.00095105526 0.00056723534 5.511515e-05
0.00041291656 7.968366e-05 0.00016336865 0.00032824022 -3.5985955e-05 -0.00016158754 0.00010905898 0.00012289309
00000000: fcac b839 3ae6 c6b9 ffe2 9539 8c24 90b8
00000010: 7fd7 deb9 2f15 85b9 5e56 abb9 3304 03ba
00000020: 0d6e d9b9 b1c9 63b8 48cc e938 7df0 c1b8
00000030: 3343 08ba bb40 f538 40a1 e2b8 2c9b 85ba
00000040: 45f3 e339 2742 4a3a 4273 153a db54 2a3a
00000050: 1dda f4b9 3d50 793a 85b2 143a 712b 6738
00000060: b97c d839 d71b a738 f04d 2b39 a817 ac39
00000070: a0ef 16b8 d36f 29b9 98b6 e438 dddc 0039

exp_avg_sq f4 [8, 4, 1]
0.0003553643 4.2588483e-05 7.88536e-06 0.00020053271 5.7152378e-05 3.5872672e-05 7.881978e-06 6.260635e-05
1.1590126e-05 5.2758505e-06 1.794009e-06 7.601185e-06 0.00021414849 6.787484e-05 2.3091092e-05 0.00017704278
5.4801934e-05 4.1308325e-05 1.0374221e-05 4.198706e-05 5.940707e-05 7.490822e-05 1.7879387e-05 8.2664126e-05
0.000118024815 3.5616064e-05 1.4957541e-05 0.00015482599 8.574351e-05 2.1461172e-05 1.1041906e-05 0.000109244946
00000000: 3050 ba39 09a1 3238 5d4b 0437 1746 5239
00000010: e6b6 6f38 fd75 1638 d63c 0437 874b 8338
00000020: 3673 4237 3607 b136 aec9 f035 af0d ff36
00000030: 0c8d 6039 0758 8e38 beb3 c137 8fa4 3939
00000040: 21db 6538 7a42 2d38 f10c 2e37 431b 3038
00000050: db2b 7938 0b18 9d38 b1fb 9537 f75b ad38
00000060: 1784 f738 7562 1538 26f2 7a37 c958 2239
00000070: 32d1 b338 8407 b437 a040 3937 6f1a e538

exp_avg f4 [8]
0.0003329723 -0.00010549328 -2.796302e-06 -0.00071886455 -0.0009964792 0.00047519838 -8.194586e-05 -0.00073892734
00000000: c992 ae39 463c ddb8 1aa8 3bb6 2f72 3cba
00000010: 4b9c 82ba 0c24 f939 59da abb8 93b4 41ba

exp_avg_sq f4 [8]
3.0488078e-05 3.1036572e-05 4.4767576e-06 4.6427213e-05 4.3078304e-05 6.061382e-05 2.8278488e-05 9.292342e-05
00000000: a6c0 ff37 442d 0238 0e37 9636 d7ba 4238
00000010: faae 3438 983b 7e38 9737 ed37 e2df c238

exp_avg f4 [8, 2, 1]
0.0013301234 0.00051050395 0.0005150263 6.239647e-05 -0.0004992101 1.9548188e-05 4.3175365e-05 -1.0774003e-05
0.00014946186 0.0010073155 -0.00024013093 -8.8425295e-05 0.0008776691 0.0010561596 0.000970696 -0.00022490928
00000000: 8957 ae3a 57d3 053a d402 073a dada 8238
00000010: 6cdd 02ba 6afb a337 3217 3538 fec1 34b7
00000020: ddb8 1c39 e607 843a a8cb 7bb9 f870 b9b8
00000030: 6013 663a d66e 8a3a 4e76 7e3a a0d5 6bb9

exp_avg_sq f4 [8, 2, 1]
0.00031669415 0.00033792874 0.00014064842 3.547564e-05 3.7848098e-05 0.00018628582 4.2293264e-05 0.0002867025
8.041078e-05 0.0001695985 3.4661687e-05 0.0003112248 8.915115e-05 6.931451e-05 9.698847e-05 4.0072166e-05
00000000: f809 a639 072c b139 067b 1339 aecb 1438
00000010: 16bf 1e38 b855 4339 0c64 3138 8f50 9639
00000020: 35a2 a838 40d6 3139 b461 1138 e32b a339
00000030: a9f6 ba38 f25c 9138 4a66 cb38 2913 2838

exp_avg f4 [8]
-0.0016870885 0.0003631338 0.0007026678 0.00032362726 9.127815e-05 0.0010575189 -0.00039951128 0.00049430894
00000000: 4c21 ddba fe62 be39 3d33 383a 84ac a939
00000010: 956c bf38 729c 8a3a 7f75 d1b9 8394 013a

exp_avg_sq f4 [8]
0.0006791875 7.480772e-05 4.134515e-05 3.6454883e-05 8.524431e-05 0.00012919515 3.9660277e-05 3.3979984e-05
00000000: 800b 323a 17e2 9c38 046a 2d38 22e7 1838
00000010: 31c5 b238 8f78 0739 e658 2638 bb85 0e38

exp_avg f4 [8, 8, 3]
0.00057491526 0.00018075603 7.032239e-05 0.000103690996 7.7716424e-05 0.00020191881 -0.00010993674 -6.0355225e-05
-9.851133e-05 0.00016086583 -1.0888397e-05 -0.00012027389 -0.00022072314 -0.00014988473 0.00019952987 -0.00040559378
-7.7110286e-05 -0.00018658374 1.2795023e-05 0.00012269842 0.00026875213 5.9152266e-05 2.9336128e-05 0.0007026395
-1.5304871e-05 6.29224e-05 2.7948878e-05 -1.108283e-05 1.4537188e-05 -3.5039087e-05 3.8412527e-06 4.0454893e-06
1.465696e-06 -3.119803e-05 3.271033e-05 5.690865e-06 9.218803e-05 -5.439954e-05 -1.2260186e-05 0.00011438317
1.46537e-05 5.5015307e-06 6.531337e-05 4.373731e-06 9.291186e-05 4.102834e-05 -1.2855465e-05 -4.4573517e-06
-1.1959169e-06 -1.6096905e-05 7.731636e-06 -9.462627e-06 -1.9918572e-05 4.533154e-05 9.658177e-07 -1.1925965e-06
-2.2081042e-06 2.1615202e-05 -6.8567256e-06 3.8663225e-06 3.0325455e-06 2.5954121e-05 2.3856332e-05 2.5040976e-05
2.3406636e-05 -3.969167e-05 -1.3171732e-05 2.8586094e-06 1.9054523e-05 -1.547708e-05 -3.2730286e-06 0.00020376728
-0.00021459264 -8.122224e-05 -0.00012423075 -9.070566e-05 -8.648944e-05 1.0828934e-05 1.9967581e-05 8.574146e-07
9.555297e-05 -9.1897324e-05 -9.403733e-06 0.00014980957 0.00012489014 0.00014460471 5.1857234e-05 0.00030714358
0.00017339205 0.00015748512 7.4388794e-05 5.464907e-06 -0.00042087145 -8.117889e-06 -2.0673568e-05 -0.00014334421
-2.1951028e-05 -8.6817534e-05 -1.4191889e-05 -2.2070244e-05 1.5386659e-05 6.150653e-05 -1.5120639e-05 -5.601222e-06
-1.2649233e-06 -1.0435992e-05 -2.4969286e-05 -4.7824597e-06 2.1400917e-06 6.435227e-05 -7.483664e-06 -1.3397088e-05
2.3836748e-05 -0.00013512697 5.279861e-06 -5.7977604e-06 -6.0709735e-05 -3.1249178e-06 6.143349e-06 0.0002442684
-0.00012102429 0.00010071659 -8.134778e-06 -7.782738e-05 4.4541554e-05 -1.1760519e-05 3.4300843e-05 3.0171896e-05
-9.723004e-06 -0.00024905475 4.9134203e-05 -2.1468239e-05 0.00017371039 -6.374745e-05 -7.2919906e-06 0.00022550876
1.3641358e-05 -0.00013608337 0.0003109332 -1.5358174e-07 -3.8029717e-05 0.00017234783 -6.355398e-05 1.0477737e-05
6.1497003e-06 -1.39900585e-05 -2.523418e-06 3.2247779e-06 -8.766683e-06 7.461294e-06 1.4795477e-06 2.5684692e-06
3.4041045e-06 1.8706078e-05 -1.5320029e-06 6.096051e-06 -9.597728e-06 1.5963973e-05 4.78432e-06 -9.5188125e-06
1.743585e-05 -2.9892565e-06 -1.503639e-05 -2.6656435e-06 -9.205248e-06 -6.2499494e-06 2.7619587e-06 2.6019283e-05
-5.6125624e-05 5.3247786e-05 3.87334e-05 1.7389824e-05 1.0240286e-05 -5.5757384e-05 1.5113499e-05 -9.823127e-06
-4.2131314e-06 2.3910534e-05 2.464467e-05 6.438363e-06 2.6305439e-05 -4.8688315e-05 6.150712e-06 4.4946166e-05
-5.819436e-05 9.051779e-05 -1.3269606e-05 7.0553165e-06 0.00012906008 -8.407922e-06 1.9038008e-06 -9.478193e-05
00000000: e9b5 163a 5489 3d39 0c7a 9338 ae74 d938
00000010: b0fb a238 2bba 5339 d68d e6b8 ee25 7db8
00000020: de97 ceb8 18ae 2839 4fad 36b7 8e3b fcb8
00000030: eb71 67b9 602a 1db9 e438 5139 e0a5 d4b9
00000040: 45b6 a1b8 b1a5 43b9 35aa 5637 9ba8 0039
00000050: 4de7 8c39 431a 7838 db16 f637 5731 383a
00000060: f662 80b7 35f5 8338 c273 ea37 64f0 39b7
00000070: bfe4 7337 eff6 12b8 1ce4 8036 7dbe 8736
00000080: eeb8 c435 a1da 02b8 7332 0938 28f4 be36
00000090: 1255 c138 102b 64b8 19b1 4db7 ffe0 ef38
000000a0: 2ad9 7537 ca99 b836 d9f8 8838 10c2 9236
000000b0: add9 c238 d815 2c38 cdad 57b7 5c90 95b6
000000c0: 6483 a0b5 d707 87b7 20b7 0137 acc1 1eb7
000000d0: cf16 a7b7 5f22 3e38 3ea1 8135 4e11 a0b5
000000e0: f12e 14b6 4b52 b537 d312 e6b6 75bb 8136
000000f0: bc82 4b36 0db8 d937 151f c837 160f d237
00000100: 5e59 c437 9b7a 26b8 28fc 5cb7 89d6 3f36
00000110: 47d7 9f37 c7d4 81b7 34a6 5bb6 5daa 5539
00000120: 4604 61b9 dc55 aab8 f043 02b9 3b39 beb8
00000130: aa61 b5b8 ebad 3537 0e80 a737 1529 6635
00000140: 9c63 c838 00b9 c0b8 bac4 1db7 3316 1d39
00000150: f1f4 0239 08a1 1739 4881 5938 1d08 a139
00000160: 93d0 3539 9722 2539 2e01 9c38 325f b736
00000170: 69a8 dcb9 1132 08b7 266c adb7 ab4e 16b9
00000180: 7923 b8b7 cf11 b6b8 b319 6eb7 7d23 b9b7
00000190: 9912 8137 11fd 8038 a6ae 7db7 21f2 bbb6
000001a0: 6fc6 a9b5 3f16 2fb7 2275 d1b7 0479 a0b6
000001b0: 7f9e 0f36 ddf4 8638 2f1c fbb6 0ec4 60b7
000001c0: 07f5 c737 dfb0 0db9 a929 b136 628a c2b6
000001d0: 95a2 7eb8 aeb5 51b6 f722 ce36 2611 8039
000001e0: 6cce fdb8 cf37 d338 9b7a 08b7 4237 a3b8
000001f0: 21d2 3a38 0b4f 45b7 40de 0f38 a719 fd37
00000200: fc1f 23b7 9093 82b9 7315 4e38 b116 b4b7
00000210: 0726 3639 27b0 85b8 b9ad f4b6 8c76 6c39
00000220: 30dd 6437 9ab1 0eb9 bf04 a339 3ae8 24b4
00000230: 1982 1fb8 45b8 3439 4948 85b8 8ac9 2f37
00000240: 8659 ce36 d8b6 6ab7 fe57 29b6 4369 5836
00000250: 9e14 13b7 075c fa36 df94 c635 f75d 2c36
00000260: 1272 6436 ffea 9c37 389f cdb5 ae8c cc36
00000270: ee05 21b7 5fea 8537 ff88 a036 fdb2 1fb7
00000280: 3443 9237 099b 48b6 ce44 7cb7 68e3 32b6
00000290: 3d70 1ab7 a8b6 d1b6 175a 3936 fc43 da37
000002a0: 6e68 6bb8 6056 5f38 ac75 2238 5de0 9137
000002b0: b2cd 2b37 09dd 69b8 fc8f 7d37 02ce 24b7
000002c0: 865e 8db6 7b93 c837 07bc ce37 1e09 d836
000002d0: 80aa dc37 ae36 4cb8 3762 ce36 9484 3c38
000002e0: b815 74b8 5ed4 bd38 86a0 5eb7 b5bc ec36
000002f0: 4d54 0739 c00f 0db7 1986 ff35 a9c5 c6b8
