nTupleAnalysis/pytorchModels/SvB_ResNet_9_9_9_np1692_lr0.008_epochs40_stdscale_epoch40_loss0.2070.pkl (torch_old, 67426 bytes, 175 tensors)

jetEmbed.module.weight f4 [9, 4, 1]
000000 86 8e 1f 3f 1f 50 46 be a9 b2 5d be 93 62 04 bd
       0.6232685 -0.19366501 -0.21650185 -0.03232057
000010 df fe 80 bf 20 4a f6 3f 56 01 9d 3e e0 cd 64 3f
       -1.007778 1.9241371 0.30665082 0.8937664
000020 b8 59 ba be d0 cf c9 bf 53 7d df 3d 61 ba 5a 3f
       -0.36396575 -1.5766544 0.109125756 0.8544064
000030 f0 22 e4 3e dd 9e 9d be 17 f1 fd 3c ae 99 9b bf
       0.44557905 -0.30785266 0.03099875 -1.2156274
000040 2d 07 65 bd ef f0 50 bf b9 07 10 3f 21 fc a6 bd
       -0.055915046 -0.81617635 0.56261784 -0.081535585
000050 b1 05 c5 3e 8e 23 d9 bf cc 93 80 be fe 0f 16 bf
       0.38480905 -1.6963975 -0.2511276 -0.5861815
000060 66 a1 4e bf 93 c2 3a bf f1 e4 e6 3e 45 68 40 3f
       -0.80715024 -0.72953147 0.45096543 0.751591
000070 22 54 d7 bf 4a 96 45 bf c7 f8 49 3e 06 bf 54 3f
       -1.682255 -0.7718245 0.19723807 0.8310398
000080 86 40 e6 3d 33 c8 2d c0 df 41 18 be f5 f5 0d 3e
       0.112427756 -2.7153442 -0.14868878 0.13863356

jetEmbed.module.bias f4 [9]
000000 62 31 bd bd 9e 0c 0b 3d 74 08 14 bf 89 dd 2e be
       -0.09237935 0.03394758 -0.578254 -0.17076696
000010 fe 8f 1e be f5 2b d8 3e 6c fc 5c 3d 57 a1 50 bf
       -0.15484616 0.42221037 0.053951666 -0.81496185
000020 2a 7d 3e bf
       -0.74409735

dijetAncillaryEmbed.module.weight f4 [9, 2, 1]
000000 88 01 3d 3f b7 f6 8c bf 6d 76 f1 be cc 19 59 3f
       0.7383046 -1.1012791 -0.47160664 0.8480499
000010 a4 4c 38 c0 b2 93 23 c0 ba c5 9d c0 8f 61 0e bd
       -2.8796778 -2.5558896 -4.9303865 -0.034761008
000020 4a c9 23 bd ec 81 10 3f 35 e1 ad 3f 51 fd c4 bf
       -0.039986886 0.56448245 1.3584353 -1.5389806
000030 df 43 d7 bf 4d c8 8e 3e db 1c 6c 3f ef 2a 3a c0
       -1.6817588 0.27887192 0.9223153 -2.9088705
000040 97 4e 44 40 c0 41 f0 3e
       3.0672967 0.46925163

dijetAncillaryEmbed.module.bias f4 [9]
000000 74 1c 7a 3e 5b b6 48 be 68 42 83 bf 8a b6 8f be
       0.24424917 -0.19600813 -1.025464 -0.28068954
000010 3a 51 7a be c7 e8 24 bf d8 25 68 bf fd c3 ae be
       -0.24445048 -0.6441769 -0.90682745 -0.34133902
000020 a0 ad 8d be
       -0.27671528

dijetResNetBlock.reinforce1.conv.module.weight f4 [9, 9, 3]
000000 b2 0d 89 be c1 8f 89 bd 39 69 16 bf 7e 54 dc 3f
       -0.2676826 -0.06716872 -0.5875431 1.7213285
000010 63 1e 5b 3f bd 3c 1e 3e a0 ec 7f be a3 94 19 bf
       0.8559324 0.15452857 -0.24992609 -0.59992427
000020 a5 49 af 3e eb 67 d6 3f 03 cd 30 bf 84 7e 1b be
       0.34235874 1.6750463 -0.69062823 -0.1518498
000030 e7 3d 20 be f0 51 b5 3e ee 05 81 bf 76 a7 73 3f
       -0.15648614 0.35414076 -1.0079935 0.951774
000040 33 7b 4a be 4a cd 6d bf 1b fe 0f 3d 93 c2 12 c0
       -0.1977356 -0.9289137 0.035154443 -2.2931259
000050 20 2f 1a be f9 79 93 bf c7 4a 32 bd 29 9a f6 3f
       -0.1505704 -1.1521598 -0.043528344 1.9265796
000060 2b 00 21 be ad 61 df bd 74 31 31 c0 01 d0 83 bf
       -0.1572272 -0.10907302 -2.7686434 -1.0297853
000070 f8 8e 20 bf 4e 21 26 c0 83 28 1b 3e 7f 0f 4d bf
       -0.62718153 -2.5957828 0.15152173 -0.8010177
000080 59 ed 7a bf db 54 89 3e 42 b7 83 be 66 d5 92 bf
       -0.98018414 0.26822552 -0.25725752 -1.1471374
000090 78 8d 59 be 8c 33 47 bf 8b 4e db bd 80 a5 3b bd
       -0.21245372 -0.7781303 -0.1070834 -0.04581213
0000a0 01 5d ad 3f 4a 2e 04 3e d4 30 ad bf b3 f2 1d 3d
       1.3544008 0.12908283 -1.3530526 0.038561534
0000b0 04 92 37 c0 7a fa de 3d c3 18 91 3f ed 82 f7 3e
       -2.868287 0.10887618 1.1335682 0.48342076
0000c0 3b 92 4c 3d 0a df e0 bf 72 02 ea bf b1 a7 12 3f
       0.049944144 -1.7568066 -1.8281996 0.57287127
0000d0 c4 d0 90 be 72 f4 24 c0 7e 41 a2 3f 05 7b 44 40
       -0.28284276 -2.5774198 1.2676237 3.0700085
0000e0 4a 8e 83 3f 01 14 90 3e 3a ff df bf 3e 50 35 40
       1.0277798 0.28140262 -1.7499764 2.8330226
0000f0 95 df 14 3f d9 f4 c0 3f 08 2a bb 3d 74 8c ee bd
       0.5815366 1.5074722 0.09138876 -0.11647883
000100 36 6c fb bf 99 13 a4 3c 8b 2b d4 be 5b 86 03 40
       -1.9642398 0.020028876 -0.4143947 2.0550754
000110 a0 66 71 3f f8 92 e4 bf 51 a6 24 be be f8 ce 3e
       0.9429722 -1.7857351 -0.1607907 0.4042415
000120 ce ee 13 3f 4d 43 d2 bf d2 c5 ec bf d2 23 9c bf
       0.5778626 -1.6426789 -1.849787 -1.2198431
000130 73 9e 4c bf 2a 64 50 be 87 3a d9 be 90 27 e6 3f
       -0.79929274 -0.2035071 -0.42427465 1.7980824
000140 a0 17 c2 3f b1 84 69 3e e7 ed bb 3c f5 1d c4 bf
       1.516346 0.22804524 0.02294059 -1.5321642
000150 6b f1 96 3e ee 3f 28 c0 2a 6c 91 3f c3 7e 84 bf
       0.29481062 -2.628902 1.1361134 -1.0351185
000160 77 53 ca bf a6 bc b1 be b5 5e 81 bf 9a ec 33 c0
       -1.5806721 -0.3471424 -1.0107027 -2.811316
000170 33 55 23 3e 43 e9 a5 3f 2f 0a f1 3f 66 16 d3 3f
       0.1595047 1.2961811 1.8831233 1.649121
000180 ce 0c c2 bf 6a ec 75 3f 6c 19 42 c0 66 2f 02 c0
       -1.5160158 0.96063864 -3.0328016 -2.034143
000190 82 52 75 3f ec 67 16 c0 73 7d bd be 6e 23 99 be
       0.9582902 -2.350093 -0.37009773 -0.29909843
0001a0 6c c7 7b bf 5b 6a 13 3f 60 1d b9 3f b6 cc 58 be
       -0.9835117 0.5758416 1.446209 -0.21171841
0001b0 83 cc ca 3e b9 a2 08 c0 a2 b9 c2 bf 9f 4b e2 be
       0.39609155 -2.1349318 -1.5212901 -0.4419832
0001c0 7f bc 0b bf 48 37 d6 3f d0 72 21 bf ba 3d f4 bf
       -0.545845 1.673562 -0.63065815 -1.9081337
0001d0 88 ec a7 bf 6e f1 23 c0 4d 09 7b 3f 90 2e 95 3f
       -1.3119059 -2.5616107 0.98061067 1.1654835
0001e0 4f 40 71 bd 8b 5b c1 3f 25 77 24 40 06 83 00 3f
       -0.05889922 1.5106062 2.569772 0.50199926
0001f0 46 b4 35 3f 31 35 d3 be c5 d9 94 be 19 53 9e 3f
       0.709782 -0.4125152 -0.29072395 1.2369109
000200 5b de a3 3f a9 bf e1 3f 85 41 ab 3f a0 59 88 c0
       1.2802233 1.7636615 1.337937 -4.2609406
000210 44 af 02 bd 17 63 63 bf da b1 5f 3f 90 8f cd 3b
       -0.031905428 -0.88823074 0.87380755 0.0062732175
000220 ff be 12 40 2b 23 10 be 1c 11 7f 3f 99 bc a8 3d
       2.2929075 -0.14075916 0.9963548 0.08239097
000230 2d ca e1 3d 3a 1b c7 3d 7b 41 c6 3f 76 00 32 c0
       0.1102489 0.0972199 1.5488733 -2.7812781
000240 d3 ce 55 3f 1d 9d 42 3f 86 a3 eb bf 03 d0 a6 bf
       0.83518714 0.76020986 -1.8409278 -1.303223
000250 0c 8a ae bd b5 9c cb 3c bc 80 2c c0 8e ca b5 3e
       -0.08522424 0.024854997 -2.6953573 0.355061
000260 3b 93 53 bf 14 77 79 3f 08 66 b5 3f 2f ef 4e bf
       -0.8264653 0.97447324 1.4171762 -0.80833715
000270 2c f2 8c 3e 24 f8 25 40 ad 4b 95 3d 71 65 38 bf
       0.27528512 2.5932703 0.07289825 -0.7202979
000280 57 25 07 c0 72 ed 00 be 0e 3c ef 3f 00 83 86 c0
       -2.111654 -0.12590578 1.8690202 -4.203491
000290 cf e6 4e bf 7c ab c2 3f f5 a4 91 3f 48 7e 03 40
       -0.80820936 1.5208583 1.1378466 2.0545826
0002a0 46 a9 12 bf 7d 74 fa bf 2a 11 f6 3e 3e 48 61 bf
       -0.5728954 -1.9566799 0.4805997 -0.8800086
0002b0 00 87 db bf 6e d4 09 bf 21 56 fd be 55 50 c5 3e
       -1.7150574 -0.53839767 -0.49479774 0.3853785
0002c0 71 d5 9c 3f 16 fb 60 c0 54 4f 63 3f 33 9a 95 bf
       1.2252637 -3.515325 0.8879292 -1.1687683
0002d0 ad 50 38 bd 6c f9 22 3f 35 69 36 c0 03 ac a1 3f
       -0.044998813 0.6366184 -2.8501713 1.2630619
0002e0 f1 97 9f 3f 98 b8 cf be 2b 9c da bf 22 f6 be 3f
       1.2468244 -0.4057052 -1.7078909 1.4918864
0002f0 45 30 3e 3f 0e 33 35 3f 4b 38 8e bf d4 cb 0b be
       0.74292403 0.7078103 -1.1110929 -0.13651973
000300 a8 09 9b 3e e1 4c a0 3e 2e 97 94 3f ac 48 fd bf
       0.30280805 0.31308654 1.1608636 -1.9787803
000310 14 0d 45 c0 d9 2d 77 c0 e9 4d ce 3d 68 7a 7d 3f
       -3.0789232 -3.8621733 0.10073454 0.990149
000320 e6 2b 34 c0 b2 61 34 3e 7b 69 c3 3f bd 23 a9 bd
       -2.8151793 0.17615393 1.5266565 -0.0825877
000330 5b 98 3d 3f b1 fe c0 3f 5a 48 5b 3f d0 7d bd bf
       0.740606 1.5077726 0.85657275 -1.480402
000340 be 00 34 bf 06 85 1f bd e8 24 4f 3f 58 75 51 3e
       -0.7031363 -0.03894522 0.8091569 0.2045492
000350 6a 6f 52 bf e8 1f 41 bf 89 0d 02 be 09 6b c0 3e
       -0.82201254 -0.7543931 -0.12700476 0.3758166
000360 ad 70 dc 3b c0 6a b3 3f de a3 21 bf 29 d2 a1 bf
       0.006727299 1.4016953 -0.63140666 -1.2642261
000370 66 c5 b3 3f a3 73 3e 3f 08 e0 92 3e 63 2a 58 bf
       1.4044616 0.743952 0.28686547 -0.84439677
000380 14 61 a3 bf f7 a3 7b 3f 46 33 47 3f 49 17 0f c0
       -1.2764001 0.98297065 0.7781261 -2.2357962
000390 8f e8 fe bd cc fd 36 3e 9c 6b 21 bf cc 78 b0 3f
       -0.12446701 0.17870253 -0.63054824 1.3786864
0003a0 c9 84 5d 3f 8f 2a 76 3d 88 c2 76 bf 09 d5 0d c0
       0.8653074 0.06009918 -0.9639058 -2.2161276
0003b0 aa eb 0b c0 bd b2 39 be e3 3c 50 c0 93 b3 85 3e
       -2.1862588 -0.1813459 -3.2537162 0.26113567
0003c0 d3 51 32 3f 8b 40 74 3a 8a a7 e8 be
       0.69656104 0.0009317479 -0.45440322

dijetResNetBlock.reinforce1.conv.batchNorm.gamma f4 [9]
000000 f4 c4 24 3f 5f 6c 03 3f 12 c0 fb 3e 58 8a 72 3e
       0.64363027 0.51337236 0.49169976 0.23685586
000010 c6 7f ab 3f a2 ac 70 3f b2 b4 9c 3f fc 50 ce 3f
       1.3398368 0.94013417 1.2242644 1.6118464
000020 b8 4f 2a 3f
       0.6652789

dijetResNetBlock.reinforce1.conv.batchNorm.bias f4 [9]
000000 19 dc 53 bf cf 9b cd bd 4d a8 88 bf 2b 2f 43 bf
       -0.8275772 -0.10039484 -1.0676361 -0.7624385
000010 d3 04 8a bf 4a 03 f9 3e b4 69 63 3d 47 a2 6e bf
       -1.0782722 0.48635322 0.05552073 -0.93216366
000020 83 9a fd 3e
       0.49531946

dijetResNetBlock.reinforce1.conv.batchNorm.m f4 [1, 9, 1]
000000 c8 2c 9a c0 4a 96 da c0 d0 d6 30 3f 9a e1 ff bf
       -4.8179665 -6.830846 0.6907778 -1.9990723
000010 12 cb 35 40 27 07 b6 bf 29 fa 1c 40 5f 31 11 3f
       2.8405194 -1.4220933 2.4527686 0.5671596
000020 6d 85 de bf
       -1.7384468

dijetResNetBlock.reinforce1.conv.batchNorm.s f4 [1, 9, 1]
000000 d4 a9 23 41 0f 0a 36 41 55 32 e1 40 70 dd 89 40
       10.228962 11.377456 7.037394 4.308281
000010 c8 dc 6d 40 42 50 8a 40 94 a6 81 40 e1 93 c2 40
       3.7166004 4.322297 4.0515842 6.0805516
000020 b0 06 80 40
       4.0008163

dijetResNetBlock.reinforce1.conv.batchNorm.m_biased f4 [1, 9, 1]
000000 00 00 00 00 00 00 00 00 00 00 00 00 00 00 00 00
       0.0 0.0 0.0 0.0
000010 00 00 00 00 00 00 00 00 00 00 00 00 00 00 00 00
       0.0 0.0 0.0 0.0
000020 00 00 00 00
       0.0

dijetResNetBlock.reinforce1.conv.batchNorm.s_biased f4 [1, 9, 1]
000000 00 00 00 00 00 00 00 00 00 00 00 00 00 00 00 00
       0.0 0.0 0.0 0.0
000010 00 00 00 00 00 00 00 00 00 00 00 00 00 00 00 00
       0.0 0.0 0.0 0.0
000020 00 00 00 00
       0.0

dijetResNetBlock.reinforce1.conv.batchNorm.m_biased_first_moment f4 [1, 9, 1]
000000 00 00 00 00 00 00 00 00 00 00 00 00 00 00 00 00
       0.0 0.0 0.0 0.0
000010 00 00 00 00 00 00 00 00 00 00 00 00 00 00 00 00
       0.0 0.0 0.0 0.0
000020 00 00 00 00
       0.0

dijetResNetBlock.reinforce1.conv.batchNorm.s_biased_first_moment f4 [1, 9, 1]
000000 00 00 00 00 00 00 00 00 00 00 00 00 00 00 00 00
       0.0 0.0 0.0 0.0
000010 00 00 00 00 00 00 00 00 00 00 00 00 00 00 00 00
       0.0 0.0 0.0 0.0
000020 00 00 00 00
       0.0

dijetResNetBlock.reinforce1.conv.batchNorm.m_biased_second_moment f4 [1, 9, 1]
000000 00 00 00 00 00 00 00 00 00 00 00 00 00 00 00 00
       0.0 0.0 0.0 0.0
000010 00 00 00 00 00 00 00 00 00 00 00 00 00 00 00 00
       0.0 0.0 0.0 0.0
000020 00 00 00 00
       0.0

dijetResNetBlock.reinforce1.conv.batchNorm.s_biased_second_moment f4 [1, 9, 1]
000000 00 00 00 00 00 00 00 00 00 00 00 00 00 00 00 00
       0.0 0.0 0.0 0.0
000010 00 00 00 00 00 00 00 00 00 00 00 00 00 00 00 00
       0.0 0.0 0.0 0.0
000020 00 00 00 00
       0.0

dijetResNetBlock.reinforce1.conv.batchNorm.m_first_moment f4 [1, 9, 1]
000000 00 00 00 00 00 00 00 00 00 00 00 00 00 00 00 00
       0.0 0.0 0.0 0.0
000010 00 00 00 00 00 00 00 00 00 00 00 00 00 00 00 00
       0.0 0.0 0.0 0.0
000020 00 00 00 00
       0.0

dijetResNetBlock.reinforce1.conv.batchNorm.s_first_moment f4 [1, 9, 1]
000000 00 00 00 00 00 00 00 00 00 00 00 00 00 00 00 00
       0.0 0.0 0.0 0.0
000010 00 00 00 00 00 00 00 00 00 00 00 00 00 00 00 00
       0.0 0.0 0.0 0.0
000020 00 00 00 00
       0.0

dijetResNetBlock.reinforce1.conv.batchNorm.m_second_moment f4 [1, 9, 1]
000000 00 00 00 00 00 00 00 00 00 00 00 00 00 00 00 00
       0.0 0.0 0.0 0.0
000010 00 00 00 00 00 00 00 00 00 00 00 00 00 00 00 00
       0.0 0.0 0.0 0.0
000020 00 00 00 00
       0.0

dijetResNetBlock.reinforce1.conv.batchNorm.s_second_moment f4 [1, 9, 1]
000000 00 00 00 00 00 00 00 00 00 00 00 00 00 00 00 00
       0.0 0.0 0.0 0.0
000010 00 00 00 00 00 00 00 00 00 00 00 00 00 00 00 00
       0.0 0.0 0.0 0.0
000020 00 00 00 00
       0.0

dijetResNetBlock.convJ.module.weight f4 [9, 9, 1]
000000 99 7a c6 bf e5 95 1b c0 aa 32 12 bc a9 cd 64 bf
       -1.5506164 -2.4310238 -0.008923212 -0.8937631
000010 b6 66 49 3e e3 41 48 3f da df b4 3e 0c 95 f4 3e
       0.19668087 0.78225535 0.35327035 0.47769964
000020 14 86 50 3f a7 41 b8 bf 5b 4f 9a bf f3 46 1b bf
       0.81454587 -1.4395036 -1.2055467 -0.60655135
000030 b0 28 0d 40 a9 00 bf 3d 93 59 1b 40 22 c2 ef 3c
       2.2056084 0.09326298 2.4273422 0.029267374
000040 9f c6 13 3f ed c3 24 bd dc 51 88 bf b2 ed 14 bf
       0.57724947 -0.040225912 -1.0649981 -0.58175194
000050 ee 6a 81 c0 b3 67 21 bf 2f 2e 82 be 89 69 3a 3f
       -4.044303 -0.6304886 -0.2542586 0.72817284
000060 26 7c 87 bf dd 1c 86 3f 75 58 32 bf f6 56 23 3f
       -1.0584762 1.0477558 -0.69666225 0.63804567
000070 0c d9 ca 3f 33 d1 b0 3f 2e 0d 2b c0 0a 36 c3 3e
       1.5847487 1.3813843 -2.6726794 0.38127166
000080 3a aa f7 bf b7 d9 78 be 5f ae 21 bf 72 b9 c6 bd
       -1.9348824 -0.24301802 -0.63156694 -0.0970334
000090 2a fe 32 bf 52 72 48 c0 12 32 14 3f cb 11 3d be
       -0.69919074 -3.1319776 0.578889 -0.18463819
0000a0 02 28 36 c0 b1 3d 85 bb 84 8c 9b 3d 25 e1 5e bc
       -2.846192 -0.004066192 0.075951606 -0.013603483
0000b0 16 c0 c7 bd 0d 01 40 bf 76 3c 79 bf 3c 5d a6 3e
       -0.09753434 -0.75001603 -0.9735788 0.32493007
0000c0 ea ef 5d 3e 51 c2 86 bf 9a 30 81 bf fd 95 f3 bf
       0.21673551 -1.0528051 -1.0092957 -1.9030148
0000d0 1f 09 c1 bf ed 79 03 40 cc 7d a1 3e b3 29 38 c0
       -1.5080909 2.0543168 0.31541288 -2.877545
0000e0 4d d6 87 3e a7 8b b0 3f 7e 51 da bf d7 6c 6b be
       0.26530686 1.3792619 -1.705612 -0.22990738
0000f0 3f a3 df bf 3b f0 df 3e 9c ab 8c 3f 87 db da 3f
       -1.7471694 0.4373797 1.0989871 1.7098244
000100 0c 5b 61 be 8f a6 98 be a9 99 63 c0 f7 0a 77 3f
       -0.22007388 -0.29814574 -3.5562537 0.96501106
000110 77 32 7d bf 7e e6 8d bf 6c e5 32 3f 75 7b 41 3f
       -0.9890513 -1.1085966 0.6988132 0.75579005
000120 80 9f d9 3e 9b bd 0a 3e 95 d1 85 be 24 fa 92 bf
       0.425045 0.13548891 -0.2613646 -1.1482587
000130 62 eb d0 bf 87 f0 28 c0 4c 36 cf be 2d 4e 96 3f
       -1.6321833 -2.6396806 -0.40471113 1.1742607
000140 92 22 2b c0
       -2.673985

dijetResNetBlock.convJ.batchNorm.gamma f4 [9]
000000 e2 d2 67 3e a8 bf 69 3f e1 18 87 3f 6c 61 30 3f
       0.22639039 0.9130807 1.0554467 0.68898654
000010 38 4b 04 bd 71 df 38 3e af bc c8 3e 07 d2 89 3f
       -0.032298297 0.18053986 0.39206454 1.076722
000020 bf 20 8b 3f
       1.0869368

dijetResNetBlock.convJ.batchNorm.bias f4 [9]
000000 b4 bd 45 3e 49 b6 18 bf be 36 96 3e 59 78 bb be
       0.19310647 -0.59653145 0.2933864 -0.36615255
000010 c5 f6 95 3e c7 d4 cf be ad 40 ee 3d 56 32 22 bf
       0.29289833 -0.40592024 0.1163343 -0.63358057
000020 d1 d5 fe 3d
       0.12443126

dijetResNetBlock.convJ.batchNorm.m f4 [1, 9, 1]
000000 2d ee f9 be 1d a0 83 3f dd fb 34 3e 42 80 60 bf
       -0.48814526 1.0283238 0.17674203 -0.87695706
000010 cc 60 82 bf 08 73 96 bf ff 09 87 bf 90 0a 8c bf
       -1.018579 -1.1753855 -1.0549926 -1.0940723
000020 72 82 93 bf
       -1.1524184

dijetResNetBlock.convJ.batchNorm.s f4 [1, 9, 1]
000000 6b 2d 02 40 49 88 27 40 83 c7 15 40 81 0b 27 40
       2.034022 2.6176932 2.3403022 2.6100771
000010 6a a0 dd 3f 24 56 9d 3f ce 98 0b 40 06 f8 cf 3f
       1.731458 1.2291913 2.1812015 1.6247566
000020 45 35 31 40
       2.7688763

dijetResNetBlock.convJ.batchNorm.m_biased f4 [1, 9, 1]
000000 00 00 00 00 00 00 00 00 00 00 00 00 00 00 00 00
       0.0 0.0 0.0 0.0
000010 00 00 00 00 00 00 00 00 00 00 00 00 00 00 00 00
       0.0 0.0 0.0 0.0
000020 00 00 00 00
       0.0

dijetResNetBlock.convJ.batchNorm.s_biased f4 [1, 9, 1]
000000 00 00 00 00 00 00 00 00 00 00 00 00 00 00 00 00
       0.0 0.0 0.0 0.0
000010 00 00 00 00 00 00 00 00 00 00 00 00 00 00 00 00
       0.0 0.0 0.0 0.0
000020 00 00 00 00
       0.0

dijetResNetBlock.convJ.batchNorm.m_biased_first_moment f4 [1, 9, 1]
000000 00 00 00 00 00 00 00 00 00 00 00 00 00 00 00 00
       0.0 0.0 0.0 0.0
000010 00 00 00 00 00 00 00 00 00 00 00 00 00 00 00 00
       0.0 0.0 0.0 0.0
000020 00 00 00 00
       0.0

dijetResNetBlock.convJ.batchNorm.s_biased_first_moment f4 [1, 9, 1]
000000 00 00 00 00 00 00 00 00 00 00 00 00 00 00 00 00
       0.0 0.0 0.0 0.0
000010 00 00 00 00 00 00 00 00 00 00 00 00 00 00 00 00
       0.0 0.0 0.0 0.0
000020 00 00 00 00
       0.0

dijetResNetBlock.convJ.batchNorm.m_biased_second_moment f4 [1, 9, 1]
000000 00 00 00 00 00 00 00 00 00 00 00 00 00 00 00 00
       0.0 0.0 0.0 0.0
000010 00 00 00 00 00 00 00 00 00 00 00 00 00 00 00 00
       0.0 0.0 0.0 0.0
000020 00 00 00 00
       0.0

dijetResNetBlock.convJ.batchNorm.s_biased_second_moment f4 [1, 9, 1]
000000 00 00 00 00 00 00 00 00 00 00 00 00 00 00 00 00
       0.0 0.0 0.0 0.0
000010 00 00 00 00 00 00 00 00 00 00 00 00 00 00 00 00
       0.0 0.0 0.0 0.0
000020 00 00 00 00
       0.0

dijetResNetBlock.convJ.batchNorm.m_first_moment f4 [1, 9, 1]
000000 00 00 00 00 00 00 00 00 00 00 00 00 00 00 00 00
       0.0 0.0 0.0 0.0
000010 00 00 00 00 00 00 00 00 00 00 00 00 00 00 00 00
       0.0 0.0 0.0 0.0
000020 00 00 00 00
       0.0

dijetResNetBlock.convJ.batchNorm.s_first_moment f4 [1, 9, 1]
000000 00 00 00 00 00 00 00 00 00 00 00 00 00 00 00 00
       0.0 0.0 0.0 0.0
000010 00 00 00 00 00 00 00 00 00 00 00 00 00 00 00 00
       0.0 0.0 0.0 0.0
000020 00 00 00 00
       0.0

dijetResNetBlock.convJ.batchNorm.m_second_moment f4 [1, 9, 1]
000000 00 00 00 00 00 00 00 00 00 00 00 00 00 00 00 00
       0.0 0.0 0.0 0.0
000010 00 00 00 00 00 00 00 00 00 00 00 00 00 00 00 00
       0.0 0.0 0.0 0.0
000020 00 00 00 00
       0.0

dijetResNetBlock.convJ.batchNorm.s_second_moment f4 [1, 9, 1]
000000 00 00 00 00 00 00 00 00 00 00 00 00 00 00 00 00
       0.0 0.0 0.0 0.0
000010 00 00 00 00 00 00 00 00 00 00 00 00 00 00 00 00
       0.0 0.0 0.0 0.0
000020 00 00 00 00
       0.0

dijetResNetBlock.reinforce2.conv.module.weight f4 [9, 9, 3]
000000 48 c6 00 3f ce eb 44 3f f0 1c 0f c0 bc 30 f3 3e
       0.50302553 0.7692231 -2.2361412 0.4749812
000010 3f bd 00 bf cd ab 2d 3f ab ea 04 3d bc 91 10 bf
       -0.50288767 0.6784027 0.03245036 -0.56472373
000020 f5 17 1e bf 88 43 f3 3d a0 25 1a bf 26 5c bd bd
       -0.61755306 0.11878115 -0.6021366 -0.092460915
000030 86 4b db 3e 79 f0 05 bf e3 bd 6b bf 39 b3 fa 3f
       0.42831057 -0.5232006 -0.9208662 1.9585944
000040 9a 2b 8c 3f cc bd 29 3e 40 b1 5c 3f b8 6d 61 3e
       1.0950806 0.16576308 0.8620796 0.2201451
000050 03 b2 5b bf 48 50 97 3e e7 46 aa 3c fc 9a 65 bf
       -0.858185 0.29553437 0.020785762 -0.8968961
000060 52 af 04 3f d8 8c 82 3d 6e 9a 7f bd 41 cc ef 3e
       0.5183002 0.0637452 -0.062403135 0.4683552
000070 58 c2 a4 3e 21 af cb 3d 4f ed f3 bc 74 d7 62 bf
       0.32179523 0.099455126 -0.029776243 -0.88610005
000080 2c d2 05 bf db c0 f4 3e 1e 2f b1 3e 6f cb 9e bf
       -0.5227382 0.47803387 0.3460626 -1.2405833
000090 96 70 3c bf cf 31 21 3f 76 f1 a7 bf 75 86 9e 3e
       -0.7360929 0.62966627 -1.3120563 0.30961958
0000a0 cb ae 06 be ad 80 0a 3f aa 9c 80 3f 83 7c b6 3e
       -0.13152616 0.54102594 1.004781 0.3564187
0000b0 2f e7 4c c0 1e 8f b4 bc 20 f7 6a bf c8 cc 16 3f
       -3.2016103 -0.0220409 -0.9178333 0.5890622
0000c0 bf e4 20 bf 75 99 22 3e 11 fc ba bf 69 cc 82 bd
       -0.6284904 0.15878852 -1.4608175 -0.063866444
0000d0 91 6e 26 bf 27 af 35 c0 c9 47 33 3f ca 45 18 3f
       -0.6501246 -2.8388155 0.7003141 0.5948149
0000e0 d4 ac 54 3f 5d 57 00 bf 94 64 16 be 01 05 d1 bf
       0.83076215 -0.50133306 -0.14686805 -1.6329652
0000f0 7f 82 70 be b9 72 db be c3 b1 3a 3f 15 d0 24 bf
       -0.2348728 -0.42860964 0.7292749 -0.6438001
000100 48 e7 0f 3f d5 6d 9b bf 6c fb c3 be 4d 15 db be
       0.5621228 -1.2142893 -0.38277757 -0.4278969
000110 0f 42 7c 3f 51 aa f2 3e 04 e0 6d be 0d 79 11 be
       0.985383 0.47395566 -0.23229986 -0.14206333
000120 cc 4c 89 be b3 6a 0c bf be 60 07 3a a0 ea 33 be
       -0.26816404 -0.5485031 0.0005164257 -0.17569971
000130 1b ae f4 bd 71 30 e9 bd c3 ca 49 3d bc 05 80 bf
       -0.119472705 -0.113861926 0.049265634 -1.000175
000140 0f 8d 6b bf 18 99 c8 3e d3 ee d7 3e a7 df a6 3e
       -0.92012113 0.391793 0.42174396 0.32592508
000150 fb 90 25 3e b7 c5 32 3d 18 db 16 3d 26 b6 8e bc
       0.16168587 0.043645587 0.036830038 -0.01742084
000160 5e 06 8b bd b8 33 67 3f 7c 38 83 3d be c0 16 3e
       -0.06788324 0.9031329 0.06407258 0.14721963
000170 fd de 2c 3f 7e 51 2c 3d 23 71 56 3e 0f 55 6d 3f
       0.67527753 0.042069905 0.20941596 0.92707914
000180 07 bf 51 be a2 29 dd be 01 fb 41 bf 6f bd c3 be
       -0.20483027 -0.43195826 -0.75773627 -0.38230464
000190 8a 85 31 3f 01 aa ad 3e 3f 7c f7 be 77 f0 98 be
       0.6934439 0.33918765 -0.4833698 -0.2987096
0001a0 bb 07 1b bf bb ba d3 be 8c df d3 be e0 37 10 c0
       -0.6055867 -0.41353402 -0.4138149 -2.2534103
0001b0 5e 43 8b 3d a6 18 70 3f 08 72 92 bd e7 28 52 bf
       0.06799959 0.9378761 -0.07150656 -0.8209366
0001c0 ea 04 52 3e 67 f1 4a 3e 0c 54 a2 be 9c 4a 98 3e
       0.20509687 0.1981865 -0.31704748 0.29744422
0001d0 ab 00 08 c0 f7 05 05 be 3f 80 f3 bd 6e 07 8e c0
       -2.1250408 -0.12990557 -0.118896954 -4.438407
0001e0 3d 56 b3 3d 0a 73 0b 3e 93 0e a9 3e d7 56 75 3c
       0.08756683 0.13618103 0.33018932 0.0149743175
0001f0 a6 1e 92 be 51 c2 4c bf fb aa 57 bf 28 d3 21 bf
       -0.28539008 -0.79984003 -0.8424527 -0.63212824
000200 45 d1 2c bf dd 00 6e bf d5 c3 89 bf 00 6a f9 3e
       -0.6750682 -0.9297007 -1.0762888 0.48713684
000210 49 a6 e1 3d d2 0d 94 be c1 0c 72 bd fb f6 54 bf
       0.110180445 -0.28916794 -0.059094194 -0.8318936
000220 a0 1a a1 3f f8 fd 24 3f 3f fb 2f be ec 4e 91 bf
       1.258625 0.64450026 -0.17185687 -1.135221
000230 d6 2d 09 bf 90 5b c1 be b3 c7 a4 3e 16 1f 8e bc
       -0.53585565 -0.3776517 0.32183608 -0.017348807
000240 b1 4c b5 3f cb b3 ef bf b8 86 07 3f d4 95 df bf
       1.4164029 -1.8726743 0.5293994 -1.7467599
000250 19 c8 cc 3f 29 5b 33 3f 2d 8f 20 c0 71 e5 e5 3f
       1.5998565 0.70060974 -2.5087388 1.7960645
000260 28 41 67 be 69 c5 3c c0 38 72 13 40 12 64 a2 be
       -0.22583449 -2.949549 2.3038464 -0.31716973
000270 c0 06 8e be aa 27 26 be 50 fe 5d 3f c4 2f aa bf
       -0.27739525 -0.16226068 0.86716175 -1.3295827
000280 6c c1 14 3f f0 92 89 bf b7 15 88 3d fc 63 59 bf
       0.5810764 -1.0747967 0.06644767 -0.8491819
000290 16 6d 59 bc 51 06 aa bd 20 8e 87 3e b4 15 08 3f
       -0.013270637 -0.08301986 0.2647562 0.53158116
0002a0 b8 d4 4f bf 39 8a 2d 3f c0 b8 b9 3f c0 85 ce bf
       -0.8118396 0.67789036 1.4509506 -1.6134567
0002b0 e7 9b 67 3f 65 a4 41 3f c0 51 95 3f 28 ba 03 bf
       0.90472263 0.7564147 1.1665573 -0.51455927
0002c0 2f af eb be a6 f0 9c 3f 4e 2e 2f c0 22 3b 51 3e
       -0.46032092 1.226094 -2.7372012 0.20432714
0002d0 fa 04 82 3f f8 c0 e8 3d 2d 60 75 3f 3a 7d 55 3f
       1.0157769 0.11364931 0.9584988 0.83394206
0002e0 a0 68 07 3f 07 ea 4b bf 97 b5 9f 3f f6 71 17 be
       0.5289402 -0.7965397 1.2477292 -0.14789566
0002f0 bd 66 90 3f f4 d4 7c 3f 3a 34 4d 3f bd 7a 7f 3f
       1.1281353 0.9876244 0.80157816 0.9979666
000300 96 9f ff be 31 11 2f 3f 86 b8 84 bf 24 94 18 be
       -0.49926442 0.68385607 -1.0368812 -0.14900261
000310 26 18 64 3d 7c 31 44 3f aa fd 56 bf 31 85 1b 3e
       0.055687092 0.7663801 -0.8398081 0.15187527
000320 6e e2 1f 3e 75 1f 7c 3e 13 21 89 bb 65 d9 23 bf
       0.1561372 0.24621375 -0.004184851 -0.6400359
000330 fc 6a 51 3e 71 9a d6 bd 61 3c 56 3f f3 d9 88 3b
       0.20450968 -0.10478676 0.8368588 0.004176372
000340 eb 37 77 be f3 5c 5b be 4f 0d 29 3e f4 41 17 3e
       -0.24142425 -0.21422176 0.16508983 0.14771253
000350 9e 62 40 3e a2 24 b6 3c 4f 94 86 3e 2c 9f a7 bd
       0.1878762 0.022234265 0.26285025 -0.081846565
000360 59 37 d6 3e 9d 4c 73 3f dd 31 d2 3e 61 67 8e be
       0.41839102 0.9503878 0.41053668 -0.27813247
000370 8f 82 b9 be a5 35 4b bf 2e ab 8f bc 94 5e 0f 3d
       -0.3623242 -0.7937873 -0.01753768 0.035002306
000380 e1 52 e4 3f 41 4d 90 3e 4f 19 89 3e b7 b4 e1 be
       1.7837793 0.2818394 0.2677712 -0.44083187
000390 59 a5 58 3e 1a 3d 45 bd f9 d3 81 bf ff 35 02 3e
       0.21156825 -0.048153974 -1.0142814 0.1271591
0003a0 b6 9b 56 bd 89 44 ec be bf c3 86 3e e5 ae 55 be
       -0.05239459 -0.46146038 0.26321217 -0.20867498
0003b0 a8 fc 2c be 68 41 8a bf 44 0b b6 bf ff 62 0e 3f
       -0.16893256 -1.080121 -1.4222188 0.55619806
0003c0 62 8b 3b 3e 24 a7 2f 3f a4 15 92 3e
       0.18314889 0.6861441 0.28532135

dijetResNetBlock.reinforce2.conv.module.bias f4 [9]
000000 97 0b d2 3e 72 e7 b9 3e 21 50 78 3f e1 5d d7 bd
       0.41024467 0.3630939 0.96997267 -0.10515953
000010 e2 a4 85 3e bf eb cd be 97 b5 4f bf 71 0e 16 3f
       0.26102358 -0.40218922 -0.8113646 0.58615786
000020 ee 7f 4d bf
       -0.8027333

dijetEmbed.module.weight f4 [9, 9, 1]
000000 1b f9 5e 3d b9 19 99 bf 7b 95 4e bf 35 eb 71 be
       0.054436784 -1.1960975 -0.8069684 -0.2362488
000010 78 85 84 bf c3 0b 29 c0 7f 59 0e c0 d2 9b 4e 3a
       -1.0353231 -2.6413429 -2.2242124 0.00078814954
000020 c4 28 55 c0 5b 19 4c 3e f1 66 e6 3d 82 0e 9f 3f
       -3.3306131 0.19931547 0.11250103 1.2426302
000030 17 dc 83 be 71 13 25 3f e5 5c 81 3f 25 11 05 3d
       -0.25753853 0.6448279 1.0106474 0.032487053
000040 26 a7 cd 3e be ea a3 bf fe f0 69 3e e8 11 c7 bd
       0.40166587 -1.2806013 0.22845837 -0.09720212
000050 f9 ee 04 3e 3d c4 81 bf 5c af c3 3e 6c 18 cd 3e
       0.12981786 -1.0138012 0.38219726 0.40057695
000060 4e 34 fb 3e 01 84 64 3f 80 eb c3 3e d2 f6 e4 3d
       0.49063343 0.8926392 0.3826561 0.1117989
000070 51 f5 3c bf 66 c5 37 be 32 dd 96 3f 91 00 7e bc
       -0.73811823 -0.17946395 1.1786253 -0.015503065
000080 ce df a4 3f ba 87 9a 3e 2d 12 81 3f 33 e0 27 c0
       1.28808 0.30181676 1.0083672 -2.623059
000090 31 07 4e 3e 20 2e bb be 4a 68 87 bd 9f ea 10 bf
       0.20119931 -0.36558628 -0.066116884 -0.56608003
0000a0 df cc d4 3f 29 ee 65 bf 54 df 00 3f 25 3a eb 3e
       1.6625022 -0.8981653 0.5034077 0.45942798
0000b0 c4 5c e2 bf ab eb 99 3d 01 46 e8 be d9 99 91 bf
       -1.768456 0.07515653 -0.4536591 -1.1375076
0000c0 a9 bf 45 3e 23 9f 25 3f 84 e0 3d be ba e3 a6 bf
       0.19311394 0.6469595 -0.18542677 -1.3038247
0000d0 ef b7 99 bf 00 f7 0b c0 fd 15 a9 be ce 8a c3 3f
       -1.2009257 -2.1869507 -0.33024588 1.5276735
0000e0 4b 64 28 3f eb d6 96 be f8 49 6f 3f f6 bc 99 3d
       0.65778035 -0.29460844 0.9347224 0.075067446
0000f0 4c 0b 10 3f 95 64 87 bf 94 59 81 bf f6 1e c1 bc
       0.5626724 -1.057757 -1.0105462 -0.023574334
000100 ea 85 22 bf 1a 52 df 3e eb 27 06 3f b4 af d8 3e
       -0.63485587 0.43617326 0.5240466 0.4232155
000110 a6 cd 77 3f 04 46 55 bf 2f c5 e0 3f 81 8f cb bf
       0.9679817 -0.8330996 1.7560176 -1.5903169
000120 a8 05 6e bf 27 fb 20 3f 9a 66 b0 c0 84 c1 a0 bf
       -0.9297738 0.6288323 -5.5125246 -1.2559056
000130 7a 00 be bf 4e 1a 8a bf b9 88 e3 bf 30 33 e3 bf
       -1.4843895 -1.0789278 -1.77761 -1.7749996
000140 46 83 09 be
       -0.13428983

dijetEmbed.module.bias f4 [9]
000000 d9 1e e8 3f 58 7c 09 40 9d 42 c6 3f 51 7b 02 40
       1.8134414 2.1482143 1.5489079 2.0387766
000010 84 f2 22 40 91 39 10 40 dc 68 2d 3f 0e 0b e5 3f
       2.546052 2.2535136 0.6773813 1.7893999
000020 7c ea 94 bf
       -1.1634059

quadjetAncillaryEmbed.module.weight f4 [9, 6, 1]
000000 0d bd f4 bd bb 1f 0a bf 7e 70 bd bf 99 ff 31 bf
       -0.11950121 -0.53954667 -1.4799955 -0.69530636
000010 27 6f 23 3f 9b 19 b1 3c d8 a9 2c c0 27 e1 02 3f
       0.6384148 0.021618655 -2.6978664 0.51124805
000020 d6 f9 64 3f af 08 7a 3e 29 bd 4f 3f 3f 07 36 3e
       0.8944372 0.24417375 0.8114801 0.17776202
000030 fd 14 d5 bd eb 85 95 3e 0a aa d7 3d 9e c6 bf bd
       -0.10404394 0.29203734 0.10530479 -0.09364055
000040 f6 50 0b c0 43 3c 07 ba b7 64 f0 3e b7 15 fa be
       -2.1768165 -0.0005158821 0.4695184 -0.48844692
000050 1c 13 1a bc b7 e7 06 3d f3 41 f4 be 40 ee 2c c0
       -0.00940397 0.032935824 -0.47706565 -2.7020416
000060 ed 6d ba 3f 7f 3a a8 bf 87 ba f5 be 35 c9 8d be
       1.4564797 -1.3142852 -0.47993872 -0.2769257
000070 4e b2 35 bf 0c 00 5a 3e ba a9 78 40 ff 67 b2 be
       -0.70975196 0.2128908 3.8853593 -0.34844968
000080 01 fc 48 be dc ba 20 3c f0 b6 42 c0 29 80 f5 3d
       -0.19627382 0.009810176 -3.0424156 0.11987335
000090 9f 77 b4 bd 26 79 9e 3f 05 f1 e2 be 6e a8 d6 be
       -0.088118784 1.2380722 -0.44324508 -0.41925377
0000a0 d2 06 3b 3e b0 c2 84 be ac c0 d9 bf b2 a4 0c 3f
       0.1826432 -0.25929785 -1.7011924 0.54938805
0000b0 86 ab 7a bf fc e8 2b be 20 30 10 c0 e7 ca 80 3e
       -0.97917974 -0.16788095 -2.2529373 0.25154802
0000c0 bd ef 1f 3f ce a9 20 c0 a6 24 18 3c df 4c 2c 3b
       0.62475187 -2.510364 0.009286081 0.0026290936
0000d0 01 d5 92 bf 87 f8 c5 3e
       -1.1471254 0.38666174

quadjetAncillaryEmbed.module.bias f4 [9]
000000 1e ea 0b bf a1 dd 6b be 4b 29 d1 bd 81 dd b7 bd
       -0.5465411 -0.23033763 -0.10212954 -0.089777954
000010 ac 73 d3 be 12 ea 63 bf 96 a0 9d 3f 46 16 0a 3f
       -0.41299188 -0.8902904 1.2314632 0.53940237
000020 07 b8 7e be
       -0.24874888

quadjetResNetBlock.reinforce1.sym.weight f4 [9, 1, 2]
000000 00 00 00 3f 00 00 00 3f 00 00 00 3f 00 00 00 3f
       0.5 0.5 0.5 0.5
000010 00 00 00 3f 00 00 00 3f 00 00 00 3f 00 00 00 3f
       0.5 0.5 0.5 0.5
000020 00 00 00 3f 00 00 00 3f 00 00 00 3f 00 00 00 3f
       0.5 0.5 0.5 0.5
000030 00 00 00 3f 00 00 00 3f 00 00 00 3f 00 00 00 3f
       0.5 0.5 0.5 0.5
000040 00 00 00 3f 00 00 00 3f
       0.5 0.5

quadjetResNetBlock.reinforce1.antisym.weight f4 [9, 1, 2]
000000 00 00 00 3f 00 00 00 bf 00 00 00 3f 00 00 00 bf
       0.5 -0.5 0.5 -0.5
000010 00 00 00 3f 00 00 00 bf 00 00 00 3f 00 00 00 bf
       0.5 -0.5 0.5 -0.5
000020 00 00 00 3f 00 00 00 bf 00 00 00 3f 00 00 00 bf
       0.5 -0.5 0.5 -0.5
000030 00 00 00 3f 00 00 00 bf 00 00 00 3f 00 00 00 bf
       0.5 -0.5 0.5 -0.5
000040 00 00 00 3f 00 00 00 bf
       0.5 -0.5

quadjetResNetBlock.reinforce1.conv.module.weight f4 [9, 9, 3]
000000 4d 7a f6 be 62 14 1a 3e 76 37 76 bf b7 35 f6 3e
       -0.48140183 0.15046838 -0.96178377 0.48087856
000010 50 eb ac be 92 c8 54 c0 58 e7 ce 3e ae 52 04 bf
       -0.3377328 -3.3247418 0.40410876 -0.5168866
000020 ce 16 25 c0 3e 0e 4c bf 24 1a 98 3f d7 f8 1d 3f
       -2.579517 -0.7970923 1.1882977 0.61707824
000030 37 e1 2f bf f5 af 8a bf ee 6f da bf 73 09 5f 3f
       -0.68703026 -1.0834948 -1.7065408 0.87123793
000040 f0 41 4c 3e 8f 66 1c c0 31 26 83 3f 0f cd 90 bf
       0.19947028 -2.4437597 1.024603 -1.1312579
000050 ff 69 19 40 54 9b 15 3f 87 48 79 3e 6c d2 2e bf
       2.3970945 0.58440137 0.24344073 -0.6828983
000060 03 51 b3 3f 25 3a 9b 3f 17 6e 95 be a5 cf 30 3e
       1.4009098 1.2127119 -0.29185554 0.1726671
000070 ce b6 54 bf 05 91 0a 3f 18 3c 5a bf 9b a0 12 bf
       -0.8309144 0.5412753 -0.85247946 -0.57276314
000080 2f 69 fb bf 05 2c 82 bf 70 3f b2 be 4d 2d de 3f
       -1.9641474 -1.0169684 -0.34814024 1.7357575
000090 f3 de 39 3f 3c 71 e2 3e e5 c8 88 3f 9c af 05 3f
       0.7260582 0.44227016 1.0686308 0.52221084
0000a0 2a 67 86 bf 57 7b 1f c0 4f 38 8e be 3e 73 3a 3e
       -1.0500233 -2.491903 -0.27777335 0.18208024
0000b0 35 22 5b c0 e7 4a 83 bd 7e f2 b3 3e 64 ea 32 bf
       -3.4239628 -0.06410771 0.35145944 -0.698889
0000c0 08 7e b1 3e 48 ce a5 3e 67 59 8d 40 87 f9 96 bf
       0.34666467 0.32383943 4.4171634 -1.17949
0000d0 0c 8b 69 be 1f be a9 3f 3b 4f 7c be 07 16 d1 bf
       -0.22806948 1.3261145 -0.24639599 -1.6334847
0000e0 99 da 2d bf f0 cb 90 3f fd 06 06 c0 03 90 d6 bf
       -0.6791168 1.1312237 -2.0941765 -1.6762699
0000f0 18 9b b5 3e 77 03 c6 bf f5 c1 88 3f 88 e8 8d bf
       0.3546989 -1.5469807 1.0684191 -1.1086588
000100 93 dc 4f be 98 35 ba be 57 4c 5e be fb af cd be
       -0.20298986 -0.36369014 -0.21708809 -0.40173325
000110 45 34 a9 be 84 b8 24 3f 99 9e e9 3e f1 df 6b 3f
       -0.3304769 0.6434405 0.45628813 0.9213858
000120 f6 08 eb be b5 e7 c1 bf 29 01 88 bf 88 89 3e bf
       -0.45905274 -1.5148836 -1.0625354 -0.74428606
000130 18 31 83 40 29 1d b3 3f 5e ea 13 3e 2d 4e e6 3e
       4.099743 1.3993274 0.14444873 0.44981518
000140 13 6d 10 bf e9 1a 5f bf df 69 92 3f 8d 5c da be
       -0.56416434 -0.87150437 1.1438559 -0.42648736
000150 af 8f b0 be b4 2a 83 bf 3c 4a 76 3f b6 9e 28 3e
       -0.34484622 -1.0247407 0.9620702 0.16466793
000160 52 b1 68 3e 5c d1 cd 3e c3 41 41 3e c7 75 b9 3c
       0.22723892 0.4019879 0.18872742 0.022639168
000170 5a 7f 37 c0 82 37 1e bf c3 b0 64 be fc be b2 40
       -2.867148 -0.6180345 -0.22333054 5.5858135
000180 93 22 4c 40 a9 ef 09 bf 8b c7 f6 3f 2d 59 13 40
       3.1896102 -0.5388132 1.9279646 2.3023179
000190 a0 32 37 3f c2 8a 10 40 2f 87 34 be 3b a5 b0 3c
       0.7156162 2.258469 -0.17629693 0.021563163
0001a0 9e 6d e7 be d3 e9 eb bf 4f 6d 2b 3f 10 3f a4 3f
       -0.4520082 -1.8430732 0.66963667 1.2831745
0001b0 8e b6 74 3f c4 f5 31 40 f8 34 58 3e 01 3c d5 be
       0.95591056 2.7806253 0.21113956 -0.41647342
0001c0 41 e5 02 bf 59 aa 46 c0 82 19 bd 3b f5 21 87 3f
       -0.51131064 -3.1041472 0.005770863 1.0557238
0001d0 99 03 c6 be a6 f7 2e bc 32 36 ac 3e 84 85 3e bf
       -0.3867462 -0.010679161 0.33635098 -0.7442248
0001e0 ce 90 24 be 90 31 9d bf ad 50 07 c0 d1 b5 0e bf
       -0.16070864 -1.228075 -2.114299 -0.5574618
0001f0 0b b8 2a 3e c4 e4 14 bf ab 1a 73 3f 60 16 bd 3e
       0.1667177 -0.5816157 0.9496257 0.36931133
000200 c5 80 f2 3e 72 b8 0e bf 5c 6d cf bf 86 3b f9 bf
       0.47363868 -0.5575019 -1.6205249 -1.947129
000210 79 15 5d bf 56 8e 12 bf 31 a7 5f 40 c3 f6 dc bf
       -0.8636089 -0.5724844 3.4945796 -1.7262806
000220 56 7a 58 bf ee 56 7d 3e f8 43 7b bf dc e3 0f 3e
       -0.8456167 0.24740192 -0.9815059 0.14051765
000230 9a 2c f0 bc 7d eb 17 bd 17 6b 36 be a7 bc 53 3f
       -0.029318143 -0.037089814 -0.17814289 0.82709736
000240 bd ce c3 bf 5d 12 d5 3f db f8 51 3f 2d af 93 3e
       -1.5297467 1.6646229 0.8202035 0.28844586
000250 0f f0 75 3e aa f2 37 bf c1 5a b2 bf db 74 35 3f
       0.24017356 -0.7185465 -1.3933946 0.7088143
000260 27 dc 11 c0 12 d0 3b bf 2d 3c ae bf d4 61 07 c0
       -2.279062 -0.73364365 -1.3612114 -2.115346
000270 6b 5c 10 3f 49 d0 8c c0 38 ed e9 3e c8 86 9f bf
       0.5639102 -4.4004254 0.45688796 -1.2463007
000280 62 9f d7 bf 1b 97 91 3f e6 0b 12 bf 97 49 1b 3f
       -1.6845515 1.1374239 -0.57049406 0.60659164
000290 16 18 74 bf e7 ba cb be a0 24 46 bf d4 27 ad 3f
       -0.9534925 -0.39791033 -0.77399635 1.352778
0002a0 fe b1 6f be 55 1a 04 40 ec cf e0 bf 22 ed 41 bf
       -0.23407742 2.0641072 -1.7563453 -0.7575246
0002b0 10 bc 90 3f 71 fb d6 3d 2f 46 6c 3f b3 fe 18 40
       1.1307392 0.104971774 0.9229459 2.3905456
0002c0 d5 59 dd 3e 95 ab c7 3e e4 67 08 bf 13 e9 30 c0
       0.432326 0.38998094 -0.53283525 -2.7642257
0002d0 ee 54 f4 bf 11 8a fe 3d 3d 25 58 c0 62 8f 51 be
       -1.9088418 0.12428678 -3.3772728 -0.20464852
0002e0 10 10 21 bf 90 dc 99 3f 17 f5 1a c0 2d 0f 35 be
       -0.62915134 1.2020435 -2.421209 -0.1768157
0002f0 81 f1 3e 3f 5d e3 00 3d 06 0e 6d bf 9d ec c0 3e
       0.74587256 0.03146683 -0.92599523 0.37680522
000300 e2 b5 f7 3e 9c ab 00 c0 b5 4b bb 3e 37 3d a7 3f
       0.48380953 -2.0104742 0.36581197 1.3065556
000310 d4 85 f3 3f ff 0a 8a 40 b0 b1 85 bf a9 81 ec 3e
       1.9025216 4.3138423 -1.0444851 0.46192673
000320 46 f3 2f 3f cc 7a a2 bf d2 be cb bd 60 82 e8 be
       0.6873058 -1.2693725 -0.099485055 -0.45411968
000330 df c6 67 bb 71 34 89 bd 98 b8 18 40 bf 1f 04 3c
       -0.003536634 -0.066994555 2.3862667 0.0080642095
000340 7c f6 ea 3e f8 5b 47 bf 58 f9 91 bd 43 b8 91 bf
       0.45891178 -0.7787471 -0.07127637 -1.1384357
000350 c4 47 43 c0 bb d3 b5 3e c8 f9 ae bf fa 6e 45 3f
       -3.0512552 0.355131 -1.3669977 0.7712246
000360 07 66 b7 bf 39 01 7e 3e fa 47 c6 3f 7d be b3 bd
       -1.4328011 0.24805154 1.5490716 -0.08776567
000370 14 95 95 be 58 0b e9 3f ae 85 92 bf c1 57 5a 3e
       -0.292153 1.8206587 -1.1447046 0.21322538
000380 c8 f6 18 bf 99 77 11 c0 08 b9 cb 3d d3 fe 31 3d
       -0.5975156 -2.2729247 0.09947401 0.04345591
000390 57 fa 0d bf d6 71 d9 be e0 b0 a0 3f 0f 4b c7 bf
       -0.55460113 -0.42469662 1.2553978 -1.5569781
0003a0 b0 64 cc be 19 36 ea bd 1f 57 1c c0 ab 76 21 3f
       -0.39920568 -0.114360996 -2.4428174 0.630717
0003b0 54 a3 d3 3e 5a 02 fc 3e de d2 b0 3e b9 c4 2f c0
       0.41335547 0.49220544 0.3453588 -2.746382
0003c0 01 d0 26 c0 19 d4 3c c0 35 da ec bf
       -2.6064456 -2.9504454 -1.8504092

quadjetResNetBlock.reinforce1.conv.batchNorm.gamma f4 [9]
000000 b1 d5 6a 3f 8e fc 1e 40 d9 4b 9f 3f 9b b6 45 3f
       0.9173232 2.4841647 1.2445022 0.7723176
000010 f8 ef 8e 3f 19 7a 0f 40 69 80 1a 40 df 93 06 40
       1.1166983 2.2418272 2.4140875 2.1027753
000020 fb c9 41 40
       3.027953

quadjetResNetBlock.reinforce1.conv.batchNorm.bias f4 [9]
000000 2d ae 8c be 27 87 24 3e e1 f4 87 bf 5e 21 d8 3e
       -0.27476636 0.16067182 -1.0621606 0.42212957
000010 5e 1b 85 3e ea 1e 33 c0 fc a8 6b bf f0 7a c8 bf
       0.25997442 -2.7987618 -0.92054725 -1.5662518
000020 54 bc c1 3e
       0.37838995

quadjetResNetBlock.reinforce1.conv.batchNorm.m f4 [1, 9, 1]
000000 4c 0f a0 c0 90 43 98 40 9c ce ac c0 44 56 c5 3f
       -5.0018673 4.7582474 -5.400221 1.5416951
000010 e7 e8 e4 c0 26 52 36 c1 7e ab 6c bf 70 71 bc c0
       -7.1534305 -11.395056 -0.92449176 -5.8888474
000020 19 39 6d c1
       -14.82644

quadjetResNetBlock.reinforce1.conv.batchNorm.s f4 [1, 9, 1]
000000 0a 7c f2 40 cf 04 14 41 00 f8 eb 40 77 49 d0 40
       7.5776415 9.251174 7.3740234 6.508968
000010 98 3b f1 40 c2 65 21 41 26 af 19 41 46 dc d6 40
       7.5385246 10.087343 9.605261 6.714389
000020 6c 76 32 41
       11.153912

quadjetResNetBlock.reinforce1.conv.batchNorm.m_biased f4 [1, 9, 1]
000000 00 00 00 00 00 00 00 00 00 00 00 00 00 00 00 00
       0.0 0.0 0.0 0.0
000010 00 00 00 00 00 00 00 00 00 00 00 00 00 00 00 00
       0.0 0.0 0.0 0.0
000020 00 00 00 00
       0.0

quadjetResNetBlock.reinforce1.conv.batchNorm.s_biased f4 [1, 9, 1]
000000 00 00 00 00 00 00 00 00 00 00 00 00 00 00 00 00
       0.0 0.0 0.0 0.0
000010 00 00 00 00 00 00 00 00 00 00 00 00 00 00 00 00
       0.0 0.0 0.0 0.0
000020 00 00 00 00
       0.0

quadjetResNetBlock.reinforce1.conv.batchNorm.m_biased_first_moment f4 [1, 9, 1]
000000 00 00 00 00 00 00 00 00 00 00 00 00 00 00 00 00
       0.0 0.0 0.0 0.0
000010 00 00 00 00 00 00 00 00 00 00 00 00 00 00 00 00
       0.0 0.0 0.0 0.0
000020 00 00 00 00
       0.0

quadjetResNetBlock.reinforce1.conv.batchNorm.s_biased_first_moment f4 [1, 9, 1]
000000 00 00 00 00 00 00 00 00 00 00 00 00 00 00 00 00
       0.0 0.0 0.0 0.0
000010 00 00 00 00 00 00 00 00 00 00 00 00 00 00 00 00
       0.0 0.0 0.0 0.0
000020 00 00 00 00
       0.0

quadjetResNetBlock.reinforce1.conv.batchNorm.m_biased_second_moment f4 [1, 9, 1]
000000 00 00 00 00 00 00 00 00 00 00 00 00 00 00 00 00
       0.0 0.0 0.0 0.0
000010 00 00 00 00 00 00 00 00 00 00 00 00 00 00 00 00
       0.0 0.0 0.0 0.0
000020 00 00 00 00
       0.0

quadjetResNetBlock.reinforce1.conv.batchNorm.s_biased_second_moment f4 [1, 9, 1]
000000 00 00 00 00 00 00 00 00 00 00 00 00 00 00 00 00
       0.0 0.0 0.0 0.0
000010 00 00 00 00 00 00 00 00 00 00 00 00 00 00 00 00
       0.0 0.0 0.0 0.0
000020 00 00 00 00
       0.0

quadjetResNetBlock.reinforce1.conv.batchNorm.m_first_moment f4 [1, 9, 1]
000000 00 00 00 00 00 00 00 00 00 00 00 00 00 00 00 00
       0.0 0.0 0.0 0.0
000010 00 00 00 00 00 00 00 00 00 00 00 00 00 00 00 00
       0.0 0.0 0.0 0.0
000020 00 00 00 00
       0.0

quadjetResNetBlock.reinforce1.conv.batchNorm.s_first_moment f4 [1, 9, 1]
000000 00 00 00 00 00 00 00 00 00 00 00 00 00 00 00 00
       0.0 0.0 0.0 0.0
000010 00 00 00 00 00 00 00 00 00 00 00 00 00 00 00 00
       0.0 0.0 0.0 0.0
000020 00 00 00 00
       0.0

quadjetResNetBlock.reinforce1.conv.batchNorm.m_second_moment f4 [1, 9, 1]
000000 00 00 00 00 00 00 00 00 00 00 00 00 00 00 00 00
       0.0 0.0 0.0 0.0
000010 00 00 00 00 00 00 00 00 00 00 00 00 00 00 00 00
       0.0 0.0 0.0 0.0
000020 00 00 00 00
       0.0

quadjetResNetBlock.reinforce1.conv.batchNorm.s_second_moment f4 [1, 9, 1]
000000 00 00 00 00 00 00 00 00 00 00 00 00 00 00 00 00
       0.0 0.0 0.0 0.0
000010 00 00 00 00 00 00 00 00 00 00 00 00 00 00 00 00
       0.0 0.0 0.0 0.0
000020 00 00 00 00
       0.0

quadjetResNetBlock.convD.module.weight f4 [9, 9, 1]
000000 0b 58 1b 3f bd bf 71 bf ab 6a 85 bf 63 6a 1c 40
       0.6068122 -0.94433194 -1.0423177 2.4439933
000010 83 56 1a bf 02 6c d6 3f d2 ea 83 3f e9 7e 8f 3e
       -0.60288256 1.6751711 1.0306036 0.28026512
000020 d7 b9 4c c0 e1 da c8 3f 18 3e fe 3e c4 e9 34 bf
       -3.1988428 1.5691797 0.4965675 -0.706692
000030 ed b7 6d 3f 0b 30 56 c0 26 74 86 bf 60 37 42 c0
       0.92858773 -3.3466823 -1.0504196 -3.0346298
000040 ed 92 8b be 56 31 a8 3e 85 ca 4a bf 78 d0 6a 3d
       -0.27260533 0.3285014 -0.7921527 0.057327718
000050 82 87 29 3e 24 bd 19 40 76 11 9b bf 98 bc b6 3f
       0.16555598 2.4021692 -1.2114704 1.4276304
000060 2d 92 98 3e c6 9c de 3f a1 47 9c bf d0 e4 37 be
       0.29799023 1.7391593 -1.220936 -0.17958379
000070 14 95 8f 3f 82 7b ae 3f ad 2a c6 bf 26 e2 08 c0
       1.121737 1.3631442 -1.5481774 -2.138803
000080 84 ba 81 be da ce 49 bf bf d0 8c be b8 a8 98 bf
       -0.25337613 -0.78831255 -0.2750301 -1.1926489
000090 f7 a0 35 40 be 4f 4f 3e 54 83 2d 3f 76 a0 8c bf
       2.8379495 0.20245263 0.67778516 -1.0986469
0000a0 d3 91 d9 3f da d8 80 3f 62 08 9c bf 6b 00 8c bf
       1.6997627 1.0066178 -1.2190058 -1.0937628
0000b0 cc c1 1a c0 41 45 16 40 33 fe 42 be e2 17 af 3f
       -2.4180784 2.347977 -0.19042282 1.3679163
0000c0 79 ab 7c 3e d6 45 11 40 0f 0d 01 c0 a3 04 25 c0
       0.24674787 2.2698874 -2.016422 -2.578408
0000d0 84 e1 c9 be 5b 09 8a bf 26 2f c6 3f 91 75 64 3f
       -0.39429867 -1.0784105 1.5483139 0.8924189
0000e0 d4 8d ed 3e b5 82 89 3f 11 f5 3f 3f a5 04 21 40
       0.4639727 1.0743014 0.74983317 2.5159085
0000f0 c9 cf 80 3f 72 d1 c8 3f ba 99 dc 3f 2c 48 3c be
       1.0063411 1.5688918 1.7234414 -0.18386906
000100 d2 b2 c3 3f d5 32 c7 3f 2e 09 49 3f 6b ef a2 3e
       1.5288947 1.5562388 0.7852963 0.31823286
000110 98 49 2e 40 71 c9 8a 3f 2b f2 cd bf a3 c9 ad 3f
       2.7232418 1.0842725 -1.6089529 1.357716
000120 2d 69 31 c0 07 e2 22 c0 a0 f2 03 c0 6f a7 50 3d
       -2.7720444 -2.5450456 -2.0616837 0.050940927
000130 49 1e f8 3e 4d 85 a0 bf 60 a3 74 bf fd b0 8e 3e
       0.48460606 -1.254068 -0.9556179 0.27869406
000140 91 a3 62 bd
       -0.05533177

quadjetResNetBlock.convD.batchNorm.gamma f4 [9]
000000 27 ae f8 3e 4f ef 56 3f 7f 2c 96 3f 20 11 ac 3e
       0.48570368 0.83958906 1.1732329 0.33606815
000010 b4 db 72 3e d3 27 4b 3e da 9f 87 3f 36 9b 2f 3f
       0.23716623 0.1983941 1.0595658 0.6859621
000020 dd 81 78 3f
       0.97073156

quadjetResNetBlock.convD.batchNorm.bias f4 [9]
000000 18 ec 07 3f d7 c7 ad 3f c2 48 ba 3f a6 b8 ce 3e
       0.53094625 1.3576611 1.4553454 0.4037525
000010 89 7c 60 3f 7e 05 96 3d 76 4a 0c 3e c3 20 d0 3f
       0.87690026 0.07325266 0.1370028 1.6259998
000020 6d 64 2c 3f
       0.6734074

quadjetResNetBlock.convD.batchNorm.m f4 [1, 9, 1]
000000 2a 85 be 40 fc 55 b4 c0 5b 23 17 41 ad 70 01 c1
       5.9537554 -5.635496 9.446132 -8.090009
000010 a3 2a 94 3f 17 b2 bc 40 a4 19 71 41 5c 4f 97 40
       1.1575512 5.8967395 15.06876 4.7284374
000020 ea fc 0a c1
       -8.686747

quadjetResNetBlock.convD.batchNorm.s f4 [1, 9, 1]
000000 ca 55 64 41 89 0b 4b 41 80 e5 a5 41 78 76 00 41
       14.270945 12.690316 20.73706 8.028923
000010 e5 c4 5f 41 a7 15 20 41 01 9c 6f 41 80 4e b6 40
       13.98557 10.005286 14.975587 5.6970825
000020 b7 06 36 41
       11.376639

quadjetResNetBlock.convD.batchNorm.m_biased f4 [1, 9, 1]
000000 00 00 00 00 00 00 00 00 00 00 00 00 00 00 00 00
       0.0 0.0 0.0 0.0
000010 00 00 00 00 00 00 00 00 00 00 00 00 00 00 00 00
       0.0 0.0 0.0 0.0
000020 00 00 00 00
       0.0

quadjetResNetBlock.convD.batchNorm.s_biased f4 [1, 9, 1]
000000 00 00 00 00 00 00 00 00 00 00 00 00 00 00 00 00
       0.0 0.0 0.0 0.0
000010 00 00 00 00 00 00 00 00 00 00 00 00 00 00 00 00
       0.0 0.0 0.0 0.0
000020 00 00 00 00
       0.0

quadjetResNetBlock.convD.batchNorm.m_biased_first_moment f4 [1, 9, 1]
000000 00 00 00 00 00 00 00 00 00 00 00 00 00 00 00 00
       0.0 0.0 0.0 0.0
000010 00 00 00 00 00 00 00 00 00 00 00 00 00 00 00 00
       0.0 0.0 0.0 0.0
000020 00 00 00 00
       0.0

quadjetResNetBlock.convD.batchNorm.s_biased_first_moment f4 [1, 9, 1]
000000 00 00 00 00 00 00 00 00 00 00 00 00 00 00 00 00
       0.0 0.0 0.0 0.0
000010 00 00 00 00 00 00 00 00 00 00 00 00 00 00 00 00
       0.0 0.0 0.0 0.0
000020 00 00 00 00
       0.0

quadjetResNetBlock.convD.batchNorm.m_biased_second_moment f4 [1, 9, 1]
000000 00 00 00 00 00 00 00 00 00 00 00 00 00 00 00 00
       0.0 0.0 0.0 0.0
000010 00 00 00 00 00 00 00 00 00 00 00 00 00 00 00 00
       0.0 0.0 0.0 0.0
000020 00 00 00 00
       0.0

quadjetResNetBlock.convD.batchNorm.s_biased_second_moment f4 [1, 9, 1]
000000 00 00 00 00 00 00 00 00 00 00 00 00 00 00 00 00
       0.0 0.0 0.0 0.0
000010 00 00 00 00 00 00 00 00 00 00 00 00 00 00 00 00
       0.0 0.0 0.0 0.0
000020 00 00 00 00
       0.0

quadjetResNetBlock.convD.batchNorm.m_first_moment f4 [1, 9, 1]
000000 00 00 00 00 00 00 00 00 00 00 00 00 00 00 00 00
       0.0 0.0 0.0 0.0
000010 00 00 00 00 00 00 00 00 00 00 00 00 00 00 00 00
       0.0 0.0 0.0 0.0
000020 00 00 00 00
       0.0

quadjetResNetBlock.convD.batchNorm.s_first_moment f4 [1, 9, 1]
000000 00 00 00 00 00 00 00 00 00 00 00 00 00 00 00 00
       0.0 0.0 0.0 0.0
000010 00 00 00 00 00 00 00 00 00 00 00 00 00 00 00 00
       0.0 0.0 0.0 0.0
000020 00 00 00 00
       0.0

quadjetResNetBlock.convD.batchNorm.m_second_moment f4 [1, 9, 1]
000000 00 00 00 00 00 00 00 00 00 00 00 00 00 00 00 00
       0.0 0.0 0.0 0.0
000010 00 00 00 00 00 00 00 00 00 00 00 00 00 00 00 00
       0.0 0.0 0.0 0.0
000020 00 00 00 00
       0.0

quadjetResNetBlock.convD.batchNorm.s_second_moment f4 [1, 9, 1]
000000 00 00 00 00 00 00 00 00 00 00 00 00 00 00 00 00
       0.0 0.0 0.0 0.0
000010 00 00 00 00 00 00 00 00 00 00 00 00 00 00 00 00
       0.0 0.0 0.0 0.0
000020 00 00 00 00
       0.0

quadjetResNetBlock.reinforce2.sym.weight f4 [9, 1, 2]
000000 00 00 00 3f 00 00 00 3f 00 00 00 3f 00 00 00 3f
       0.5 0.5 0.5 0.5
000010 00 00 00 3f 00 00 00 3f 00 00 00 3f 00 00 00 3f
       0.5 0.5 0.5 0.5
000020 00 00 00 3f 00 00 00 3f 00 00 00 3f 00 00 00 3f
       0.5 0.5 0.5 0.5
000030 00 00 00 3f 00 00 00 3f 00 00 00 3f 00 00 00 3f
       0.5 0.5 0.5 0.5
000040 00 00 00 3f 00 00 00 3f
       0.5 0.5

quadjetResNetBlock.reinforce2.antisym.weight f4 [9, 1, 2]
000000 00 00 00 3f 00 00 00 bf 00 00 00 3f 00 00 00 bf
       0.5 -0.5 0.5 -0.5
000010 00 00 00 3f 00 00 00 bf 00 00 00 3f 00 00 00 bf
       0.5 -0.5 0.5 -0.5
000020 00 00 00 3f 00 00 00 bf 00 00 00 3f 00 00 00 bf
       0.5 -0.5 0.5 -0.5
000030 00 00 00 3f 00 00 00 bf 00 00 00 3f 00 00 00 bf
       0.5 -0.5 0.5 -0.5
000040 00 00 00 3f 00 00 00 bf
       0.5 -0.5

quadjetResNetBlock.reinforce2.conv.module.weight f4 [9, 9, 3]
000000 40 af c6 3f 94 44 c2 bf 15 be 2e bd 42 9b 40 bf
       1.5522232 -1.5177178 -0.042661745 -0.75236905
000010 18 fc 19 3f 0c fd 4a be 96 4d f8 3e 29 44 96 be
       0.6015029 -0.19823092 0.48496693 -0.29348877
000020 c4 59 49 3e 16 8d 53 bf 6b cf 8b be 14 ed 7e bf
       0.19663149 -0.82637155 -0.27306685 -0.995805
000030 e6 e3 80 be 68 20 d9 bd d7 a6 50 3f b8 c7 7f 3e
       -0.25173873 -0.10601884 0.8150458 0.2497853
000040 3e 35 0a be 2e 27 8b 3f e4 fb 94 bf 99 d0 e9 bd
       -0.13496873 1.0871332 -1.1639371 -0.1141674
000050 2b ae 64 3e fd e2 ce 3b 22 57 da 3e 49 b7 56 3e
       0.22332065 0.00631368 0.42644602 0.20968355
000060 a2 32 02 3f f8 ae c1 bc e8 5f 2d 3f 65 77 c1 3e
       0.5085851 -0.023643002 0.67724466 0.37786403
000070 c7 13 90 3e 53 d1 68 3f 6a 2d a0 3f 7f ea f4 3e
       0.2814009 0.90944403 1.2513859 0.47835156
000080 1f 31 62 3e 06 59 d1 3e 91 ff d0 3e f4 fa 8e 3f
       0.2208905 0.40888232 0.40819982 1.1170335
000090 95 cd 85 bf a7 df 43 3f 6a 0e 66 3e 99 fa 35 3f
       -1.0453364 0.7651314 0.22466436 0.71085507
0000a0 05 15 2b 3e 71 bf b7 3e 44 5a 93 3e 09 2e b8 be
       0.16707237 0.35888246 0.28779805 -0.35972622
0000b0 b9 0b 62 be a8 80 9e bf e2 09 28 3f 28 b7 fc 3e
       -0.22074784 -1.2383013 0.6564008 0.49358487
0000c0 02 df d2 be 52 6f 03 3e 9e dd 06 bf 09 dc ee be
       -0.41185766 0.12835434 -0.5268191 -0.46652249
0000d0 e5 34 38 3f 8e e3 29 bf 59 f0 35 3f 28 1e 1f 3d
       0.7195571 -0.66362846 0.71069866 0.03884712
0000e0 16 ab 5f bf da 84 0e 40 b6 fe 4d 3e 68 34 b6 bf
       -0.8737043 2.2268586 0.20116696 -1.4234743
0000f0 a0 5e 74 3e 2e 79 ed be 03 7b 2f c0 4f 42 b3 3f
       0.23864222 -0.46381515 -2.741883 1.4004611
000100 88 0a 9f bf 3f 4d 0c bf 15 ea 43 c0 b5 1b 0e bf
       -1.2425089 -0.5480537 -3.0611622 -0.5551103
000110 11 c4 d0 3e 50 e5 3f c0 28 7d c7 bd 33 af 78 bf
       0.40774587 -2.9983711 -0.097406685 -0.9714233
000120 bb 2a 92 bf 59 a5 b9 be 5b d4 87 bf ab d2 62 be
       -1.141929 -0.36258963 -1.0611681 -0.22150676
000130 d0 01 b9 3f a6 02 da be fc 0c 39 bf d2 f8 f4 3e
       1.4453678 -0.42580146 -0.7228544 0.47846085
000140 0e c0 ad bf f4 5d 83 3f 46 22 2c c0 55 b4 f3 be
       -1.3574235 1.0263047 -2.689592 -0.4759852
000150 82 ff 06 40 12 ff 6c 3d ba 0e 49 3f 93 77 85 3e
       2.109345 0.05786044 0.78538096 0.2606779
000160 d8 9e 37 bf aa 26 ae bf e3 38 63 bf 33 70 6f bd
       -0.7172675 -1.3605549 -0.8875868 -0.05845661
000170 33 87 e6 bf f5 98 d4 3e f9 b8 4b 3f b1 57 74 3f
       -1.801001 0.41522947 0.7957912 0.95446306
000180 39 a6 73 bf ff b6 97 3e 0b d0 56 bf bb b8 c5 be
       -0.9517551 0.29631802 -0.839112 -0.386175
000190 1d fd 13 3e 47 cb 62 3e cf ec 54 3e 12 77 ad 3e
       0.14452024 0.22147857 0.2079346 0.33879906
0001a0 3c af a4 3f 6f d4 21 bf ec dd ef 3d c0 95 4a 3d
       1.2865977 -0.6321477 0.1171225 0.04945922
0001b0 b3 c1 16 be a5 6d dd 3f 78 43 20 bf 1d 89 98 bf
       -0.14722328 1.7299086 -0.6260295 -1.1916844
0001c0 27 1e 13 3f 4b d1 86 be 1f b2 c1 bc 21 3d 81 3e
       0.57467884 -0.26331553 -0.023644505 0.2524195
0001d0 09 cf 2d c0 f7 fb e9 bf 1d 62 9c bc c8 86 3b 3e
       -2.7157614 -1.8280019 -0.019089753 0.18313134
0001e0 a5 d9 bc 3f f1 89 ae 3f 54 10 93 bf 02 3d 18 40
       1.475392 1.3635846 -1.1489358 2.3787236
0001f0 0e 2e 33 3f a7 f8 d3 bc 49 59 04 3e e0 53 6f bf
       0.6999215 -0.025875403 0.12924685 -0.9348736
000200 22 0e cd 3c 5c 2d 44 3d df a4 2e be 9f be 08 bf
       0.025031153 0.04789482 -0.17055081 -0.53415865
000210 a9 89 64 bf 20 6d 19 be e7 a1 c9 be 80 48 ad be
       -0.8927255 -0.14983034 -0.39381334 -0.33844376
000220 83 05 fd be 14 28 2f bf ad b6 ed 3e 76 ea 3e 3f
       -0.49418268 -0.6842053 0.46428433 0.7457651
000230 86 45 88 bf d2 34 2d 3e 97 74 ff c0 b8 42 87 bf
       -1.0646217 0.1691468 -7.982982 -1.0567236
000240 e7 18 2f 3f 79 89 78 bd f5 35 5a 3e 32 bb 30 bf
       0.6839737 -0.06067798 0.21309645 -0.6903564
000250 c2 0f a8 3d b4 14 ec be 9a b6 61 3f 96 d5 af 3e
       0.082061306 -0.46109545 0.8816925 0.3434264
000260 24 84 1d c0 e2 91 0c bf bb 06 e0 be 37 95 e5 3e
       -2.4611902 -0.549101 -0.43755135 0.44840404
000270 1a 01 b1 3e 39 1d 12 c0 43 48 c6 3f ed 20 be 3d
       0.34571153 -2.2830336 1.5490803 0.09283624
000280 3b 40 88 3f dd fb 05 3e 34 73 16 3f 84 50 74 3f
       1.0644602 0.1308436 0.58769536 0.9543536
000290 27 20 d7 3f 62 06 06 bf b1 0e 31 bf 20 fb b3 3d
       1.6806687 -0.5235349 -0.6916304 0.08788133
0002a0 c9 d8 30 bf 58 4c 88 bb ad 07 07 bd a4 83 01 3f
       -0.6908079 -0.0041594915 -0.032966305 0.5059149
0002b0 e8 d7 f8 be 85 78 46 bf d4 6e 3a 3f e8 25 cf 3b
       -0.48602223 -0.7752765 0.7282536 0.0063216574
0002c0 82 cb 85 3e 73 0c 89 bf 18 04 79 3f e1 8f 22 c0
       0.26131827 -1.0706924 0.9727187 -2.5400317
0002d0 d2 cb 32 3d 25 7b 2e 3d 6b ce 09 bf 20 37 0a bf
       0.04365141 0.04259791 -0.53830594 -0.53990364
0002e0 ce e5 ad be ce dd f6 bd 72 13 0a be 14 61 99 be
       -0.3396439 -0.12054025 -0.1348398 -0.29956877
0002f0 52 23 c3 be ef 38 8d bf e1 b2 ce bd 62 86 16 40
       -0.38112885 -1.1033 -0.10092712 2.351952
000300 51 37 06 3f 23 e9 8c be bd 5c 7f 3e ae 04 58 3d
       0.52428156 -0.2752162 0.2493772 0.052738838
000310 65 30 06 bf 81 08 c4 bd fc 13 bf bd 2e ff 36 bd
       -0.52417594 -0.095719345 -0.093299836 -0.044676952
000320 07 e0 be 3e 64 fc c2 bf 59 0a a9 3e 94 8c 0a bf
       0.37280294 -1.5233274 0.33015707 -0.54120755
000330 99 23 8e be 21 d5 ef 3e 38 19 83 bd 2c 1b 48 3f
       -0.27761534 0.46842292 -0.064012945 0.7816646
000340 9d 57 42 bf e6 5f 17 3f 7a 56 ca be c1 f3 7d 3f
       -0.7591494 0.59130704 -0.395191 0.99200064
000350 61 98 86 3e 27 8c 27 bf 0b 51 4d 3e 0d c2 5f bd
       0.2628813 -0.6544823 0.20050447 -0.05462842
000360 db df f2 3e e6 d3 62 bf e1 50 2b be 6d 54 25 3f
       0.47436413 -0.8860458 -0.16730072 0.6458195
000370 d3 d3 be 3e 9c 5c ba bf ca dc 4d 3f 5f 3e 52 3f
       0.37270984 -1.4559512 0.8041502 0.8212642
000380 83 94 d4 3e 77 7b 8d bf 63 f5 68 3f 46 cd 78 bd
       0.41519555 -1.1053303 0.9099943 -0.06074264
000390 37 2f 02 3f b6 69 87 3f 7e 13 6c 3e 30 bb 28 3f
       0.50853294 1.0579135 0.2305431 0.65910625
0003a0 a8 f8 df bd bb a0 00 40 c7 6c 83 bf fd 16 27 bf
       -0.10936099 2.0098102 -1.0267571 -0.6526945
0003b0 de 6f 20 3f 04 70 55 3f 07 7b e4 bf 0f d4 2e 3f
       0.62670696 0.8337405 -1.7850045 0.68292326
0003c0 07 87 8b c0 07 7e 2c c0 eb 37 80 bf
       -4.360233 -2.695192 -1.0017065

quadjetResNetBlock.reinforce2.conv.module.bias f4 [9]
000000 b9 81 17 40 e7 fb e6 3f 5f cb 42 3f bf 01 cd 3e
       2.3672926 1.8045624 0.7609157 0.40040395
000010 9d 30 0f be 10 c1 c6 3e 2d 9c d1 3e aa 17 87 bf
       -0.13983388 0.3881917 0.40939465 -1.0554097
000020 72 2e 6b bf
       -0.91867745
