nTupleAnalysis/pytorchModels/SvB_ResNet_8_8_8_np1391_lr0.01_epochs20_offset2_epoch20.pkl (torch_old, 53983 bytes, 137 tensors)

canJetScaler.m f4 [1, 4, 1]
00000000: 0000 0000 0000 0000 0000 0000 0000 0000
0.0 0.0 0.0 0.0

canJetScaler.s f4 [1, 4, 1]
00000000: 0000 803f 0000 803f db0f 4940 0000 803f
1.0 1.0 3.1415927 1.0

dijetScaler.m f4 [1, 2, 1]
00000000: 0000 0000 0000 0000
0.0 0.0

dijetScaler.s f4 [1, 2, 1]
00000000: 0000 803f 0000 803f
1.0 1.0

quadjetScaler.m f4 [1, 6, 1]
00000000: 0000 0000 0000 0000 0000 0000 0000 0000
00000010: 0000 0000 0000 0000
0.0 0.0 0.0 0.0 0.0 0.0

quadjetScaler.s f4 [1, 6, 1]
00000000: 0000 803f 0000 803f 0000 803f 0000 803f
00000010: 0000 803f 0000 803f
1.0 1.0 1.0 1.0 1.0 1.0

jetEmbed.module.weight f4 [8, 4, 1]
00000000: aa05 85be 04bf 69bf ddf8 a0ba 0954 903e
00000010: ad3c d6bf d2fa fe3e 2063 ea3d 8d70 553f
00000020: ce08 aebe ab88 7fbf 9060 3bbf 69b3 b13e
00000030: be5f 183f e08b b1bf a5c5 df3e f249 11bf
00000040: 4913 0f3f 75da 8d3e 0683 6dbe e050 173f
00000050: ea01 10bf f098 bc3e e89a 4a3d 8aec 58bf
00000060: c3b8 89bf bc33 6ebe 1979 b9bd 0abc 0f3f
00000070: 5e86 53bf 622e 473e 0809 bdbe 2aa2 ac3f
-0.25980884 -0.9130709 -0.0012281198 0.28189114 -1.6737267 0.49800736 0.11444688 0.83374864
-0.33991092 -0.99817914 -0.7319422 0.34707192 0.5952109 -1.3870811 0.43705478 -0.56753457
0.558888 0.27705732 -0.23194513 0.5910778 -0.5625292 0.36835432 0.049464136 -0.8473593
-1.075951 -0.23261923 -0.09056301 0.561463 -0.82626903 0.19451287 -0.36920953 1.3486989

jetEmbed.module.bias f4 [8]
00000000: 9aed 613f aaf8 82be 4035 20c0 c726 973e
00000010: 6a12 cb3e 6b94 02be 53e5 333f 02e1 02be
0.88253176 -0.2558034 -2.5032501 0.29521772 0.39662486 -0.1275193 0.70271796 -0.12781146

dijetGBN.gamma f4 [2]
00000000: 3e06 e53f d890 093f
1.789253 0.5373664

dijetGBN.bias f4 [2]
00000000: ead7 2a3f e6ea 3f3f
0.6673571 0.749678

dijetGBN.m f4 [1, 2, 1]
00000000: d3d2 3743 28f4 0940
183.82353 2.155527

dijetGBN.s f4 [1, 2, 1]
00000000: 1545 e542 82bf 723f
114.634926 0.9482347

dijetEmbed1.module.weight f4 [8, 2, 1]
00000000: e5bf c63e 5ab2 383e e440 7dbe 7960 6ebe
00000010: 6791 5dc0 48d7 f43e 41a3 c1bf 3f23 49be
00000020: ac54 1fbf f593 7bbf 5d5d aabf f045 8abe
00000030: b6db 6f3e b7bd c4bf fa1b 07be 23bb 403f
0.3881828 0.18036786 -0.24731785 -0.23278989 -3.4619997 0.47820497 -1.5127946 -0.19642352
-0.62238574 -0.9827264 -1.3309742 -0.27006483 0.23423657 -1.5370396 -0.13194266 0.7528555

dijetEmbed1.module.bias f4 [8]
00000000: 6e01 343f efce 18bf a805 cb3f 4b0f 153f
00000010: f306 abbf 50d1 4abe 4763 da3f 5d59 953f
0.7031468 -0.59690756 1.5861101 0.5822646 -1.3361496 -0.19806409 1.7061547 1.1667897

dijetResNetBlock.reinforce1.conv.module.weight f4 [8, 8, 3]
00000000: 02f5 32bf da1f 65be 96a4 6bbe 9774 66be
00000010: cc30 9abf 4ecb 6b3d 83ec 923f d212 c1be
00000020: ad1c eebf 7e48 f83e 09ba 173f 030c f1bf
00000030: dbef 013e aec3 ecbe f878 0bc0 ee20 35bf
00000040: d2ea 0c3f 8544 1cc0 615b 8cbf 76e7 d2bf
00000050: b7ef a0bf a0fe 89bf 79d4 11c0 f3c8 eb3e
00000060: feaa 0d40 2540 1bc0 2b62 f33e 211c 90bf
00000070: 6b6a c63f 17ce 073e b682 073f 7272 0a40
00000080: 9ad2 f7be b917 0440 c721 efbf 8b77 cabd
00000090: 9916 02bf 67b0 6abf bf2d 41be 1d9c 54bf
000000a0: 9d13 293f 2eaa 2e3f 0048 d53e 5eff f8bf
000000b0: fe90 16be 1e3c 90bd 475c 45be daa4 fb3e
000000c0: 7d5d 173f e9ad 9dbf 1909 c43e bd8f 38bf
000000d0: 0033 b2be 3bcc 3fbe a163 bfbf 74ae 923f
000000e0: 66eb 55c0 0b3a 833e df38 b7be d9ca 45c0
000000f0: ce8f b3bf e314 a6bf b178 aebf fe33 c83e
00000100: 4029 263f 7be8 6cbf 7209 be3e 9cd8 54bf
00000110: 1ae1 8f3e f767 ecbe 034d 69bf ea24 2b3f
00000120: b8bc d4be 74da 86bf 0ab3 80be 5e84 68be
00000130: 17c9 ebbf 2ebd a2bd 9855 f63f 7bd6 f53f
00000140: 3d19 2abf f24b 743f 59c1 413e 2a3e 4dbf
00000150: 9ada 4c3f cedb 0d3f 2c6a 973f de80 a23c
00000160: 5d51 d7bf 7898 79be 23e5 90bf 3016 49c0
00000170: a184 30bf c5d6 a6bf 0a05 fcbf 85e6 81be
00000180: 3d40 1dbf af05 0a3f b893 9f3d adc6 0abe
00000190: d01f 92bf ea59 99be fae4 013f cf1b 873d
000001a0: 13c2 e43f c3a7 fabc 1118 043f 2728 0040
000001b0: 74b0 583e 234d 9e3f 0837 7f40 c826 67bf
000001c0: 0c84 db3d e0d4 2f40 0040 aebe c8fd d6be
000001d0: 35cb 233f da37 0bbf 23f9 cabf f704 fabe
000001e0: 4c72 cd3d 6d33 8e3e 68ea ae3e b030 0abf
000001f0: 7598 9fbe 61ad 6f3e 93fa 603f 0ea4 55be
00000200: 4868 8540 7212 723e c284 a43e 213c 1840
00000210: 525d 713f 2627 f9be 2802 0540 6c1b 1bbf
00000220: 2504 00be 8dd4 923f 84bd 5abf 3c57 0ebf
00000230: 2832 66bf ef7a 30bf 418a b9bf 6ee4 ae3e
00000240: 3a5d babe 98e0 72bf 467f 0bc0 59ab 313e
00000250: e1de 593e b3f7 dfbf 3c45 1e40 5593 b03f
00000260: 1311 80be b5b0 583f 7ee3 38be 87c5 1abf
00000270: 9cc4 b63f 74ff 263f 1b10 c7be 47a2 d9be
00000280: 4721 20bf 5169 8abf 1c99 8ebf c184 46bf
00000290: 5ac4 00be 0423 28bf 8cab cdbd 91a6 0cc0
000002a0: 4cc3 3140 b170 82bf c0fe abbf 817f 6ebf
000002b0: 5f1c cfbd c1c5 09bf 71b7 89bf a26f 993f
000002c0: f71e fbbe d885 1a3f b99d 79bd a78b 31bf
000002d0: 65a8 d4be 38b0 cfbf c643 b3bf c5f0 313f
000002e0: f02f fb3e 7d5a 7ebf 1a24 233f cbfc 21bf
000002f0: e45d 64c0 45a1 15be 57cc 4c3e 9b9f 0cbf
-0.699051 -0.22375432 -0.23012003 -0.22505413 -1.2046142 0.057566933 1.1478428 -0.3770967
-1.8602501 0.48492807 0.5926824 -1.8831791 0.12689154 -0.46243042 -2.1792583 -0.7075337
0.5504581 -2.441682 -1.0965387 -1.6476886 -1.2573155 -1.078083 -2.2785933 0.4605175
2.2135615 -2.42579 0.47535834 -1.1258584 1.5501226 0.13262211 0.52933824 2.1632352
-0.48402864 2.063948 -1.8682183 -0.09886082 -0.5081573 -0.9167542 -0.18865107 -0.8305071
0.6604555 0.68228424 0.41656494 -1.9452932 -0.14703748 -0.070427164 -0.19273482 0.4914921
0.59127027 -1.2318698 0.3828819 -0.7209433 -0.34804535 -0.18730251 -1.4952279 1.1459489
-3.3424926 0.2563022 -0.35785577 -3.0905058 -1.4028261 -1.2975124 -1.3630582 0.39102167
0.6490669 -0.9254224 0.3711658 -0.8314302 0.28101426 -0.4617307 -0.91133136 0.668532
-0.4155023 -1.0535417 -0.25136596 -0.22706744 -1.8420743 -0.079462394 1.9244871 1.9206079
-0.6644476 0.95428383 0.18921413 -0.8017298 0.8002106 0.5541352 1.1829276 0.01983684
-1.6821705 -0.24374568 -1.1319927 -3.1419792 -0.68952376 -1.3034292 -1.9689038 -0.25371185
-0.61426145 0.5391492 0.07791847 -0.13552351 -1.1415958 -0.2995141 0.50740016 0.06597101
1.7871727 -0.030597573 0.5159922 2.0024507 0.21161062 1.236729 3.9877338 -0.9029355
0.10718545 2.7473679 -0.34033203 -0.41990495 0.63981944 -0.543821 -1.585728 -0.48831913
0.10031566 0.2777361 0.34163213 -0.5398054 -0.31171003 0.23405983 0.87882346 -0.20863363
4.1689796 0.23639849 0.32132536 2.37867 0.9428302 -0.4866268 2.0782566 -0.6058872
-0.12501581 1.1471115 -0.8544543 -0.5560186 -0.8992028 -0.6893758 -1.4495317 0.34158653
-0.3639925 -0.9487395 -2.1796432 0.1735052 0.21276428 -1.7497467 2.4729757 1.3794962
-0.25013027 0.84644634 -0.18055531 -0.6045765 1.427875 0.6523354 -0.38879475 -0.4250662
-0.6255078 -1.081339 -1.1140475 -0.77546316 -0.12574902 -0.6567843 -0.100424856 -2.1976664
2.777545 -1.0190641 -1.3437119 -0.93163306 -0.10112833 -0.53817374 -1.0759107 1.1987193
-0.49047062 0.6036048 -0.06094143 -0.6935372 -0.41534725 -1.6225653 -1.4005058 0.6950801
0.4906001 -0.99356824 0.6372696 -0.63276356 -3.5682306 -0.146123 0.19999824 -0.5493104

dijetResNetBlock.reinforce1.conv.batchNorm.gamma f4 [8]
00000000: 0dc9 1a40 613c 0340 49ac f03f 79a3 893f
00000010: 9c36 d53f e58a 4140 b75a f23e 20c5 8f3f
2.4185212 2.0505602 1.8802577 1.0753013 1.665729 3.0241024 0.47334835 1.1232033

dijetResNetBlock.reinforce1.conv.batchNorm.bias f4 [8]
00000000: a706 333f b537 323f 2703 4dbf 2f81 723f
00000010: ceb6 8dbf fa1e 8fbf 2a79 393f da1b 143f
0.69932026 0.6961625 -0.80082935 0.9472837 -1.1071413 -1.1181328 0.72450507 0.57855

dijetResNetBlock.reinforce1.conv.batchNorm.m f4 [1, 8, 1]
00000000: 9f8d d1c0 40ce afbf d2fe efc0 e524 f9c0
00000010: 1ba7 3140 ac5a 0541 5e3f e3c0 a5e3 72c0
-6.5485377 -1.3734818 -7.499856 -7.7857537 2.7758243 8.334637 -7.1014853 -3.7951443

dijetResNetBlock.reinforce1.conv.batchNorm.s f4 [1, 8, 1]
00000000: 298e dd40 1a15 7040 c4ac 1741 f181 8040
00000010: e9a3 c740 4bce 1d41 5cec 1a40 768f 7440
6.9236035 3.751288 9.479679 4.015862 6.2387586 9.8628645 2.4206762 3.8212562

dijetResNetBlock.convJ.module.weight f4 [8, 8, 1]
00000000: 377f 01bf 3efd a23c 3fdc 7c3f 7d51 a0bf
00000010: f6b8 433f 6026 b0bf 1f78 5f3f 4f82 e13f
00000020: e237 073e 06f4 bebf cc11 efbe 98d8 8d3f
00000030: cd5c 363f 2a70 2ebf e997 a7bf eaf3 cebf
00000040: 83b9 51bf 94f4 5a3e 2ffe 1fbf a055 05c0
00000050: ce12 8fbe 3013 be3e 0090 8fbe 325d ef3d
00000060: 4aae 5f3f 5374 10bf 9fc9 903f 41d4 933f
00000070: 0ec5 cb3c 33c4 133e 8aaf d6bf 52be 15c0
00000080: b48a a8bf 1378 743f fea8 8bbf 0169 d9bf
00000090: 4871 37bf 4c5d 1bbe 6d08 443f b54f 26bd
000000a0: 80de 9dbe fa4e 273e 887c b93e 3420 d23f
000000b0: b715 79bf 8bc1 863e ab01 98bf 4f0f d9bf
000000c0: c516 1ec0 0fe6 4b3f d377 1f3f c282 e73e
000000d0: 1026 7cbd b4dc febe e7ca bbbf 5694 e8be
000000e0: 52cd 37bf bfec 2840 40ba 573e 168b e4bd
000000f0: c7af 56bf 78bc 8abf ccbd d83e e4dc 35bf
-0.5058474 0.019896146 0.9877357 -1.2524868 0.76454103 -1.3761711 0.87292665 1.7617892
0.13204911 -1.491822 -0.46693265 1.1081724 0.7123535 -0.681399 -1.3093234 -1.6168187
-0.81923693 0.21382362 -0.6249723 -2.0833511 -0.27944034 0.37124014 -0.2803955 0.116876975
0.8737532 -0.56427497 1.131153 1.154915 0.024874236 0.14430313 -1.677232 -2.3397412
-1.3167329 0.9549572 -1.0910947 -1.698517 -0.7165723 -0.15172309 0.76575357 -0.04060336
-0.30833817 0.16338721 0.36227822 1.6416078 -0.9729876 0.26319537 -1.1875509 -1.6957797
-2.4701397 0.79647917 0.6229221 0.45216948 -0.061559737 -0.49777758 -1.4671296 -0.4542567
-0.7179767 2.6394498 0.21067142 -0.11159341 -0.83861965 -1.0838766 0.42332304 -0.7104018

dijetResNetBlock.convJ.batchNorm.gamma f4 [8]
00000000: c835 433f c25e 703f 4296 6b3e f076 053e
00000010: b0e0 dd3d 6ea4 233f 1d49 393f 5332 603f
0.7625394 0.9389459 0.23006538 0.13033652 0.10833871 0.63922775 0.72377187 0.8757679

dijetResNetBlock.convJ.batchNorm.bias f4 [8]
00000000: 649f 4dbf e00c 2abe 39eb 7bbf a451 443f
00000010: de1b 263d b70c aebd b305 acbe b33c 28be
-0.80321336 -0.16606474 -0.98405796 0.76687074 0.04055392 -0.08498519 -0.33598098 -0.16429405

dijetResNetBlock.convJ.batchNorm.m f4 [1, 8, 1]
00000000: fecf d3be c1a6 bdbe 7c14 bbbf ceba a7be
00000010: 216f 8bbf e6fd 37bf 15d6 28c0 5327 01bf
-0.41369623 -0.37041286 -1.4615626 -0.32759708 -1.0893289 -0.71871793 -2.6380665 -0.5045063

dijetResNetBlock.convJ.batchNorm.s f4 [1, 8, 1]
00000000: 7b29 f13f a0cd ff3f 0f12 0040 11fd f83f
00000010: 0c02 0840 26df eb3f 3995 db3f afc2 b93f
1.8840784 1.9984627 2.0011022 1.945223 2.125125 1.8427474 1.7154914 1.4512538

dijetResNetBlock.reinforce2.conv.module.weight f4 [8, 8, 3]
00000000: 6efb da3e d56e fabe a9cb 4f3f 09ed 71bf
00000010: 1b2d d3be ff5d 8f3e 0925 63bf e556 10bf
00000020: ac1d a53f 0489 163f 37e4 d7be 43f4 803f
00000030: 0693 023f 729b 243f 35ee fabf 9e13 96bf
00000040: c577 483f 7e57 febf a794 b6bf 2b0a 5d3f
00000050: 5de0 4d3f c973 85bf 573d 053f 935c 033f
00000060: eda7 693f 9820 a83f 9392 943f d5cb 42be
00000070: a401 29bf ea63 3dbf 564e 833d bfb7 013f
00000080: 8b09 763f 3366 9ebe 3b2c fc3d 38c0 bc3d
00000090: 6ded cb3f 3b8a b73f e4a8 143e 8cec 93bf
000000a0: a0d7 f43e f408 2cc0 abd5 973e c01f 51bf
000000b0: ef42 3f3e 973a 9d3f 84a1 3ebf 48fe 173d
000000c0: b73a 443e 463e dcbd 243d 03c0 870f 4ebf
000000d0: 9eb6 e1be 56a5 e7bd bcb6 a0bf c235 85bf
000000e0: c912 41be cf4e 7b3e a6e6 1cbf 19b5 983e
000000f0: 32c6 013f 9774 423e 136a 163e dcdd b5be
00000100: ee6a bb3d e51d 353f 0774 e8be 6384 683f
00000110: beff 663f 99a6 e03e a2ab ab3f 17f8 ac3f
00000120: 5a10 f23e 88f9 a3bd bc98 073f 8ac1 853f
00000130: 8b61 963f 05d4 7a3f 7890 c83f 6860 8c3f
00000140: eb13 82bf b4b1 fa3e ccc9 1fbf 1111 b7be
00000150: 5d73 d83e 9e67 773f 45de 5d3f 9e93 40c0
00000160: af0f 00c0 7a58 f73e b21f babf 9302 b9bc
00000170: 928c 05bf 7ff3 b8bd f97e 1fbf 5de7 cfbf
00000180: b3aa f8bf 556a 26c0 df8b 19be 3622 4a3f
00000190: c440 053e d1ef e2bd 3db0 4c3e 2540 193e
000001a0: abb2 8d3e 6750 1f3e b490 aabd e299 5bbe
000001b0: 4241 2f3f 2650 5bbe ee63 c9bf 1236 b2be
000001c0: 5477 6f3c 3ff7 56c0 d11d bf3e 2738 ac3d
000001d0: 868e 44bf e44b bfbf 5609 8bbf a81c 153d
000001e0: 959a 8cbe f447 6c3e a7c2 31bf bd15 c6bf
000001f0: ad2b 46bf 990d 0f40 2f55 2a3f 7ffb 03bf
00000200: af0c a9bf 8dd9 e6bd 4a14 593f bdf5 613f
00000210: 1a7a ab3f 18e2 393f 5d52 c33f 301a 08bf
00000220: 9d00 8fbf 4921 2b3f 1de3 44bf ab89 e0be
00000230: a968 d83f 8261 2ebc aaf8 bdbd 30b8 c7bf
00000240: eff7 553f 396a 8d3f e9c7 3cbf 2c3e 993e
00000250: 3014 07bf 254b 42be 14b7 ecbe 9b08 54bf
00000260: 4cbb 06bf f532 2a40 eeee 0440 0557 113f
00000270: d8ba 9b3e 73fc c8be 18e7 78be 0b2e 40bf
00000280: 2563 9c3d 1b51 3f3d 7f8d 4bbf 379a 0dbe
00000290: 733d b13e 725d 44bf e9e7 82be af4f 223f
000002a0: 6800 81bf 0560 cfbf 88da 03c0 17a4 0dbf
000002b0: 9648 d3be 789a 68bf 621e 613f 34f7 c23e
000002c0: 9c3d dd3e f415 223f 88e5 8d3f c8cd ba3f
000002d0: c0bb 7a3e 02a2 1dbf a216 bcbf c417 88bf
000002e0: ad60 d3be cf96 17bf 93de b2be 09ec dbbe
000002f0: e69c 723f 834b 80bf d887 ddbe a5cb 78be
0.4276995 -0.48912683 0.81170136 -0.9450231 -0.4124535 0.280014 -0.88728386 -0.5638259
1.289968 0.5880282 -0.42166302 1.0074543 0.5100559 0.6429969 -1.9603945 -1.1724737
0.78307754 -1.987045 -1.4264115 0.8634364 0.80420476 -1.042596 0.5204672 0.5131313
0.9127186 1.3134947 1.1607231 -0.19023068 -0.6601813 -0.7398058 0.06411426 0.50671
0.9610831 -0.30937347 0.12313124 0.0921635 1.5931832 1.433906 0.14517552 -1.1556563
0.4782076 -2.6880465 0.29655203 -0.8168907 0.18677877 1.2283505 -0.74465203 0.037107736
0.19163023 -0.10754065 -2.0506067 -0.8049244 -0.44084638 -0.11310832 -1.2555766 -1.040703
-0.18854822 0.24541782 -0.6128944 0.29825667 0.5069305 0.18989788 0.14688902 -0.35520828
0.091512546 0.7074874 -0.45401022 0.90827006 0.9023398 0.43877104 1.3411753 1.3513211
0.472781 -0.08006579 0.5296743 1.0449688 1.1748518 0.97979766 1.5669088 1.0966921
-1.0162328 0.48963702 -0.6241729 -0.35755208 0.42275515 0.9664248 0.8666728 -3.0090098
-2.0009573 0.4830969 -1.4540923 -0.022584235 -0.5216762 -0.09030818 -0.6230312 -1.6242481
-1.9427093 -2.60024 -0.14994763 0.7895845 0.13012987 -0.110808976 0.19989105 0.14965875
0.27675375 0.15558015 -0.08328381 -0.2144542 0.6845895 -0.21417293 -1.5733621 -0.34806877
0.014615852 -3.3588407 0.37327436 0.08409148 -0.76779974 -1.4945035 -1.0862224 0.03640428
-0.27461687 0.23074323 -0.6943764 -1.5475384 -0.77410394 2.235205 0.6653623 -0.5155563
-1.3206996 -0.11271963 0.84796584 0.8826559 1.3396637 0.72610617 1.525951 -0.5316496
-1.1172062 0.66847664 -0.7690905 -0.43855032 1.690694 -0.010643365 -0.092759445 -1.5603085
0.8358144 1.1048042 -0.7374254 0.29930246 -0.5276518 -0.18973978 -0.46233428 -0.8282563
-0.5262954 2.6593602 2.077083 0.56773406 0.30415988 -0.39255103 -0.24306905 -0.75070256
0.07636098 0.046708208 -0.7951278 -0.1382836 0.34617195 -0.76705086 -0.25567558 0.6340284
-1.0078249 -1.6201178 -2.060213 -0.55328506 -0.41266316 -0.908607 0.87936985 0.38079226
0.43211067 0.6331475 1.1085672 1.459405 0.24485683 -0.6157533 -1.4694407 -1.0632253
-0.41284695 -0.5921449 -0.34935436 -0.42953518 0.9477066 -1.0023044 -0.43267703 -0.24296434

dijetResNetBlock.reinforce2.conv.module.bias f4 [8]
00000000: 0b26 693f 1029 d8be 9fcb f23f d18a d7bf
00000010: 41e4 4ebf a8f2 8d3e b55e 613f 385e 683f
0.91073674 -0.42218828 1.896839 -1.6839238 -0.8081704 0.27724195 0.88035136 0.90768766

dijetEmbed2.module.weight f4 [8, 8, 1]
00000000: 5104 90be 0c5a 7e3f f715 ba3e fcd5 e7bd
00000010: 2458 6ac0 e8e2 e63e fb82 883e 5db6 ab3f
00000020: 5f6d 21bf 9d6b 5bbf 80e0 f1be ea74 83bd
00000030: 9392 02bd 6a57 293b 4fdd 99bd 1993 34bf
00000040: 36a5 213a 6b72 54bf 3baa 753f ddf7 943f
00000050: 5350 bfbe 6e62 79bc ff7e 0ebb d301 063f
00000060: 633d a6bd 2555 a93f dbb5 23be bec1 d63f
00000070: f6bd df3f d17a 893f e5b0 4dbe 53fe 27c0
00000080: e909 a13f 12e6 793f ef91 24c0 9b48 d1be
00000090: 7118 9240 4deb 643e 8ebd 063f 794b 0ac0
000000a0: d7a2 353f a6d5 4c3f fe90 663e 8e5d a93f
000000b0: a39d 92be dffb c03f 0484 623e 3fa6 46bd
000000c0: fd80 23be 210c 44bc fd82 223e e23f 00c0
000000d0: 0c12 92c0 93a4 e33e 2ef2 963d c252 41bd
000000e0: fedc 3dbe b7c0 9dbf a2e8 6d3f 5c7f 06c0
000000f0: 2734 efc0 50cb 103f 86b5 6ebe 6256 ab3e
-0.28128293 0.9935615 0.36344883 -0.11320111 -3.6616297 0.4509499 0.2666243 1.3415028
-0.6305751 -0.8571108 -0.47241592 -0.06418784 -0.031878065 0.0025839456 -0.075129144 -0.70536953
0.0006166281 -0.8298709 0.95962876 1.1638142 -0.3736597 -0.015221221 -0.0021743176 0.52346534
-0.08117177 1.3229109 -0.15987341 1.6777875 1.7479846 1.0740606 -0.20087011 -2.6248977
1.2581149 0.97616684 -2.571407 -0.40875706 4.5654836 0.22355385 0.5263299 -2.1608565
0.709516 0.800135 0.22516248 1.3231676 -0.28635892 1.5076865 0.22120672 -0.04849839
-0.15967174 -0.011965782 0.1587028 -2.003899 -4.564703 0.44461498 0.07370411 -0.047198065
-0.18541333 -1.2324437 0.92933095 -2.1015234 -7.4751163 0.5656023 -0.23311433 0.33464342

dijetEmbed2.module.bias f4 [8]
00000000: f5ab 3740 cfb7 6dbe 2840 563f a525 48bf
00000010: 1ef5 ebbc 7b6b b63f c17b f53f adde 4040
2.8698704 -0.23214649 0.83691645 -0.7818244 -0.028803404 1.425155 1.9178392 3.013591

quadjetGBN.gamma f4 [6]
00000000: 3f2a ae3f 0d56 883f 76d2 1a3f a28d d53e
00000010: 6ad4 c33f e943 083f
1.3606642 1.0651261 0.6047739 0.4170962 1.5299199 0.5322862

quadjetGBN.bias f4 [6]
00000000: 55fc 103d c0f5 87be 1534 64bd 28b3 81be
00000010: 3e38 4bbd 6c21 dd3d
0.035396893 -0.2655468 -0.05571373 -0.25331998 -0.049614184 0.1079739

quadjetGBN.m f4 [1, 6, 1]
00000000: d17c 2440 0a63 f643 ed66 6240 2e31 ac3f
00000010: b810 9d40 991e fc44
2.5701182 492.77374 3.537532 1.3452508 4.908291 2016.9562

quadjetGBN.s f4 [1, 6, 1]
00000000: 4558 613f 5e39 3f43 d32e 4840 8200 6a40
00000010: 7354 7f3f 7a8a 623f
0.88025314 191.22409 3.127858 3.656281 0.99738234 0.8849255

quadjetEmbed.module.weight f4 [8, 6, 1]
00000000: cec6 7c3f 6716 a4be 2eb6 a4bf 0b90 b3bf
00000010: cb4d bd3f 64d1 7a3d e9aa b43f 5c0b dd3f
00000020: de8d dfbd e052 0cbd 785b 073f 3dc7 573f
00000030: a476 8c3f 8dee 05bf 8ea8 313f dd6d 933e
00000040: 3469 5cbf ead0 9a3f 0454 393f 1679 dd3e
00000050: 12b1 833e 6d93 e8bb f79c 93be 1cf9 b7bd
00000060: a2fc bcbe 987d c23e f996 b23e ffab f93e
00000070: 638f 08c0 1dd3 17bf 9b52 e53f fe98 99bf
00000080: 9a9f 49bf ad84 f6be e978 37bf cc17 6b3f
00000090: 6f78 b5be 2487 39bf 564d 1abf d637 9ebe
000000a0: c38b babd c8e8 b03e 73e4 b8be 387b 7dbf
000000b0: c561 57bf 48e6 71bf c57c 8d3f 9ea9 023f
0.9874085 -0.32048342 -1.2868097 -1.4028333 1.4789366 0.061234847 1.4114658 1.7269092
-0.10915731 -0.034258723 0.52873945 0.8428839 1.0973706 -0.52317125 0.6939782 0.28794757
-0.8609803 1.2095006 0.7239382 0.43256444 0.2572103 -0.0070976526 -0.28830692 -0.08983061
-0.36911494 0.37986445 0.34880808 0.48764035 -2.1337516 -0.5930651 1.7915834 -1.1999815
-0.7875916 -0.481481 -0.7166887 0.91833186 -0.35443446 -0.72471833 -0.60274255 -0.30901974
-0.09108689 0.34552598 -0.36111793 -0.9901614 -0.8413356 -0.94492006 1.1053702 0.51040065

quadjetEmbed.module.bias f4 [8]
00000000: 0ec2 2b3e 4663 cd3e 4d80 5e3f 2f25 1540
00000010: 9662 fe3e e96e f93d c6a7 b8be 8bbd 9c3e
0.16773245 0.40114802 0.8691452 2.3303945 0.4968459 0.121793576 -0.360655 0.3061336

quadjetResNetBlock.reinforce1.sym.weight f4 [8, 1, 2]
00000000: 0000 003f 0000 003f 0000 003f 0000 003f
00000010: 0000 003f 0000 003f 0000 003f 0000 003f
00000020: 0000 003f 0000 003f 0000 003f 0000 003f
00000030: 0000 003f 0000 003f 0000 003f 0000 003f
0.5 0.5 0.5 0.5 0.5 0.5 0.5 0.5
0.5 0.5 0.5 0.5 0.5 0.5 0.5 0.5

quadjetResNetBlock.reinforce1.antisym.weight f4 [8, 1, 2]
00000000: 0000 003f 0000 00bf 0000 003f 0000 00bf
00000010: 0000 003f 0000 00bf 0000 003f 0000 00bf
00000020: 0000 003f 0000 00bf 0000 003f 0000 00bf
00000030: 0000 003f 0000 00bf 0000 003f 0000 00bf
0.5 -0.5 0.5 -0.5 0.5 -0.5 0.5 -0.5
0.5 -0.5 0.5 -0.5 0.5 -0.5 0.5 -0.5

quadjetResNetBlock.reinforce1.conv.module.weight f4 [8, 8, 3]
00000000: ca15 463b 2d51 01c0 4a53 07bd ddef 0bbe
00000010: 6bfc 9f3e 7dd1 c0bd f2b6 573e bf8e b83e
00000020: 846e 293f 486d 6dbf 4b9f 29bf 02f8 36bf
00000030: bacf 483f 0543 c63f 75b2 b840 6732 753d
00000040: c0b1 3540 657c b0bf 7b16 993e d2e4 39be
00000050: 1c35 1c3f 1905 543d 738e d53e ac9c 68bc
00000060: 25d9 873f 8638 053f ab79 febe 4cea bd3d
00000070: a61c 5e3e e250 72be c56a 83bf ddda 773d
00000080: 942a 843e 2cc3 73be adfe c1be eaf0 bf3f
00000090: 8e06 30bf 6a77 9abf 6617 46c0 74ab 4a3b
000000a0: a99d 893f 5979 0cbf 7dd1 993d f677 01be
000000b0: 79d6 7ec0 52eb c23e 7073 febf 0b81 90c0
000000c0: bafb c5be 486c 5240 2370 853f fd41 863d
000000d0: b2b7 5b3d ad7a cebd eb91 d43e a5cb 0b3f
000000e0: 2c5e e63e bd3e 76bd d749 8b3f 542b 18bf
000000f0: fb3a cabe d4a0 f7bf 3d43 5f3f 5a29 123f
00000100: 2879 d5bf 90a0 9fbf 8a74 03bf 5d22 983f
00000110: e109 b2bf 45a5 8abd 4984 48bf 3654 2d3e
00000120: 7da1 f7be 7aae d0bf d55f 5e3f 1416 6ebb
00000130: 5116 ebbc 5f81 e4be b415 e7be 3baf df3f
00000140: 7d74 ba3d 095c 2ebf befa 41bf a204 20c0
00000150: 91d9 f73f 9bb5 1a40 c8a7 4fbf 11df be3e
00000160: f1b5 533f 876b bc3f d9b7 91be 0fc2 31be
00000170: a75e be3f 0505 6fbf 752a 0640 5b6c b93e
00000180: f2aa d1be dc60 ebbf 442f 483e e51b c7bf
00000190: 58ec ab3f 3467 64bf 1623 39bf e2cd afbe
000001a0: 179b 053f 88fb 06c0 3a35 c1bf c83e 11bf
000001b0: c367 a23f c489 22be 2b0f 87be 32ec a5be
000001c0: db18 2840 4028 6b3f 2581 863e d0ab b63f
000001d0: 68d5 8ebe a772 a7bd ed8b b2bf 3884 393f
000001e0: ca2d e1be 0340 5b3f aa67 4cbf 03a8 e03e
000001f0: 64d9 ddbe 5926 08bf 517c cd3d 77a1 833f
00000200: b249 033f bbb3 783f f86e bf3e 227b f23e
00000210: 59f4 22bf 458d 3c3f 8c98 bb3e a677 18be
00000220: 94b8 24c0 f20b 563f 2ba1 973e 8f66 66c0
00000230: 0c82 a140 db3c 84bd 954d 893e d360 3a40
00000240: ce68 09c0 e49e 323f cc3f 263f 3060 9d3e
00000250: 7b1d 1bbf 9595 293f dbd5 9b3f 048b afbd
00000260: 5978 db3e 5870 0a3e 1840 2e3f 2d48 0e40
00000270: 4a81 c23e fb9b 2bbf 61b6 fabe d841 0e40
00000280: ea36 343f 8483 9d3e 5801 5e3e 6af8 c83b
00000290: 66aa 8dc0 3c63 b2be c5db 86bd 743d eabf
000002a0: 9d3c 1d3e 71df 06be ed8c c93d 087b 6f3e
000002b0: e38f 06bf 3eb3 9bbd d2a6 e0be 512f a7bf
000002c0: 1ffb 90bf db84 4bbe b806 373f 5ba1 403f
000002d0: ccac 9d3e 86e3 0cbe 6d34 14c0 87e3 1bbf
000002e0: bbed 3340 bde7 c3bf 01fd ec3e 7321 e53f
000002f0: 47bf 8b3f 728c 183f b637 e63f 2116 a8bf
0.003022539 -2.0205796 -0.033038415 -0.1366572 0.31247267 -0.09414957 0.21065882 0.36046407
0.6618426 -0.92744875 -0.66258687 -0.7147218 0.78441966 1.5489203 5.7717843 0.05986252
2.838974 -1.3787962 0.29899964 -0.18153694 0.6101854 0.051762674 0.41710243 -0.01419751
1.0613142 0.5203937 -0.497022 0.09273204 0.21690616 -0.23663667 -1.0266958 0.06051146
0.25813735 -0.23804921 -0.37889615 1.4995396 -0.6876 -1.2067692 -3.0951781 0.0030924948
1.0751239 -0.5487266 0.0751066 -0.12643418 -3.9818404 0.3807016 -1.9878979 -4.5157523
-0.38668615 3.287859 1.0424846 0.06555555 0.053641982 -0.10081992 0.41517577 0.5460761
0.44993722 -0.060118426 1.0881909 -0.59441113 -0.39498124 -1.9345956 0.8721197 0.5709435
-1.6677599 -1.2470875 -0.513497 1.1885487 -1.3909265 -0.06769804 -0.7832685 0.16926655
-0.48365393 -1.6303246 0.8686498 -0.0036329078 -0.028697165 -0.44629952 -0.45133746 1.7475351
0.091042496 -0.68109185 -0.7577323 -2.5002828 1.9363271 2.4173343 -0.8111539 0.3727956
0.82699496 1.4720315 -0.28460577 -0.17359184 1.4872636 -0.93367034 2.0963414 0.3621548
-0.40950733 -1.8388934 0.1954928 -1.5555388 1.3431501 -0.89219975 -0.7231916 -0.34336764
0.52189773 -2.1091022 -1.5094368 -0.5673642 1.2687916 -0.15872866 -0.2637876 -0.32406765
2.626517 0.9185829 0.26270404 1.4271183 -0.2789719 -0.08176165 -1.3948952 0.72467375
-0.43980247 0.8564455 -0.7984568 0.43878183 -0.43329918 -0.53183514 0.10033477 1.028365
0.51284325 0.97149247 0.3738935 0.47359568 -0.63654095 0.7365306 0.36639822 -0.14889392
-2.5737658 0.8361198 0.2961515 -3.6000097 5.047125 -0.0645692 0.26817003 2.9121597
-2.1470218 0.697737 0.64941096 0.30737448 -0.6059186 0.6624387 1.2174639 -0.08571437
0.42865255 0.13519418 0.6806655 2.2231553 0.37989265 -0.6703488 -0.4896727 2.2227688
0.7039629 0.307644 0.216802 0.006133129 -4.4270506 -0.34841335 -0.065848865 -1.8300004
0.15355153 -0.13171174 0.098413326 0.23386776 -0.52563304 -0.07602547 -0.43877274 -1.3061315
-1.1326636 -0.19874899 0.71494627 0.7524621 0.30795896 -0.13758668 -2.3156998 -0.60894054
2.811385 -1.5305096 0.46286777 1.7900833 1.0917748 0.595893 1.7985752 -1.3131753

quadjetResNetBlock.reinforce1.conv.batchNorm.gamma f4 [8]
00000000: b92d 9ebf a419 6d3f 7ecc 91bf 0333 6c40
00000010: 9317 0540 b501 ab3f fd06 2140 accf 2a40
-1.2357703 0.9261725 -1.1390531 3.6906135 2.0795639 1.3359896 2.5160515 2.6689253

quadjetResNetBlock.reinforce1.conv.batchNorm.bias f4 [8]
00000000: 5339 74be c9f8 133f 218f 51bf 2f1a a03f
00000010: b6df 0b3e 90b0 b4be 4f79 93be c305 313e
-0.23849992 0.5780149 -0.8185902 1.2507991 0.13659558 -0.35290956 -0.2880349 0.17287354

quadjetResNetBlock.reinforce1.conv.batchNorm.m f4 [1, 8, 1]
00000000: e9d0 eb41 64e6 fcc0 66ff e4bf b9bd 3541
00000010: 7167 2ec1 5347 2ec1 dd42 8041 1bea 1641
29.477007 -7.903124 -1.7890441 11.358819 -10.900254 -10.892413 16.032648 9.432155

quadjetResNetBlock.reinforce1.conv.batchNorm.s f4 [1, 8, 1]
00000000: 5cd9 7341 6bc6 8841 f47f 8a41 b67a ec41
00000010: 459a af41 8ce7 8141 71ba 0942 4b2e 6f41
15.240566 17.096884 17.312477 29.559917 21.950327 16.23806 34.43207 14.948802

quadjetResNetBlock.convD.module.weight f4 [8, 8, 1]
00000000: 2c35 b83e 9ecd 28bf e3cb 1ec0 39b2 bbbf
00000010: 594f 5dbe b02c b4bf bbce 9cbe 418b 853e
00000020: aec3 e4be f9ac 463f 25f0 8abf dc30 6d3f
00000030: 282f 20bf c30e 9cbf ede3 b0bf 9538 48bf
00000040: 6229 5a3e e145 573d c72d 7640 8434 1bbf
00000050: d18a c73f 830c 9d3d 5ad5 afbe 3ddf f2be
00000060: 8a55 97bf 56d2 a23e 3781 6d3e d78c 493f
00000070: ca4c 65bf c593 d43f dbc5 a13e ce1a 65be
00000080: 2c92 3d3e 0ea9 02bf ff1d 853e 3f12 bfbe
00000090: acfc d0bf 2254 073c 20d7 883e ef4f 0240
000000a0: 3cd1 1d3f 8884 023f 5d42 b33e f94f 62bf
000000b0: 8c7f 5dbe bc86 c73f 5487 8c3f f364 a73f
000000c0: 569f 5b3f 13b3 0bbe 7d28 9f3e 0daf 86be
000000d0: 7312 22bf 69b2 1fbf 44a4 c43f 5dd3 ae3f
000000e0: 3938 733f 68ae b43d 0805 d73d 7b0b 7fbe
000000f0: 0f74 a03f 1d7b 833c 7417 2840 e0f2 2f3f
0.35978067 -0.65938747 -2.4811943 -1.4663764 -0.216123 -1.4076138 -0.30626473 0.26082805
-0.44680542 0.77607685 -1.0854536 0.9265268 -0.62571955 -1.2192005 -1.3819557 -0.7821134
0.21304849 0.052556876 3.846544 -0.6062701 1.5589238 0.07668402 -0.34342462 -0.47435942
-1.182298 0.318011 0.23193823 0.7873053 -0.89570296 1.6607596 0.31596264 -0.22373506
0.18512791 -0.51039207 0.25999448 -0.37318608 -1.6327109 0.008259805 0.26726627 2.0361288
0.6164739 0.50983477 0.3501157 -0.8840328 -0.21630687 1.5587993 1.0978799 1.3077682
0.8579 -0.1364253 0.31085578 -0.26305428 -0.633094 -0.6238161 1.536263 1.3658253
0.95007664 0.08822328 0.104990065 -0.24906723 1.2535418 0.016049916 2.6264315 0.6872997

quadjetResNetBlock.convD.batchNorm.gamma f4 [8]
00000000: f99e 0d40 21c6 be3f 8b5a 463f 5fce 783f
00000010: 1726 a63f 7510 d03f 7f50 dabe 56d4 9a3f
2.212828 1.4904214 0.7748191 0.971899 1.2980374 1.6255022 -0.4263954 1.209605

quadjetResNetBlock.convD.batchNorm.bias f4 [8]
00000000: 68c4 683f 26e5 9a3d aa3f e33e 624e 88bf
00000010: 390e 36be 43f1 ad3e 3572 7e3f 36d7 363f
0.9092469 0.07563238 0.4438451 -1.064892 -0.17778863 0.3397313 0.99393016 0.71422136

quadjetResNetBlock.convD.batchNorm.m f4 [1, 8, 1]
00000000: 8907 3cc2 9ec3 75c2 3fb3 5642 d4a2 903f
00000010: 4bac 6c41 f5d4 6142 46be ff41 fd06 6742
-47.00736 -61.441032 53.675045 1.1299691 14.792064 56.457966 31.967907 57.756824

quadjetResNetBlock.convD.batchNorm.s f4 [1, 8, 1]
00000000: bc65 3242 e323 1542 2c6a 0e42 256a d041
00000010: baeb 0c42 86dc 2042 8351 ce41 641b c341
44.59935 37.285046 35.603683 26.051828 35.2302 40.215355 25.7898 24.388374

quadjetResNetBlock.reinforce2.sym.weight f4 [8, 1, 2]
00000000: 0000 003f 0000 003f 0000 003f 0000 003f
00000010: 0000 003f 0000 003f 0000 003f 0000 003f
00000020: 0000 003f 0000 003f 0000 003f 0000 003f
00000030: 0000 003f 0000 003f 0000 003f 0000 003f
0.5 0.5 0.5 0.5 0.5 0.5 0.5 0.5
0.5 0.5 0.5 0.5 0.5 0.5 0.5 0.5

quadjetResNetBlock.reinforce2.antisym.weight f4 [8, 1, 2]
00000000: 0000 003f 0000 00bf 0000 003f 0000 00bf
00000010: 0000 003f 0000 00bf 0000 003f 0000 00bf
00000020: 0000 003f 0000 00bf 0000 003f 0000 00bf
00000030: 0000 003f 0000 00bf 0000 003f 0000 00bf
0.5 -0.5 0.5 -0.5 0.5 -0.5 0.5 -0.5
0.5 -0.5 0.5 -0.5 0.5 -0.5 0.5 -0.5

quadjetResNetBlock.reinforce2.conv.module.weight f4 [8, 8, 3]
00000000: e6c7 ef3e 103c a0bf 895e 9abf b497 2b3f
00000010: 8ecd 263e c4d0 593f 9df0 773f e296 72be
00000020: b8b8 b6bf b808 8bbd 6197 d9bf 49bd 3b40
00000030: f65b a240 0835 0dc1 10e7 0e3f 2d9a c53e
00000040: 06a7 0dc0 cfca 00bf fdc2 91bf 91b5 6b3f
00000050: 4815 e73f a84f b7bf 879d 293f 988c c33f
00000060: b16f 8fbe bffd 00bf fb23 47be d9dc 353e
00000070: e56d 3ebe aabc 06bf c663 ccbe 56af babd
00000080: 90ba 27be 875f 07bf a9cb 03bf c106 d5be
00000090: f817 403d 666f a03c e496 6cbe 8214 b8be
000000a0: 4de3 89be 67d2 6dbe a11d 9ebe 19e6 a2be
000000b0: d7cf ff3c f034 8bbc 36d1 8fbe b37c bcbd
000000c0: 1c95 10c0 3524 c83f be1f 92be 696a 9b3f
000000d0: 344f 9d3e 1fce 86bf e6ff 413f ae81 c2be
000000e0: a7f1 af3e 4b7e bdbe c343 0a3f f3a3 88bf
000000f0: 38f2 843f 8591 7140 0e49 94bf 33e7 89be
00000100: 593c f23e 4597 343f d58b 9f3f c9a9 bcbe
00000110: b144 92bf d73e c43f d69b 0a3f 92f2 c73e
00000120: 2126 e3bf 7a87 89bf 0a98 4fbf c5c7 2a3f
00000130: 7a1f 14be aca3 3c3f 362a a23f 5f65 06bf
00000140: b597 e7be 1860 f73b fbd5 683d 786c 5040
00000150: 1766 9e40 b18d cac0 c2ad 60bf 0921 d3be
00000160: 19ce f3bf 825c 063f fefd b03e 93eb 883f
00000170: 8eeb c3bf a8f1 8b3e b0b3 e13d d93c 723f
00000180: 2f15 713f e61b 6abe 645b 8abf 3e3e 86bf
00000190: 64e2 36bf 91ab 23be 1ffd 443f 9a2b 1e3f
000001a0: 3e0f 273f b7df cb3e f5fa 09bf 9ff0 ee3e
000001b0: e72a be3f f724 44c0 58df 0c3f db01 f33e
000001c0: e7d4 68bd db92 e0bf a76c 53bf 6ae7 d03f
000001d0: 918a 0e3f 10d9 84bf 9179 be3e 00b1 cfbf
000001e0: b80d b33e 1876 2d3e 0552 31bf e57b c7be
000001f0: c86b a5bf 12f9 883f c4c0 a2bf 9dd8 97bf
00000200: 9a0b 0a3f 79ee b0be ea77 a63d 50e5 d83c
00000210: 2b21 f13e ddda eabd a016 c2be 3787 2abf
00000220: 2849 3fbf d61d 823f 536a 3e3e 103d 0d3c
00000230: e0d5 71be 18ea 08bf 26ac 8dbf bd8c 7dbe
00000240: bd39 bebf 45de e7bf 51aa 0ec0 46d3 35c0
00000250: 207b 9cc0 c26e 4ebc b38a a43e 50d0 c6bf
00000260: 26ff 06c0 df3a 0b3d 6b34 97bf c874 8fbd
00000270: faff c63f 0d7b b6bf 052a f1bf 6a4b 5f3d
00000280: 6971 34c0 8783 883f e287 b3be fadf b43e
00000290: a741 9b3f 80e7 eb3d 70dc 68be f01e a33f
000002a0: 7c65 883f 4f2f eebe 739b 473f c489 07bf
000002b0: 1749 f63e fb63 833f f308 5e3f 9315 713f
000002c0: b0e2 bbbe f966 923f 23d9 013f e399 30bf
000002d0: e7b2 a73f 177b 79c0 59bb 343f df3b 163d
000002e0: 4c2e 0140 9e2b a5bf e5c2 8fbf 5664 be3f
000002f0: b891 c33f 6244 87bf 269a 20bf d836 74bf
0.46832198 -1.251833 -1.20601 0.67028356 0.1628935 0.85084176 0.9685152 -0.2369037
-1.4275122 -0.06788772 -1.6999322 2.933428 5.0737257 -8.825447 0.55821323 0.3859419
-2.2133193 -0.5030946 -1.1387631 0.92073923 1.805337 -1.4321184 0.6625599 1.5277281
-0.280149 -0.50387186 -0.19447319 0.17760028 -0.18596609 -0.5263163 -0.3991987 -0.09115474
-0.16379762 -0.5288014 -0.51482636 -0.41606715 0.04689786 0.019584369 -0.23104435 -0.35953146
-0.2693123 -0.23224793 -0.3088198 -0.31816176 0.031227035 -0.016993016 -0.28089303 -0.09203472
-2.259101 1.563605 -0.28539842 1.2141849 0.3072449 -1.0531653 0.75781095 -0.37989563
0.34364054 -0.37010416 0.54009646 -1.0675033 1.0386419 3.7745068 -1.1584795 -0.26934204
0.47311667 0.7054332 1.2464548 -0.36848286 -1.1427213 1.5331677 0.54144037 0.39052254
-1.7746011 -1.0744469 -0.8109137 0.66711074 -0.14465132 0.73687243 1.2669132 -0.5249843
-0.4523293 0.007549297 0.056844693 3.2566204 4.949962 -6.3297963 -0.87765133 -0.4123614
-1.9047271 0.52484906 0.3456878 1.0696892 -1.530626 0.27332807 0.11020601 0.94624096
0.9417295 -0.22862205 -1.080914 -1.0487745 -0.71439195 -0.15983416 0.7694873 0.6178528
0.6525763 0.39819118 -0.53898555 0.46667954 1.4856843 -3.0647562 0.55028296 0.47462353
-0.056843664 -1.7544817 -0.82587665 1.6320622 0.55680186 -1.0378742 0.37202123 -1.6225891
0.34971404 0.1693958 -0.69265777 -0.38961712 -1.2923517 1.070101 -1.2715077 -1.186298
0.5392395 -0.3455694 0.081283405 0.026476532 0.47095618 -0.11467526 -0.37907887 -0.6661257
-0.74721 1.0165355 0.18595247 0.0086205155 -0.23616743 -0.534822 -1.106816 -0.24760719
-1.486137 -1.8114706 -2.2291453 -2.84102 -4.89003 -0.012599649 0.3213707 -1.5532322
-2.109323 0.03399169 -1.1812872 -0.07004696 1.5546868 -1.4256302 -1.8840948 0.05451528
-2.819422 1.0665139 -0.35064608 0.3532713 1.212941 0.115187645 -0.2274034 1.2743816
1.065597 -0.4652047 0.7797157 -0.5294459 0.48102638 1.0264887 0.86732405 0.94173545
-0.36696386 1.1437675 0.5072195 -0.6898481 1.3101472 -3.8981378 0.7059837 0.03667819
2.0184507 -1.2903936 -1.1231352 1.487437 1.5278845 -1.0567744 -0.6273521 -0.95396185

quadjetResNetBlock.reinforce2.conv.module.bias f4 [8]
00000000: 7124 b43e 3b01 1fbe 90ce b53f 10b9 633f
00000010: 04a7 223f c03e 123f 6b16 6fbd 85a8 5ebd
0.35184053 -0.15527813 1.4203663 0.8895426 0.63536096 0.57127 -0.05837099 -0.05435993

eventConv1.module.weight f4 [8, 8, 1]
00000000: dbc2 5c3d 7ab6 bebe 2d76 a43d a738 953e
00000010: de30 d0bf 4878 4dbf 774d 0a3f 3c87 88bf
00000020: 0e4f 823e c44f ca3e 75a4 66be ad28 87be
00000030: 38ce 6cbe 007d 9b3e d95f 353e 1621 b9bd
00000040: 2781 17bf 8a32 1b3e 5cf7 663f afdb 613e
00000050: ed46 1cbe ede6 1b3e 00f9 de3e 55c4 f13e
00000060: d01f 413e c607 49be 6685 c43f ff1e 92bf
00000070: 60ee 79be 93c1 a33c 194b e9be 8b2d 0ebc
00000080: e29f 0b3f 5f43 b83e a054 a7bc 6c6a 7ebf
00000090: 82a5 2abe 7e9d 2cbf 14a4 25c0 0550 d03e
000000a0: fc19 dbbd f1f4 80bd 0de2 373e aeb5 8e3f
000000b0: c8a0 6f3d e43c 5dbf 0b5e 2f3f a751 353f
000000c0: 120f 0b40 8637 0cbe 3495 3fbe 1599 82be
000000d0: f1f4 46bf 7a7c 10bf dc2f 90bf 5c92 c33f
000000e0: 5b20 9e3e ee1a 40be 8001 6c3e c0ef 75bf
000000f0: 52bc 1b3f fa53 f23d 6789 4040 8d65 bf3f
0.053896766 -0.37248594 0.08030353 0.29144785 -1.6264913 -0.8026166 0.5402445 -1.066627
0.2545094 0.3951398 -0.22523673 -0.2639822 -0.23125541 0.30368805 0.17712344 -0.09039514
-0.59181446 0.15155998 0.9022119 0.22056459 -0.15261431 0.1522481 0.43549347 0.47220102
0.18859792 -0.19631872 1.535321 -1.1415709 -0.24407339 0.019989764 -0.45565107 -0.0086778505
0.54540837 0.359889 -0.020426095 -0.99381137 -0.16664699 -0.67427814 -2.5881395 0.4068605
-0.106983155 -0.06296719 0.17957325 1.1149194 0.058502942 -0.86421037 0.68502873 0.70827717
2.1727948 -0.13693056 -0.1870926 -0.25507417 -0.777175 -0.56439936 -1.1264606 1.527904
0.3088406 -0.18760273 0.23047447 -0.96068954 0.6083423 0.118324235 3.0083864 1.4952866

eventConv1.batchNorm.gamma f4 [8]
00000000: 07ec 6c3f 2889 6c3f 02b9 4fbd 4a89 ed3f
00000010: 3226 67bf 7f37 ad3f 0259 0740 c2c9 f13f
0.9254765 0.92396784 -0.050713547 1.8557522 -0.90292656 1.3532561 2.1148076 1.8889697

eventConv1.batchNorm.bias f4 [8]
00000000: 53da 8fbf 7d46 ecbd 98e9 e33f 0016 0a3f
00000010: ff68 8cbf 047d c2bf f4ee b9be 49be 42bf
-1.1238502 -0.11536882 1.7805662 0.5393982 -1.0969542 -1.5194402 -0.3631512 -0.760716

eventConv1.batchNorm.m f4 [1, 8, 1]
00000000: 4bbb 84c1 0e8f 12c0 7c3a c440 e74d e740
00000010: 170a 8f3f 50eb 5841 ca0f 0342 476d 8641
-16.591452 -2.2899814 6.132139 7.2282596 1.1174954 13.557449 32.76542 16.803358

eventConv1.batchNorm.s f4 [1, 8, 1]
00000000: f4cd 4641 6b8b b240 d0e5 7c41 1c5a 8741
00000010: 2a19 1141 a24b 3f41 c1f6 b541 deb9 6d41
12.425282 5.579519 15.806107 16.918999 9.068644 11.955965 22.745485 14.857878

eventConv2.module.weight f4 [8, 8, 1]
00000000: 696e 2bbf 1172 30bb 6f65 163f ede0 3b3f
00000010: 5781 e23e 1baa f13d 9927 393b 56ae 453f
00000020: 6184 8dbe 0d9c c1be 228a bc3d 75b9 b6be
00000030: 3c9b 7dbe f360 01be 5070 8d3e cffd 803e
00000040: 007d c7bd 9fe4 2a3d cc4b ff3f 328c 19be
00000050: 725c adbe 9a0a 8b3d f003 2fbe a4f6 dbbc
00000060: 6b1e 8ebe 81a6 c4ba 42c5 993e 51d4 343f
00000070: c66f 8ebe d2dd d6be 6741 a1bf 11eb 353f
00000080: 1ae4 f63d 1366 04be 6430 e63e 3668 1ebd
00000090: 7226 0c3f a33e 8a3f 85ed 5c3f 55f6 c13e
000000a0: 348e bb3f fdca ea3d 876c 89bf a940 9bbf
000000b0: 2d04 743f e65e 3c3f 77a9 353d 63db c6bf
000000c0: 7e82 60bf d886 debd 4a9f dd3e 474f c23f
000000d0: 7ad9 36bf 55c5 b6bc 4431 45bf 7c89 953e
000000e0: 9012 213e b173 d43c 59d4 153f 6af6 0cbf
000000f0: e9d0 fb3e 8ccd a0be 24a8 463f 36fb 673f
-0.6696535 -0.0026923458 0.58748525 0.73390085 0.44239303 0.11800023 0.0028252362 0.7721914
-0.2764006 -0.3781437 0.09206034 -0.35688367 -0.24766248 -0.1263464 0.2762475 0.2519364
-0.09740639 0.041721936 1.9945006 -0.14994887 -0.33859593 0.067891315 -0.17091346 -0.026851006
-0.27757582 -0.0015003235 0.30033308 0.7063647 -0.2781965 -0.4196611 -1.2598084 0.7106181
0.12055226 -0.12929563 0.44958794 -0.038673602 0.5474616 1.0800365 0.86299926 0.3788325
1.4652772 0.11464498 -1.0736245 -1.2129108 0.9531887 0.73582304 0.044351067 -1.5535702
-0.87699115 -0.10865563 0.4328559 1.5180444 -0.7142559 -0.022310892 -0.770283 0.29206455
0.15729737 0.025934072 0.5852714 -0.550635 0.49182823 -0.3140682 0.7760031 0.9061769

eventConv2.module.bias f4 [8]
00000000: 6d21 4e40 466d 8ebd 092d 223f c25b 133f
00000010: 93db 0041 624d be3f df0a 143f 337d e53f
3.2207901 -0.06954436 0.6334997 0.57561886 8.053607 1.4867365 0.5782909 1.7928833

select_q.module.weight f4 [1, 8, 1]
00000000: f820 13bf 54c4 8b3d 4546 cf3f ed3a 803d
00000010: ae72 3f3f 8b2d f4bf 3faa cd3f 7dd0 023f
-0.5747218 0.06824556 1.619332 0.06261239 0.7478436 -1.9076399 1.606758 0.5109938

out.module.weight f4 [4, 8, 1]
00000000: d8b1 d13e 29c3 f73d b84a 13bf 42ec 993f
00000010: e18f a1be ed19 103c ec69 4f3f 19f1 debf
00000020: 403f 5ac0 df92 2ebe 7919 8c3e 2408 25bf
00000030: 45b7 38bf b37d cabe b3fc 8abf 5f50 84bf
00000040: 9b67 79be 534a c0bd e202 b3bf 14d7 b53c
00000050: 55ee 07c0 50c9 ab3d 31cd 73bd 6411 943e
00000060: 71a5 ae3e 4cfa e73d eb2a 42c0 0483 4dbe
00000070: ec40 133f 02a7 0240 d589 e3ba 0063 ff3d
0.40955997 0.12097771 -0.57535887 1.2025225 -0.31555083 0.008795244 0.81021 -1.7417327
-3.4101105 -0.17048214 0.27363184 -0.64465547 -0.7215465 -0.39549026 -1.0858368 -1.0337027
-0.24355929 -0.09389176 -1.3985255 0.022197284 -2.1239216 0.08388007 -0.059521858 0.28919518
0.34110597 0.11327037 -3.0338695 -0.2006951 0.5752094 2.0414433 -0.0017359803 0.124700546

out.batchNorm.gamma f4 [4]
00000000: 5f4b 683f e037 b23f 48c2 f93f 557c bb3f
0.9074001 1.3923302 1.9512415 1.4647318

out.batchNorm.bias f4 [4]
00000000: bb76 a63e 44c4 203f 2936 10c0 3b2f ba3f
0.3251246 0.6279948 -2.2533057 1.4545664

out.batchNorm.m f4 [1, 4, 1]
00000000: 0c58 3bc2 d423 2ec3 a8ec 07c3 64a4 10c3
-46.835983 -174.13995 -135.92444 -144.64215

out.batchNorm.s f4 [1, 4, 1]
00000000: a7e5 1142 09dd 9142 5af0 4e42 7c6c b542
36.47427 72.93171 51.73472 90.71188

exp_avg f4 [8, 4, 1]
00000000: e4d6 edb9 e2f9 58b9 645c aa39 f3c0 80ba
00000010: 59a8 a039 518d a7b9 285b 40b6 7979 16b7
00000020: 5e22 65b9 2c78 5438 6d0e fe37 c58b 7cb9
00000030: 723b 6c3a 9d29 b8b9 edae 083a 7645 b23a
00000040: 65d9 6e3a 234a 83b9 c733 b1b8 6188 713a
00000050: 71b3 b5b9 9c00 88b8 fdb4 72b8 87ed 88b9
00000060: 46a3 30ba dd13 adb9 74d8 2039 ee86 44ba
00000070: 0c1b c3b9 352b 93b8 6af0 3eb7 50a8 1fba
-0.0004536427 -0.00020692454 0.00032493763 -0.0009823128 0.00030643007 -0.0003195801 -2.866329e-06 -8.968979e-06
-0.00021851945 5.0656658e-05 3.0285877e-05 -0.00024084661 0.00090115436 -0.0003512622 0.0005214054 0.0013601023
0.0009111374 -0.00025041503 -8.449662e-05 0.00092137425 -0.00034656705 -6.485099e-05 -5.7865855e-05 -0.00026116913
-0.0006738197 -0.0003301193 0.00015339424 -0.0007496913 -0.0003721345 -7.017554e-05 -1.1380858e-05 -0.0006090449

exp_avg_sq f4 [8, 4, 1]
00000000: ac71 3d38 9eb8 9637 60d2 6a36 7bb0 5038
00000010: 6f7e 4d37 caf6 b537 1273 3c36 360e d237
00000020: e096 3135 68b0 0435 21bc 0634 73ac 2235
00000030: 98ff 6e39 e0eb 7338 1d6b 4737 5e72 1639
00000040: 59e6 1539 330c 9237 b310 a336 b7e3 0f39
00000050: 934a e937 f956 6d37 7a6c 3036 959d b537
00000060: fdbf e837 2679 b337 128f 9436 4e8f 1438
00000070: 0ac9 0638 0d5d 2437 5945 0436 d7e1 2c38
4.5166977e-05 1.7967363e-05 3.4991172e-06 4.9755425e-05 1.224839e-05 2.1691802e-05 2.8081163e-06 2.5040568e-05
6.615719e-07 4.9430537e-07 1.2548163e-07 6.060065e-07 0.00022792665 5.815539e-05 1.1886264e-05 0.0001434772
0.00014295559 1.7410237e-05 4.8597226e-06 0.00013722373 2.781049e-05 1.4146551e-05 2.6289185e-06 2.1650261e-05
2.7745957e-05 2.1394877e-05 4.4273993e-06 3.5419413e-05 3.213532e-05 9.796827e-06 1.9709898e-06 4.1218325e-05

exp_avg f4 [8]
00000000: a13a 3dba cb50 6239 5fa0 dab7 acf5 9dba
00000010: 9335 5f39 7e68 d739 872f a038 edb3 9239
-0.0007218514 0.00021583137 -2.6062304e-05 -0.0012051365 0.00021286895 0.00041085848 7.638247e-05 0.00027981345

exp_avg_sq f4 [8]
00000000: 680c be37 3807 0937 ca13 0d35 7495 2b38
00000010: 690e 0938 9f12 b637 3d10 2437 3e67 b637
2.2655542e-05 8.167517e-06 5.255539e-07 4.0908766e-05 3.2676766e-05 2.1704762e-05 9.7789425e-06 2.1744167e-05

exp_avg f4 [2]
00000000: 648f 80b8 f438 69ba
-6.130224e-05 -0.00088967313

exp_avg_sq f4 [2]
00000000: d4ac 4d39 236e 9f39
0.00019614707 0.00030408902

exp_avg f4 [2]
00000000: 2de2 563a fb42 373a
0.0008197155 0.0006990877

exp_avg_sq f4 [2]
00000000: 0e3c 0f3b ff0a f538
0.0021855864 0.000116845586

exp_avg f4 [8, 2, 1]
00000000: 34ae 1238 fc92 5d36 2815 5e39 39a1 95b8
00000010: a50a d438 0531 1a39 a9c5 0b3a dccb 9fb8
00000020: d962 25ba 545b 7cb8 e06c 46ba ade2 9ab8
00000030: 782a 813a ff9e 2439 6f09 80b7 f374 1339
3.4971352e-05 3.3017122e-06 0.00021179451 -7.134904e-05 0.000101109305 0.00014704846 0.0005331883 -7.6196826e-05
-0.000630898 -6.0166538e-05 -0.0007569324 -7.385514e-05 0.0009854576 0.0001569949 -1.5263182e-05 0.0001406258

exp_avg_sq f4 [8, 2, 1]
00000000: 977a 4c38 1ec8 bc37 7ac2 d736 29f8 1c36
00000010: 95b0 5737 494b 7038 b287 2a38 7d81 cb37
00000020: 74e1 6e38 7ad5 e436 3b91 5338 c629 0538
00000030: 120f 3d38 f3ac ea36 d579 9837 86b2 1437
4.875156e-05 2.2504533e-05 6.4301394e-06 2.339026e-06 1.2856112e-05 5.7290574e-05 4.0657535e-05 2.4259783e-05
5.695359e-05 6.8197814e-06 5.0441577e-05 3.1748576e-05 4.5075147e-05 6.9938774e-06 1.8176544e-05 8.863053e-06

exp_avg f4 [8]
00000000: b4dd 1e38 3f54 d3b9 2ab4 1fb9 d0d6 16ba
00000010: 7d53 613a 04c9 56b8 b830 06ba b3b5 513a
3.7876613e-05 -0.00040307824 -0.00015230538 -0.00057540555 0.00085955096 -5.1208786e-05 -0.0005118954 0.00079997926

exp_avg_sq f4 [8]
00000000: 91f3 4239 c7c3 8a37 7f3a 3338 c4ec 0f38
00000010: 4199 6f38 7973 6639 81b3 c937 054f b337
0.00018592017 1.6542048e-05 4.2731404e-05 3.4314362e-05 5.712477e-05 0.00021977526 2.4044655e-05 2.137526e-05

exp_avg f4 [8, 8, 3]
00000000: 6f6f 00b9 a405 30b9 0687 c737 ffad dbb8
00000010: 4952 10b8 5f9b d135 e7e4 e236 2af6 4437
00000020: 49df f838 9cbc 15ba 1368 e2b8 bbed 0c38
00000030: 5544 e838 d493 5f38 d6d1 0b35 0cba 59b8
00000040: 8b07 2739 2608 0937 65a4 94b8 1587 edb8
00000050: 22a0 1e37 96e1 8538 24fd 9db8 ec43 afb7
00000060: 8a9b f0b8 d77c 40b8 2e4f 1c39 d1ce 0738
00000070: 98db 95b8 85da 08b7 8c3e 1237 cc87 ddb5
00000080: c451 b1b9 6e19 fab7 bba1 6db8 1b20 09b9
00000090: 7665 2839 129a b937 5b99 1438 259a ad37
000000a0: c4e9 a4b7 2324 1fb8 b2ef 97b8 2757 83b8
000000b0: 0f1e 19b9 3628 6937 bd52 c7b7 14de c238
000000c0: 2929 87b7 57a9 8638 03bd 35b8 6b11 35b8
000000d0: 5285 9e37 5f38 1f35 9a00 1337 5c99 0236
000000e0: 09c3 8537 8eaa 4338 c2f7 b538 bb42 19b6
000000f0: 4398 08b9 905c d537 8a8c 4ab7 1cd2 3938
00000100: 257d 0ab8 b662 99b7 0dd9 3eb8 69fa b937
00000110: 3dd0 2538 96aa d4b8 8762 e337 4098 fbb7
00000120: 8448 6f38 d378 6238 9ead bc36 a1a9 88b8
00000130: 27f7 4a38 2466 f7b6 56c1 b5b6 d884 02b7
00000140: acfb c6b9 2114 c038 5b70 ad36 fe36 20b9
00000150: edcb 84b8 086d 7c37 7a88 f6b5 eab5 e6b8
00000160: 882a 40b8 d886 bbb8 c09c 37b8 128f 9838
00000170: 5e7b 4eb7 8a7c 2e37 b5df 9d38 c937 ff36
00000180: 41df e8b8 1bb4 1ab9 bc3d 5bb5 772a 2db8
00000190: 4d61 5ab8 59b0 4a35 fb40 9b36 562b 0037
000001a0: c8fc bcb8 4d5b 67b7 a1b5 47b9 e545 7bb7
000001b0: 0536 8739 ee50 efb6 3d55 2037 3fbe 65b7
000001c0: 9817 72b7 f9ed 7f36 55ce 35b9 6bb3 acb8
000001d0: bab7 ee37 7ac8 93b7 fdc6 6db5 0eff 1ab7
000001e0: b3b0 7138 f1e0 fdb7 78cc 7e38 d9e2 2539
000001f0: 8713 7737 250e 5db5 f741 89b7 3f9e 27b7
00000200: ce10 c2b7 2439 8537 af31 a7b8 76b2 5137
00000210: 6a24 a139 a9a8 09b8 0d3c 8b37 66c6 1e37
00000220: 36c7 3a38 c223 1738 2946 0939 479a 9237
00000230: e2db 73b8 a22f 3e39 2fa4 5237 84e7 3638
00000240: ab27 6f38 64d6 2737 a93d 3f38 cec5 9bb7
00000250: d670 05b8 30ee f3b6 ed51 28b7 5234 33b7
00000260: d085 a1b9 a847 7f38 e92d 51b8 011f ffb8
00000270: 5a6d 38b8 6a40 04b7 eb1b 0337 3ec0 85b8
00000280: b438 1db8 8f7e 75b8 2b60 7bb6 5347 8d37
00000290: 340c 74b8 4938 aa37 98f5 cd37 a232 0638
000002a0: 017d 0139 7130 3a39 70cb f2b8 1146 fa37
000002b0: cdbf d837 33d9 df36 c54c 0fb7 c4bc 54b7
000002c0: 2638 9f39 b985 3239 46f5 6639 2b40 fe38
000002d0: 3507 7cb9 1e4c 35b7 bbe9 acb7 db69 1c38
000002e0: 7e16 96b8 381a 4f38 4d20 0b39 0903 8338
000002f0: ed38 b638 b188 9eb8 05ec 7b37 df35 5cb8
-0.00012248543 -0.00016786769 2.3785524e-05 -0.00010475143 -3.440891e-05 1.5616932e-06 6.7619726e-06 1.1739825e-05
0.000118671516 -0.0005712004 -0.00010795905 3.3600005e-05 0.0001107535 5.330502e-05 5.2086887e-07 -5.19101e-05
0.00015929171 8.1677335e-06 -7.087811e-05 -0.00011326202 9.454818e-06 6.383953e-05 -7.5334945e-05 -2.0893254e-05
-0.00011473063 -4.5892633e-05 0.00014906816 3.237912e-05 -7.145776e-05 -8.15711e-06 8.716841e-06 -1.6505305e-06
-0.0003382099 -2.9814164e-05 -5.6655826e-05 -0.00013077298 0.00016059526 2.2125463e-05 3.5428773e-05 2.0694986e-05
-1.9659179e-05 -3.794221e-05 -7.244888e-05 -6.2628e-05 -0.00014602415 1.3897245e-05 -2.3761177e-05 9.292006e-05
-1.611242e-05 6.42116e-05 -4.3329794e-05 -4.3169985e-05 1.889715e-05 5.9314146e-07 8.762023e-06 1.9460776e-06
1.5945656e-05 4.6650464e-05 8.676901e-05 -2.283762e-06 -0.00013026693 2.5434681e-05 -1.207286e-05 4.4303117e-05
-3.3018314e-05 -1.8284987e-05 -4.5501674e-05 2.2170325e-05 3.9533003e-05 -0.00010140722 2.710639e-05 -2.9992429e-05
5.7049576e-05 5.3995125e-05 5.6230483e-06 -6.516581e-05 4.839073e-05 -7.3730644e-06 -5.4167276e-06 -7.779534e-06
-0.00037953013 9.159023e-05 5.1688817e-06 -0.00015279275 -6.3322346e-05 1.5045756e-05 -1.8368148e-06 -0.00011001139
-4.5815978e-05 -8.9419715e-05 -4.3776585e-05 7.274574e-05 -1.23072805e-05 1.0400205e-05 7.528012e-05 7.6060865e-06
-0.00011104206 -0.00014753679 -8.1673693e-07 -4.1285963e-05 -5.206587e-05 7.5507484e-07 4.6269247e-06 7.6394845e-06
-9.011623e-05 -1.3789931e-05 -0.00019045781 -1.4977039e-05 0.00025789454 -7.1321765e-06 9.556589e-06 -1.3693759e-05
-1.4429817e-05 3.813648e-06 -0.0001733837 -8.235018e-05 2.8457365e-05 -1.761712e-05 -8.8578946e-07 -9.2385e-06
5.762344e-05 -3.0264697e-05 6.0748745e-05 0.00015820134 1.4726894e-05 -8.23495e-07 -1.636239e-05 -9.99082e-06
-2.3134427e-05 1.5881444e-05 -7.972435e-05 1.2498922e-05 0.00030735444 -3.2820422e-05 1.6598055e-05 9.463727e-06
4.4531385e-05 3.6034508e-05 0.00013091475 1.7476397e-05 -5.8140497e-05 0.00018137557 1.2555202e-05 4.3607797e-05
5.7018984e-05 1.0003892e-05 4.5595374e-05 -1.856955e-05 -3.1814758e-05 -7.269693e-06 -1.0032655e-05 -1.0681413e-05
-0.0003080801 6.0863473e-05 -4.987224e-05 -0.000121651225 -4.397086e-05 -7.882811e-06 7.814709e-06 -6.377742e-05
-3.7484526e-05 -5.853042e-05 -3.7457892e-06 1.6841723e-05 -5.81855e-05 2.0291789e-05 2.4552268e-05 3.1995245e-05
0.00012348966 0.00017756388 -0.000115773524 2.983495e-05 2.583852e-05 6.671203e-06 -8.5413385e-06 -1.2680135e-05
0.00030368677 0.00017025218 0.00022025881 0.00012123616 -0.00024035278 -1.0806163e-05 -2.0612837e-05 3.7291884e-05
-7.156747e-05 4.9377064e-05 0.00013268106 6.247132e-05 8.6890395e-05 -7.559488e-05 1.5015718e-05 -5.250226e-05
