nTupleAnalysis/pytorchModels/SvB_ResNet_8_8_8_np1391_lr0.008_epochs40_stdscale_epoch39_loss0.1512.pkl (torch_old, 53954 bytes, 137 tensors)

canJetScaler.m f4 [1, 4, 1]
0	0x00000000	0.0
1	0x00000000	0.0
2	0x00000000	0.0
3	0x00000000	0.0

canJetScaler.s f4 [1, 4, 1]
0	0x3f800000	1.0
1	0x3f800000	1.0
2	0x40490fdb	3.1415927
3	0x3f800000	1.0

dijetScaler.m f4 [1, 2, 1]
0	0x00000000	0.0
1	0x00000000	0.0

dijetScaler.s f4 [1, 2, 1]
0	0x3f800000	1.0
1	0x3f800000	1.0

quadjetScaler.m f4 [1, 6, 1]
0	0x00000000	0.0
1	0x00000000	0.0
2	0x00000000	0.0
3	0x00000000	0.0
4	0x00000000	0.0
5	0x00000000	0.0

quadjetScaler.s f4 [1, 6, 1]
0	0x3f800000	1.0
1	0x3f800000	1.0
2	0x3f800000	1.0
3	0x3f800000	1.0
4	0x3f800000	1.0
5	0x3f800000	1.0

jetEmbed.module.weight f4 [8, 4, 1]
0	0x3f57977b	0.84215516
1	0xbe9846ab	-0.29741415
2	0xbf066ae0	-0.5250683
3	0x3f2234d2	0.6336185
4	0x3f60dae7	0.8783402
5	0x3f9720b6	1.1806858
6	0x3ede4ea7	0.43419382
7	0x3deca1af	0.11554276
8	0xbf924a44	-1.1428914
9	0xbf964571	-1.1739942
10	0xbeb8397d	-0.3598136
11	0x3f335541	0.7005196
12	0x3e6d1a44	0.23154551
13	0xbff28602	-1.8947146
14	0x3e11fd63	0.14256816
15	0xbefdde74	-0.4958378
16	0xbdac0721	-0.08399797
17	0xbeec9c11	-0.4621282
18	0x3f209980	0.6273422
19	0x3f587a55	0.84561664
20	0xbea1c691	-0.31596807
21	0xbf339be2	-0.70159733
22	0xbe656883	-0.2240315
23	0xbf9a8041	-1.207039
24	0xbf989d80	-1.1923065
25	0xbdd77838	-0.10520977
26	0x3ec18e0a	0.3780368
27	0x3ce1c978	0.027561888
28	0xbf5cbde4	-0.8622725
29	0x3f492b84	0.78582025
30	0xbb386734	-0.0028137686
31	0x3f8e00c5	1.1093985

jetEmbed.module.bias f4 [8]
0	0x3e961313	0.29311427
1	0x3e8863e3	0.26638708
2	0xbe164cf8	-0.14677799
3	0x3ec84712	0.39116722
4	0xbfe994a3	-1.8248485
5	0xbecc62e3	-0.39919195
6	0xbe664910	-0.22488809
7	0x3eac37ea	0.3363641

dijetGBN.gamma f4 [2]
0	0x400f7d04	2.2420053
1	0x3f4ef649	0.8084455

dijetGBN.bias f4 [2]
0	0x3f359cec	0.7094257
1	0x3f1da2c5	0.6157649

dijetGBN.m f4 [1, 2, 1]
0	0x43370b7b	183.04485
1	0x4008c7d2	2.137196

dijetGBN.s f4 [1, 2, 1]
0	0x42da779d	109.23362
1	0x3f700bfc	0.93768287

dijetEmbed1.module.weight f4 [8, 2, 1]
0	0x3e48fc4f	0.19627498
1	0xbf78312e	-0.9695004
2	0xbe66d6f1	-0.22542931
3	0x400453a6	2.0676055
4	0xbff5e828	-1.9211473
5	0x3f9f0ff8	1.2426748
6	0xbfab725e	-1.3394277
7	0x3fcf96f4	1.6217942
8	0xbfa37cbf	-1.2772444
9	0xbf364859	-0.71204144
10	0xc068d87c	-3.6382132
11	0xbee80db6	-0.4532296
12	0x3dd4ed3f	0.103968136
13	0xbec2afdc	-0.38024795
14	0xbca56724	-0.020190783
15	0x3f74f541	0.9568673

dijetEmbed1.module.bias f4 [8]
0	0x3f49b384	0.78789544
1	0xbf4a7d81	-0.79097754
2	0xbf32302a	-0.6960474
3	0x3ec5ec2a	0.3865674
4	0xbf9f39c3	-1.2439502
5	0x3fc02af0	1.5013103
6	0x3fb669c7	1.4251031
7	0x3e9ca974	0.30598032

dijetResNetBlock.reinforce1.conv.module.weight f4 [8, 8, 3]
0	0xbf0c3387	-0.54766124
1	0xbf37f595	-0.71859103
2	0xbf3ce756	-0.7379049
3	0x3f42b061	0.7605038
4	0xbd927037	-0.071503095
5	0x3f15ab18	0.58464193
6	0xbf3cfb77	-0.73821205
7	0xbf9c2c1e	-1.2200963
8	0xc002c6dd	-2.0433877
9	0x3e970e2d	0.29503003
10	0x3e8f49d0	0.27986002
11	0xbfe33e60	-1.775341
12	0xbecd4c4d	-0.40097275
13	0x3e073412	0.13203457
14	0xbfb70e21	-1.4301187
15	0x3fceff20	1.6171608
16	0x3fa34282	1.2754672
17	0xc062b274	-3.542142
18	0x3f6e9694	0.93198514
19	0xbfd3e7d6	-1.6555126
20	0x3e8d7fef	0.27636668
21	0xbfbc9c66	-1.4735229
22	0xc01d96f8	-2.4623394
23	0x3dd6b048	0.10482842
24	0x4000707b	2.0068653
25	0x4005df52	2.0917554
26	0x3f7e2f8f	0.9929132
27	0xbee8cba0	-0.45467854
28	0x3fe1ffb7	1.7656163
29	0xbe7e657b	-0.24843399
30	0x3f6de428	0.92926264
31	0xbf35f2d9	-0.7107368
32	0xbfb15576	-1.3854206
33	0xbfb32548	-1.3995752
34	0xbff8b7a8	-1.9431047
35	0xbfca80b0	-1.5820522
36	0xbf200e08	-0.6252141
37	0x401abf1b	2.4179142
38	0xc08c1fd8	-4.378887
39	0xbecf2be8	-0.40463185
40	0x3f637031	0.88843066
41	0xbf9a045c	-1.203258
42	0x3fa3eb80	1.2806244
43	0x3f533c93	0.82514304
44	0x3ba5dc4a	0.005061661
45	0x3f4ac257	0.7920279
46	0x3f84f047	1.0385827
47	0x3ed92236	0.42408913
48	0x4007c0b3	2.1211364
49	0x3ec82a77	0.39094898
50	0x3fb182d0	1.3868046
51	0x3dd7a89a	0.10530205
52	0x3f58e153	0.8471882
53	0x3ce82f23	0.028342789
54	0xbef9e65d	-0.48808566
55	0xbf17fce1	-0.5937024
56	0xc06eb0e1	-3.7295458
57	0x3fa60c0c	1.2972426
58	0x3f0c24f5	0.5474389
59	0xc0150ad4	-2.328786
60	0x3e39cd07	0.18144618
61	0x3fa0884d	1.2541596
62	0x3fee2326	1.8604476
63	0xc0045e37	-2.0682504
64	0xbfd6649c	-1.6749454
65	0x3f843c11	1.0330831
66	0xc015937e	-2.3371272
67	0xbf8e9e31	-1.1142026
68	0x3dd3165f	0.10307001
69	0xbf8d585b	-1.1042589
70	0xbfa59c0a	-1.2938244
71	0xbea4e48a	-0.3220561
72	0x3f251dd0	0.64498615
73	0xbfda9cf2	-1.7079146
74	0xbffec071	-1.9902478
75	0xbfaeca8b	-1.3655561
76	0x3f411f36	0.7543825
77	0xc064d02b	-3.5752056
78	0x407919d0	3.8922005
79	0xbe37846e	-0.17921612
80	0x3f8a2aef	1.0794352
81	0xbcd9872c	-0.026553713
82	0xbefb623f	-0.49098393
83	0x3e569c29	0.20958008
84	0xbf210f7d	-0.6291426
85	0xbfdb4d6e	-1.7133005
86	0xbffdc396	-1.9825313
87	0xbf880766	-1.0627258
88	0xbffd6218	-1.9795561
89	0xbd2e52c7	-0.04255941
90	0x3ec716b9	0.38884524
91	0xbf8cb630	-1.0993099
92	0xbfbd8804	-1.4807134
93	0x3d2783e1	0.040897254
94	0x3fa622a0	1.2979317
95	0xbed5af16	-0.41735142
96	0x3f006dd9	0.50167614
97	0xbea2be56	-0.3178584
98	0x3e91241a	0.28347856
99	0xbe924d5e	-0.2857465
100	0xbc6bb6ff	-0.014386891
101	0x3ecdfdae	0.40232605
102	0x3ee81eb4	0.45335925
103	0x3f6cc8a3	0.9249365
104	0x3fa5e54f	1.2960604
105	0xbed943f3	-0.42434654
106	0x3ca36b51	0.019948633
107	0x3f9bb953	1.2165931
108	0xbf9d9cfa	-1.231353
109	0xbf6e066d	-0.92978555
110	0x400dbc7b	2.214629
111	0xbf08c2ff	-0.5342254
112	0xbf5e8c97	-0.86933273
113	0x40b0004b	5.500036
114	0xbfbd9c4b	-1.4813322
115	0x3d45c63d	0.048284758
116	0xbebacd7f	-0.36484906
117	0xbf72f063	-0.9489805
118	0x3e1472ee	0.14496967
119	0x3f0968fb	0.5367581
120	0xbfcff0a4	-1.6245313
121	0xbea6d54d	-0.3258461
122	0xbf7c1b6a	-0.9847933
123	0x3e56f5e2	0.20992234
124	0xbebd0b38	-0.36922622
125	0x3ee89ae0	0.4543066
126	0xbf40040f	-0.7500619
127	0xbede1bac	-0.43380487
128	0xc025a521	-2.5882037
129	0xbd96c5d0	-0.073619485
130	0xbe03e0ef	-0.12878774
131	0xbfe96911	-1.8235189
132	0x3df03a20	0.117298365
133	0x3e4ea5bf	0.20180415
134	0xbe05939e	-0.13044593
135	0x3ecb2453	0.3967615
136	0x3f60e385	0.8784717
137	0xc05f71b3	-3.4913146
138	0x3fe1a888	1.7629557
139	0x3dee383e	0.11631821
140	0x3e12fd3f	0.14354418
141	0x3eaf0f22	0.34191233
142	0xbfb2eba4	-1.3978162
143	0xbd445f0e	-0.047942214
144	0xbfa77144	-1.3081441
145	0x3fa0b7ad	1.2556053
146	0xbeff8fe1	-0.49914458
147	0x3fda46b4	1.7052827
148	0xbfb4fddb	-1.413997
149	0x3f839906	1.0281074
150	0xc01f6b70	-2.4909325
151	0x4007cf7b	2.1220386
152	0x3f060dd1	0.5236483
153	0xc06197f9	-3.5249007
154	0x404c0113	3.1875656
155	0xbee350a7	-0.4439747
156	0xbdf259f4	-0.118335634
157	0xbfea8e92	-1.8324759
158	0x3f429a9b	0.7601716
159	0xbf712556	-0.94197595
160	0x3f553dc9	0.832974
161	0xbf041a9e	-0.51603115
162	0xbef3ff20	-0.47655582
163	0x3f03de5f	0.51511186
164	0xbf4e6c9c	-0.80634475
165	0x3f0df102	0.55445874
166	0xbf88150c	-1.0631423
167	0xbf04a1b1	-0.5180922
168	0xbeea96b9	-0.45818117
169	0xc02f62db	-2.7404087
170	0xbfa3992c	-1.2781119
171	0x3e393e79	0.18090238
172	0x3ff99426	1.9498336
173	0x3fb249ad	1.3928734
174	0xbf44ea90	-0.76920414
175	0xc0373664	-2.8626947
176	0xbf462a8c	-0.7740867
177	0x3f58ec47	0.8473553
178	0x3f5e5342	0.8684579
179	0xbf8a5bf0	-1.0809307
180	0xc01f9f77	-2.494108
181	0x3e38a2a6	0.18030795
182	0xc0022335	-2.0333989
183	0xbfcbd707	-1.5924996
184	0x3ec69717	0.38787147
185	0xbfa3f096	-1.2807796
186	0xbd71e3b4	-0.059055045
187	0xbf52fb38	-0.8241458
188	0xbef23aec	-0.4731058
189	0xc00a1154	-2.1573076
190	0xc0102759	-2.2524016
191	0xbf7aef05	-0.98020965

dijetResNetBlock.reinforce1.conv.batchNorm.gamma f4 [8]
0	0x401c02ea	2.4376779
1	0x4009f01c	2.15528
2	0x4014a98a	2.3228478
3	0x3ed0f73b	0.40813622
4	0x402895ba	2.6341386
5	0x403a7b08	2.9137592
6	0x401843c3	2.3791358
7	0x3ff0d270	1.881422

dijetResNetBlock.reinforce1.conv.batchNorm.bias f4 [8]
0	0x3dc6a886	0.09700112
1	0xbf2182be	-0.6309012
2	0xbf6a0791	-0.91417795
3	0xbf129f1d	-0.5727404
4	0xbe18bba2	-0.14915326
5	0xbf83c2c3	-1.0293812
6	0xbf88e721	-1.0695535
7	0x3e010771	0.12600495

dijetResNetBlock.reinforce1.conv.batchNorm.m f4 [1, 8, 1]
0	0xc135452d	-11.329389
1	0xc080ed9a	-4.029004
2	0x3e880ef3	0.26573905
3	0xc06a812a	-3.6641335
4	0x4164d8a2	14.302889
5	0xc13b4a1f	-11.705596
6	0xbf84ac89	-1.0365154
7	0xc0bdafaf	-5.9276958

dijetResNetBlock.reinforce1.conv.batchNorm.s f4 [1, 8, 1]
0	0x414a73c8	12.653267
1	0x40fac6fb	7.8367896
2	0x40cce071	6.4023976
3	0x4063328d	3.5499604
4	0x4184d3e4	16.603462
5	0x414089d6	12.033651
6	0x40b32056	5.5976973
7	0x40c62730	6.1922836

dijetResNetBlock.convJ.module.weight f4 [8, 8, 1]
0	0xbf0d9684	-0.55307794
1	0xbfb32deb	-1.3998388
2	0x3fe01680	1.7506866
3	0xbedb2d79	-0.4280813
4	0xbfb9515e	-1.4477956
5	0xbf539450	-0.8264818
6	0x3fcd1b48	1.602395
7	0x40119087	2.2744462
8	0x3e0280cb	0.12744443
9	0x3ebf0091	0.3730512
10	0xc03f0da1	-2.9852068
11	0xc0367899	-2.8511107
12	0x3f9c628c	1.2217574
13	0xbf2d8c94	-0.6779263
14	0x3fb175e6	1.3864105
15	0xbf7cb9d7	-0.9872107
16	0x3e9ffe45	0.3124868
17	0xbebdfe57	-0.37108108
18	0xc031d1b0	-2.7784233
19	0xbf4918c7	-0.7855343
20	0xbf870b83	-1.0550388
21	0xbff70ef6	-1.9301441
22	0xbeec0a4a	-0.461016
23	0xbff1412e	-1.8848016
24	0xc0384fce	-2.879871
25	0x3f0b88d4	0.5450566
26	0x3f2904f5	0.6602319
27	0xbd978c87	-0.0739985
28	0xbe27dc11	-0.16392542
29	0x3f75332e	0.9578122
30	0xbdae25ad	-0.0850328
31	0x3fc9f855	1.577891
32	0xbe90674e	-0.28203815
33	0x3f4ceb35	0.800464
34	0xbf4c1526	-0.7971977
35	0xbe89de2b	-0.26927313
36	0x3fc8d456	1.56898
37	0x3e860979	0.26179102
38	0x4018e1f5	2.3887913
39	0x3fff5581	1.9947969
40	0xbf28536c	-0.6575229
41	0x3fad260d	1.3527237
42	0xc0139554	-2.3059893
43	0xbfa46424	-1.284306
44	0x3fa0c532	1.2560179
45	0xc03e93d8	-2.9777737
46	0xbf1eb41a	-0.61993563
47	0x3e73c7f0	0.23806739
48	0xc02bf5b5	-2.6868718
49	0xbf92025a	-1.1406968
50	0xbefed4e4	-0.49771798
51	0x3f1f829e	0.6230868
52	0xc006da78	-2.1070843
53	0x3f98b0fd	1.1929013
54	0x3e6544d4	0.22389537
55	0x3f450571	0.7696143
56	0xbe47aecd	-0.19500275
57	0x3db0ee38	0.086391866
58	0xbfae2c02	-1.360718
59	0xc028fe27	-2.6405122
60	0xbfd719ce	-1.680475
61	0xc00dc302	-2.2150273
62	0x400cb1ac	2.1983442
63	0x3cdb7671	0.026789876

dijetResNetBlock.convJ.batchNorm.gamma f4 [8]
0	0x3ff34a94	1.9007134
1	0xbe99b7e4	-0.3002311
2	0x3f5e85a5	0.86922675
3	0x3ee8a939	0.45441607
4	0xbf5f748a	-0.872872
5	0x3f3eef0b	0.745835
6	0xbe2721c2	-0.16321471
7	0x3e7fa994	0.24967033

dijetResNetBlock.convJ.batchNorm.bias f4 [8]
0	0xbfa6c4b5	-1.302878
1	0x3f1f49c7	0.6222195
2	0xbfada6b0	-1.3566494
3	0xbeec7226	-0.46180838
4	0xbfb2a103	-1.3955387
5	0x3dcc0f62	0.099638715
6	0xbe3505c1	-0.17677976
7	0x3f001793	0.5003597

dijetResNetBlock.convJ.batchNorm.m f4 [1, 8, 1]
0	0x3f2e8a79	0.6818004
1	0xc0153b75	-2.331754
2	0xbfc09ad9	-1.5047256
3	0xbdd686fa	-0.104749635
4	0x3f0998a5	0.5374854
5	0xbf9730f8	-1.1811819
6	0xbea5b0bd	-0.32361403
7	0xbf90b53c	-1.1305308

dijetResNetBlock.convJ.batchNorm.s f4 [1, 8, 1]
0	0x3ff9d318	1.9517546
1	0x40687b54	3.6325274
2	0x40081197	2.1260736
3	0x4020dd1e	2.513496
4	0x3fe88936	1.8166873
5	0x4068814c	3.6328917
6	0x4056111d	3.3447945
7	0x404d8bce	3.211658

dijetResNetBlock.reinforce2.conv.module.weight f4 [8, 8, 3]
0	0xc00eb092	-2.229527
1	0xc0601035	-3.5009892
2	0xbe55c206	-0.20874795
3	0x3f181353	0.59404486
4	0x3f0830e7	0.5319962
5	0xc010e7a6	-2.2641387
6	0xbf77242d	-0.96539575
7	0xbebffa49	-0.3749564
8	0x3f343411	0.7039195
9	0xbee502ad	-0.44728604
10	0xbdc1538f	-0.09439766
11	0x3dce564b	0.10075053
12	0xbf9f7e9f	-1.2460517
13	0xbf4efa1a	-0.80850375
14	0xbff91626	-1.9459884
15	0xbf797288	-0.97440386
16	0x3e4c0295	0.1992286
17	0x3eaad1c6	0.3336317
18	0xbf8ab691	-1.0836965
19	0x3f60bc52	0.87787354
20	0x3e3cc2ba	0.18433657
21	0xbf98eda5	-1.1947523
22	0xbdcc8b4f	-0.099875085
23	0xbde7131c	-0.11282942
24	0xbea77672	-0.32707554
25	0xbe9297f8	-0.28631568
26	0x3fda0ac0	1.7034531
27	0xbee38a69	-0.44441536
28	0xbf7c734f	-0.98613447
29	0x3f2a3f20	0.6650257
30	0xc02a3135	-2.6592534
31	0xbfdf8293	-1.7461723
32	0xbe29a81d	-0.16568036
33	0xbe78261e	-0.2423329
34	0xbeb7c8bd	-0.3589534
35	0x3ffdfbec	1.9842505
36	0xbfeb5928	-1.8386583
37	0xbf437a86	-0.7635883
38	0x3f725b35	0.9467042
39	0xbe37ec59	-0.17961253
40	0x3ec364c4	0.38162816
41	0x3d7e8e9e	0.06214773
42	0x3f40f39a	0.75371706
43	0x3fb6daf5	1.428557
44	0x3dbb2f63	0.09139898
45	0x3f5354e4	0.8255141
46	0x3fc102bf	1.5078963
47	0xbdbe6e8e	-0.092984304
48	0x3eec237c	0.46120822
49	0x3ea0c2a7	0.31398508
50	0xbfd0cd38	-1.6312628
51	0x3ebd71a0	0.37000751
52	0xbf360884	-0.71106744
53	0xbf08789b	-0.5330903
54	0x3f5d239d	0.86382467
55	0x3f502e26	0.81320417
56	0x3f43face	0.7655457
57	0xbe676530	-0.22597194
58	0xbf9f98f7	-1.2468556
59	0x3fcc15ff	1.5944213
60	0x3f34a191	0.7055903
61	0x3fd95493	1.6978935
62	0xbddba7bd	-0.10725353
63	0xbf5ce0f4	-0.8628075
64	0xbeb6cfa4	-0.35705292
65	0xc00db6ff	-2.2142942
66	0x3cecbe5f	0.02889937
67	0xbde1fb0d	-0.11034212
68	0xbf96d695	-1.1784235
69	0xbe61d667	-0.22054444
70	0x3f101da8	0.5629525
71	0x3f6020ad	0.8754986
72	0xbd939860	-0.072067976
73	0x3e468b17	0.19388996
74	0xbee95c0d	-0.45578042
75	0x3fcdb491	1.607073
76	0x3fa13572	1.2594435
77	0xbf4ab5a1	-0.79183394
78	0x3ea64c13	0.32479915
79	0xbe7fe156	-0.24988303
80	0xbe99af5e	-0.30016607
81	0xbf1079c4	-0.564358
82	0xbf276634	-0.65390325
83	0xbf55b138	-0.8347354
84	0x3f5bde73	0.85886306
85	0x3f0c72f1	0.54862887
86	0x3e661fe3	0.22473101
87	0x3e9e6042	0.30932814
88	0x3f966ece	1.1752565
89	0x3e15ac77	0.14616571
90	0xbf6ea8c4	-0.93226266
91	0x3e2c0c3c	0.16801542
92	0x3dc3fb99	0.09569473
93	0x3f50ef26	0.8161491
94	0x3fa57cc7	1.2928704
95	0x3f1082b1	0.5644942
96	0x3d0b1094	0.033951357
97	0xbf80547b	-1.0025781
98	0x400138c6	2.0190902
99	0xbf9f397f	-1.2439421
100	0xbeb4aebc	-0.35289562
101	0x3fd5a8bb	1.6692117
102	0x3f5e7f6a	0.8691317
103	0x3fa281ee	1.2695901
104	0x3bf25a79	0.007396039
105	0x3f4888c4	0.7833369
106	0xbf0efb96	-0.5585264
107	0xbefb3dac	-0.4907049
108	0x3fd6b042	1.677254
109	0x4007280f	2.11182
110	0x3fca3cf1	1.5799848
111	0x3ed617ab	0.41814932
112	0xbe54fa3b	-0.2079858
113	0xbf866761	-1.0500299
114	0x3ef1ae92	0.472035
115	0xbeaef760	-0.34173107
116	0x3dcd9cc5	0.10039667
117	0x3ec74f57	0.3892772
118	0x3e5d7f8c	0.21630687
119	0x3fddf474	1.7340226
120	0x3e244090	0.16040254
121	0xbe8dec50	-0.27719355
122	0xbeeac426	-0.45852774
123	0x3fc1a253	1.5127662
124	0x3f8d0534	1.1017213
125	0xbf1c9230	-0.61160564
126	0xbef8355b	-0.48478207
127	0xbfaf5a7b	-1.3699487
128	0x400ec0c5	2.2305157
129	0xbe401736	-0.18758854
130	0xbf840403	-1.0313724
131	0xbfc2e298	-1.5225401
132	0xc003db9c	-2.060279
133	0xc00d76d4	-2.2103777
134	0x3fbce55b	1.4757494
135	0xbe806844	-0.25079548
136	0xbf07b855	-0.53015643
137	0xbf1c046d	-0.60944253
138	0xbe23f842	-0.16012672
139	0xbf82f68d	-1.0231491
140	0x3fa24b15	1.2679163
141	0xbed7ad9a	-0.42124635
142	0x3e826583	0.25468072
143	0xbfab80ee	-1.3398721
144	0xbf4b5379	-0.79424244
145	0xbf8a4886	-1.0803382
146	0xc0235a6c	-2.552394
147	0xbf56f99f	-0.8397464
148	0xc0090092	-2.1406598
149	0x3e6e6c06	0.23283395
150	0xbf6c0a52	-0.9220325
151	0xc006acb8	-2.104292
152	0x3e18fbc0	0.14939785
153	0xbecbad8d	-0.39780846
154	0x3fffdef1	1.9989911
155	0x3f164543	0.58699435
156	0xbf244490	-0.6416712
157	0xbf5bb865	-0.8582824
158	0xb989d36f	-0.00026288207
159	0xbf74d35e	-0.9563502
160	0xbea1433d	-0.3149661
161	0xbf33c99e	-0.7022952
162	0x3f1acb4b	0.6046645
163	0x3f270af9	0.6525112
164	0xc046875c	-3.1020117
165	0xbfe7150a	-1.8053296
166	0xc00b75f4	-2.1790743
167	0xc0771050	-3.8603706
168	0x3eda013b	0.42579064
169	0xbf02413c	-0.5088079
170	0x401e86f1	2.4769862
171	0xbea3606d	-0.31909505
172	0x3f4437f0	0.76647854
173	0x3eea381a	0.45745927
174	0xbe28dec3	-0.16491227
175	0xbc8e45b7	-0.017367227
176	0x3f48d01d	0.78442556
177	0xbd95b8e9	-0.073106594
178	0xbf5d0dec	-0.8634937
179	0xbe8de3ea	-0.27712947
180	0xbe348c2e	-0.176316
181	0xbe625291	-0.22101809
182	0xbebb45e5	-0.36576763
183	0xbf9e3c59	-1.2362167
184	0x3f7df56e	0.9920262
185	0xbfcc708b	-1.5971845
186	0x3e28afe5	0.16473348
187	0xbf562823	-0.83654994
188	0x3f15657e	0.5835799
189	0x3d7509f2	0.059823938
190	0x3f257151	0.6462603
191	0x3fb4b922	1.4118998

dijetResNetBlock.reinforce2.conv.module.bias f4 [8]
0	0x3f86dd95	1.0536371
1	0x401159f2	2.2711148
2	0xbf717c74	-0.94330525
3	0x3ef4b69c	0.4779557
4	0xc028e82f	-2.6391714
5	0x40229f3d	2.5409691
6	0x3fd42cc9	1.6576167
7	0x3f207e8c	0.62693095

dijetEmbed2.module.weight f4 [8, 8, 1]
0	0xbeeb95c2	-0.46012694
1	0xbff3d034	-1.9047914
2	0x3f0cee4d	0.5505112
3	0xbea5b6ba	-0.32365972
4	0xc0192703	-2.393006
5	0xc047911f	-3.1182325
6	0x3f3f7dc4	0.7480128
7	0x3d6a832c	0.057254
8	0x3f7ea8b4	0.9947617
9	0xbff5fb30	-1.9217281
10	0xbfae3fe5	-1.3613249
11	0xbf1f3339	-0.62187535
12	0xc0113a9f	-2.269203
13	0x3fd092a9	1.6294757
14	0xbf385520	-0.7200489
15	0xc018e341	-2.3888705
16	0x3eb0827d	0.34474555
17	0xbdd59eb7	-0.10430663
18	0xbf55ac1e	-0.83465755
19	0x3e9ad126	0.30237693
20	0xbe8b035f	-0.2715101
21	0xbf7b2c49	-0.9811445
22	0xbea7df25	-0.32787433
23	0xbeec46de	-0.46147817
24	0x3f49c795	0.78820163
25	0xbf912775	-1.1340166
26	0x3f271f7c	0.65282416
27	0xbf064def	-0.5246267
28	0x3f03ee10	0.5153513
29	0x3fac9253	1.3482155
30	0x3bb6593e	0.0055648377
31	0x3fe29fa1	1.7704965
32	0x3fcb1323	1.5865215
33	0xbccf6f53	-0.025321638
34	0x3e7e1445	0.2481242
35	0xbf9f2e71	-1.2436048
36	0x3f992dfb	1.1967157
37	0xbf872547	-1.0558251
38	0xbcc2e6db	-0.023791721
39	0xbe685b20	-0.22691011
40	0x3f30fe3d	0.69137937
41	0x3e0f26f2	0.139797
42	0x3fc22f06	1.51706
43	0x3e739bbb	0.23789875
44	0xbfbac25a	-1.4590561
45	0x3ffbceb1	1.9672452
46	0x3e51c46a	0.20485082
47	0xbeb39217	-0.35072395
48	0xbcd22fd6	-0.025657576
49	0xc0360e7b	-2.8446338
50	0x3eec491f	0.46149537
51	0x3f904528	1.1271105
52	0x3f571a5a	0.84024584
53	0x3fa0ab6e	1.2552316
54	0xbfa08eeb	-1.2543615
55	0xbec366f5	-0.38164487
56	0x3f7ad3b9	0.97979313
57	0x3f5b4c53	0.85663337
58	0x4005152a	2.0794168
59	0x3f043726	0.5164665
60	0xbfae259b	-1.3605226
61	0xbf8bbc26	-1.0916793
62	0x3ef913a3	0.48647794
63	0x3f95cc55	1.1702982

dijetEmbed2.module.bias f4 [8]
0	0x3e89149d	0.2677354
1	0x4017ddfc	2.3729239
2	0xbf5c8a18	-0.86148214
3	0x40bce4ed	5.902945
4	0xbeeb5643	-0.4596425
5	0x4019795b	2.398032
6	0xbf2e9b93	-0.6820614
7	0x40060f30	2.094677

quadjetGBN.gamma f4 [6]
0	0x3fa0cf15	1.2563196
1	0x3f508fa5	0.81469184
2	0x3ed1a94b	0.40949473
3	0x3ea00627	0.31254694
4	0x3fa0e15f	1.2568778
5	0x3eeadd7c	0.45872104

quadjetGBN.bias f4 [6]
0	0xbe4a5f9e	-0.19763038
1	0x3e340d77	0.17583261
2	0x3d3517bf	0.0442121
3	0xbe7337cc	-0.23751754
4	0x3e11d9d3	0.1424325
5	0x3de4e8d0	0.11177218

quadjetGBN.m f4 [1, 6, 1]
0	0x40232979	2.5494063
1	0x43f495b4	489.16956
2	0x406cb109	3.6983054
3	0x3fa014ee	1.2506387
4	0x409cec6a	4.903859
5	0x44fc1fca	2016.9934

quadjetGBN.s f4 [1, 6, 1]
0	0x3f60acb8	0.8776355
1	0x43307345	176.45027
2	0x4044b04e	3.0732608
3	0x40623ac9	3.534838
4	0x3f7e59c6	0.99355733
5	0x3f5daa06	0.8658756

quadjetEmbed.module.weight f4 [8, 6, 1]
0	0x3f414219	0.7549148
1	0x3f347480	0.70490265
2	0xbfd2dec4	-1.6474233
3	0xbfb7c23a	-1.4356148
4	0x3fd7890a	1.6838696
5	0x3f2b0f15	0.6681989
6	0xbd25fee2	-0.04052628
7	0x3e98095b	0.29694638
8	0xbe72b8fa	-0.23703375
9	0xbeda3220	-0.42616367
10	0x3e71046b	0.23536842
11	0x3ef649f0	0.48103285
12	0x3fcfd5b6	1.6237094
13	0xbf9d157d	-1.2272183
14	0xbf1fe44a	-0.62457716
15	0xbec85d9c	-0.39133918
16	0xbf337d4c	-0.7011306
17	0x3f93fcff	1.1561583
18	0x3e88cc9d	0.26718608
19	0xbeedf33c	-0.46474636
20	0x3de1b67d	0.11021135
21	0x3d47b2cf	0.04875451
22	0xbeb32048	-0.34985566
23	0xbebbda06	-0.36689776
24	0x4032c496	2.7932487
25	0xbee4ad61	-0.44663528
26	0x3fabb20c	1.341371
27	0x3f1c4ea2	0.61057484
28	0xbffe1c09	-1.9852306
29	0xbf04c2ae	-0.5185956
30	0xbafa26b4	-0.0019085021
31	0x3f9cec6f	1.2259654
32	0x3f61c173	0.88185805
33	0x3f24be47	0.6435284
34	0xbe8497d9	-0.258971
35	0xbe8673d3	-0.26260242
36	0x3fc91819	1.5710479
37	0x3fd7e889	1.6867839
38	0x3de0bd3d	0.10973594
39	0xbeb6bfb6	-0.3569314
40	0xbe8418d2	-0.25800186
41	0x3eeab5b9	0.45841768
42	0xbd06b423	-0.032886636
43	0xbbc82597	-0.0061079967
44	0xbe592d6e	-0.21208736
45	0x3edff6c4	0.43742955
46	0xc01de9ea	-2.467402
47	0x3ef09d25	0.46994892

quadjetEmbed.module.bias f4 [8]
0	0xbda39a38	-0.07988399
1	0x3f827b03	1.019379
2	0x3fd742d2	1.6817267
3	0xbf8ebb3d	-1.115089
4	0x3e563fa1	0.2092271
5	0x3fc04816	1.5021999
6	0x3fa31817	1.2741727
7	0x3f2b581f	0.6693134

quadjetResNetBlock.reinforce1.sym.weight f4 [8, 1, 2]
0	0x3f000000	0.5
1	0x3f000000	0.5
2	0x3f000000	0.5
3	0x3f000000	0.5
4	0x3f000000	0.5
5	0x3f000000	0.5
6	0x3f000000	0.5
7	0x3f000000	0.5
8	0x3f000000	0.5
9	0x3f000000	0.5
10	0x3f000000	0.5
11	0x3f000000	0.5
12	0x3f000000	0.5
13	0x3f000000	0.5
14	0x3f000000	0.5
15	0x3f000000	0.5

quadjetResNetBlock.reinforce1.antisym.weight f4 [8, 1, 2]
0	0x3f000000	0.5
1	0xbf000000	-0.5
2	0x3f000000	0.5
3	0xbf000000	-0.5
4	0x3f000000	0.5
5	0xbf000000	-0.5
6	0x3f000000	0.5
7	0xbf000000	-0.5
8	0x3f000000	0.5
9	0xbf000000	-0.5
10	0x3f000000	0.5
11	0xbf000000	-0.5
12	0x3f000000	0.5
13	0xbf000000	-0.5
14	0x3f000000	0.5
15	0xbf000000	-0.5

quadjetResNetBlock.reinforce1.conv.module.weight f4 [8, 8, 3]
0	0x3f105502	0.5637971
1	0x3f9bb546	1.2164695
2	0x3e929780	0.2863121
3	0x3f545b62	0.8295194
4	0xbfc95cc8	-1.573144
5	0x3f81e52d	1.0148064
6	0xbe886f86	-0.26647586
7	0xbf2fbed3	-0.6865055
8	0x3f820057	1.0156354
9	0x3f522535	0.82088023
10	0xc0209d96	-2.5096183
11	0xbf9edc0c	-1.2410903
12	0xbe325580	-0.17415428
13	0xbe6e4cd4	-0.23271495
14	0xbfcb4f55	-1.5883585
15	0xbf801f06	-1.0009468
16	0xbfb500d4	-1.4140878
17	0x3f4a0550	0.78914356
18	0x3fd53892	1.6657889
19	0x3ddc67dc	0.10761997
20	0x401c6729	2.4437964
21	0xbe6c28e5	-0.23062475
22	0xbf7bcaa7	-0.983561
23	0xc02805f2	-2.6253629
24	0x3f3b84d4	0.73249555
25	0x3f5363b8	0.82574034
26	0x3f2996a8	0.6624551
27	0xbe997744	-0.29973805
28	0x404c6839	3.1938612
29	0xc05b7795	-3.4291737
30	0x3e9a7d5c	0.30173767
31	0xc005adcb	-2.0887325
32	0xbff66ff7	-1.9252919
33	0xbf0962be	-0.53666294
34	0x4009652f	2.1468008
35	0xbec73db5	-0.38914266
36	0xbf0ad977	-0.54238075
37	0x3f504b46	0.8136486
38	0xc0953a76	-4.6633863
39	0xbe09b86c	-0.13449258
40	0x400720ff	2.111389
41	0xbf23829c	-0.6387117
42	0x3d3b8dda	0.045789577
43	0x401c39b9	2.441023
44	0x3de74f41	0.11294413
45	0x3ea063e7	0.3132622
46	0x3fb8f0dd	1.4448506
47	0xbff16036	-1.8857486
48	0x3d11624f	0.035494145
49	0x3f033d94	0.51265836
50	0x3f95529a	1.1665833
51	0x3eda9f7b	0.426998
52	0xbf193c08	-0.59857225
53	0xbc99b2fb	-0.018762102
54	0xbeec872c	-0.46196878
55	0x3f6b4097	0.9189543
56	0x3f206a0d	0.6266182
57	0xbeac07d4	-0.33599722
58	0xc0b0ae69	-5.5212903
59	0xbf72a231	-0.94778734
60	0x3f811bb2	1.0086577
61	0x3f9b1e2f	1.2118586
62	0xbf1387f8	-0.57629347
63	0x3eeda31a	0.464135
64	0xbefab90a	-0.489693
65	0xc03933d7	-2.893789
66	0xbde3c963	-0.11122396
67	0xc0b3e315	-5.62147
68	0xbf967d38	-1.1756964
69	0x3ee448e1	0.44586852
70	0x3f5db979	0.86611134
71	0xbf005004	-0.50122094
72	0x3eb7e06e	0.35913414
73	0xbef5a066	-0.47973937
74	0x3f759041	0.9592324
75	0x3f81a717	1.0129117
76	0xbfb9c759	-1.4513961
77	0x3e5d3904	0.21603781
78	0x401a3b72	2.4098783
79	0xbfe2f597	-1.7731198
80	0x3f3308fb	0.6993558
81	0xbfa0903a	-1.2544014
82	0x3e8f9af4	0.28047907
83	0x3f50c069	0.81543595
84	0x3f096a3c	0.53677726
85	0xbf9d5ed6	-1.2294567
86	0xbf19f178	-0.6013408
87	0x3fc8e36a	1.5694401
88	0x3f589158	0.84596777
89	0x3fcf13b1	1.6177884
90	0xbe9f69ff	-0.31135556
91	0xbe9d8716	-0.30767125
92	0x3f913c04	1.134644
93	0xbf6ab0ab	-0.91675824
94	0xc09172d7	-4.5452685
95	0xbfff135e	-1.9927785
96	0x3f56bf0d	0.8388527
97	0x3ea62bb4	0.32455218
98	0xbfe1fecd	-1.7655884
99	0xc00bb34a	-2.182818
100	0x3d0ee02e	0.034881763
101	0xbe9a03ea	-0.3008111
102	0xbf98a844	-1.192635
103	0xbf65b3bd	-0.89727384
104	0xbfa3a506	-1.2784736
105	0xbf20b915	-0.6278241
106	0x3fa73294	1.306231
107	0xc0221b3d	-2.5329125
108	0xc00aa490	-2.166294
109	0xbf868de1	-1.0512048
110	0xc002418b	-2.0352504
111	0xbf74a6d2	-0.9556705
112	0xbf1c2db5	-0.61007243
113	0xbe6f9ac6	-0.23398885
114	0xbf275791	-0.6536799
115	0xbfa8edb4	-1.3197541
116	0xbf402693	-0.7505886
117	0x3efb65f5	0.49101225
118	0x3eab1c22	0.334199
119	0xc091526b	-4.541311
120	0xc010b652	-2.261128
121	0xbf70a092	-0.9399501
122	0xbe9c59e8	-0.30537343
123	0xbe7083c2	-0.23487762
124	0x3fa14954	1.2600503
125	0x3f380d53	0.7189533
126	0x3f1fce79	0.6242443
127	0x400d58db	2.2085483
128	0xc041b05b	-3.026389
129	0xbf4f0c35	-0.80878
130	0xc01d9300	-2.4620972
131	0x3fc5a76c	1.5441718
132	0x3fb9f79b	1.4528688
133	0xbe247c95	-0.1606315
134	0xbf9aaa4f	-1.2083224
135	0xbec27a9f	-0.37984177
136	0x3faafe3a	1.3358834
137	0xc0194d7a	-2.3953538
138	0x3d742965	0.05960979
139	0xc01b4f02	-2.4266973
140	0xbfd4ca28	-1.6624193
141	0xbff8f59b	-1.9449953
142	0x3eb2fb7d	0.34957495
143	0xbfd85b0f	-1.6902789
144	0x3f80fc2a	1.0076954
145	0x3f9498f1	1.1609174
146	0xbff97af8	-1.9490652
147	0xbf442564	-0.76619554
148	0x3ef3dfb1	0.476316
149	0xc063373a	-3.5502458
150	0x3fd241f2	1.6426375
151	0xc07cd71c	-3.9506292
152	0x3f20cd77	0.62813514
153	0x3eb2f2e5	0.3495094
154	0x3f283f5d	0.65721685
155	0x4088608e	4.2617865
156	0x3ff8001b	1.9375032
157	0x40215768	2.5209599
158	0x3f90813b	1.1289438
159	0xbf8704df	-1.0548362
160	0x400d48a9	2.2075598
161	0xbefa4459	-0.4888027
162	0xbf83714e	-1.0268953
163	0x3fb78c3c	1.4339671
164	0xc01ea253	-2.4786575
165	0x3fb15e3a	1.3856881
166	0xbe1e3216	-0.15448794
167	0x3f9f9918	1.2468596
168	0xbea56241	-0.32301524
169	0x3eecb926	0.46235007
170	0x3fe87d6b	1.8163275
171	0xbe5d8d83	-0.21636014
172	0xc0037bdb	-2.0544345
173	0xbfa9afbe	-1.3256757
174	0xbe73e6c7	-0.23818503
175	0x3ee00a44	0.43757832
176	0xbfeee5af	-1.8663844
177	0x3f94168a	1.1569378
178	0x3fce0f3e	1.6098402
179	0x408d024d	4.406531
180	0x3f72c706	0.94834936
181	0x3f238702	0.6387788
182	0xbf173231	-0.5906096
183	0x3faff309	1.3746043
184	0x3f93d2d1	1.1548711
185	0xbff023c0	-1.876091
186	0xbf1981e2	-0.5996381
187	0xbf3ea434	-0.74469304
188	0xc019e027	-2.4043062
189	0x3f82adab	1.0209249
190	0xbfa1b4e7	-1.2633332
191	0x400dc5a0	2.215187

quadjetResNetBlock.reinforce1.conv.batchNorm.gamma f4 [8]
0	0x3f1f856a	0.6231295
1	0x40590a1f	3.3912427
2	0x3f13b990	0.5770502
3	0x4041d5a7	3.0286653
4	0x4033d411	2.8098185
5	0x3eec42af	0.46144626
6	0x400ce9e5	2.2017758
7	0x3e2f563b	0.17122738

quadjetResNetBlock.reinforce1.conv.batchNorm.bias f4 [8]
0	0x3e30e06a	0.17273107
1	0x3f90e290	1.1319141
2	0xc004cb2c	-2.0749006
3	0xc00bfeb3	-2.1874206
4	0xbfc5d6b2	-1.5456145
5	0x3ea8670d	0.32891122
6	0x3e686fcc	0.22698897
7	0x3ef74732	0.48296505

quadjetResNetBlock.reinforce1.conv.batchNorm.m f4 [1, 8, 1]
0	0xc1ff8b77	-31.943098
1	0x41b38c76	22.443584
2	0xc1b670e2	-22.805119
3	0xc1d03a66	-26.028515
4	0xc2347818	-45.11728
5	0xc2a06678	-80.200134
6	0x41e1b246	28.212048
7	0x428582c6	66.75542

quadjetResNetBlock.reinforce1.conv.batchNorm.s f4 [1, 8, 1]
0	0x42009d07	32.153347
1	0x4221f988	40.493683
2	0x4201c943	32.446545
3	0x4260d650	56.20929
4	0x425e7efb	55.624004
5	0x4202d0cc	32.703903
6	0x422ca53f	43.161373
7	0x41cad92f	25.356047

quadjetResNetBlock.convD.module.weight f4 [8, 8, 1]
0	0xbdc10fe2	-0.094268575
1	0x3c5cd764	0.0134790875
2	0x3d70b62c	0.058767483
3	0x3f388895	0.7208341
4	0xbf34a1f0	-0.70559597
5	0xc03dbf27	-2.964792
6	0xbda413ba	-0.08011575
7	0xbf8888df	-1.066677
8	0xbd0f472e	-0.03497999
9	0xbfb61cc2	-1.4227526
10	0x3fbbed0e	1.4681718
11	0xbcf6b5bf	-0.03011596
12	0x3fc1e257	1.5147198
13	0xbf2800ac	-0.65626025
14	0x40008da8	2.008646
15	0x3fae89b6	1.3635776
16	0xbe44aa83	-0.1920567
17	0x3fefcf08	1.8735056
18	0x3e22697e	0.15860555
19	0x3fcbf0b3	1.593283
20	0x3f885a8c	1.0652633
21	0x3e5418a6	0.20712528
22	0xbebdb9c4	-0.3705579
23	0xbe4b9774	-0.19881994
24	0xbf94676e	-1.1594064
25	0x402038dd	2.5034707
26	0xbf0a13ee	-0.5393666
27	0xbfb92474	-1.446425
28	0x3b078375	0.002067772
29	0xbea7c3b0	-0.32766485
30	0xbf406b40	-0.7516365
31	0xbfd015e1	-1.6256677
32	0x3d9989a6	0.074969575
33	0xbf9db56b	-1.2320989
34	0xbd99a2be	-0.07501744
35	0xbf626500	-0.88435364
36	0xbf96e7ea	-1.1789525
37	0x3ffe17aa	1.9850972
38	0x3ebb48a1	0.3657885
39	0x3fadad48	1.3568506
40	0x3f8636f2	1.0485518
41	0x404d0c90	3.2038918
42	0x3f939748	1.1530542
43	0x3eb04d54	0.34433997
44	0x3fbb0602	1.4611208
45	0x3ebbda82	0.36690146
46	0x3ff46314	1.9092736
47	0x3e517a7b	0.20456879
48	0x3f995c94	1.1981378
49	0x3f77c0a4	0.9677832
50	0xbfe2170f	-1.7663287
51	0xc04d462e	-3.2074084
52	0x3e604c94	0.21904212
53	0xbe04dba7	-0.12974416
54	0x3f0779c1	0.52920157
55	0xbf8d01ef	-1.1016215
56	0x3fccd800	1.6003418
57	0x3fea7561	1.8317071
58	0x3fa5ad50	1.2943516
59	0xbf86b549	-1.0524074
60	0x3f3da112	0.740739
61	0xbf847140	-1.0347061
62	0x3ed722a6	0.42018622
63	0x3fbef979	1.4919883

quadjetResNetBlock.convD.batchNorm.gamma f4 [8]
0	0x3fee8184	1.8633275
1	0x3f19afd1	0.600339
2	0xbf078410	-0.52935886
3	0x3f1295ed	0.5726002
4	0x3ff80a04	1.9378057
5	0x3fc92e64	1.5717282
6	0x3e0bcfdc	0.13653511
7	0x4045f6a2	3.0931783

quadjetResNetBlock.convD.batchNorm.bias f4 [8]
0	0x3fadff0d	1.359346
1	0x3f81256c	1.0089545
2	0xbf3a0473	-0.7266304
3	0x3ee8d125	0.45472065
4	0xc01732d1	-2.3624766
5	0x3edd28de	0.43195242
6	0x401109cb	2.2662227
7	0xbfdb7d56	-1.7147624

quadjetResNetBlock.convD.batchNorm.m f4 [1, 8, 1]
0	0xc28ce208	-70.44147
1	0x416ab4b2	14.669115
2	0x421849c5	38.07204
3	0xc26f8df6	-59.888634
4	0x424046c1	48.069096
5	0x4215f3d6	37.48812
6	0xc2a37379	-81.72553
7	0x3ff69f2f	1.9267329

quadjetResNetBlock.convD.batchNorm.s f4 [1, 8, 1]
0	0x4269d704	58.459976
1	0x4228e437	42.222866
2	0x4203528a	32.830605
3	0x42083ea7	34.061184
4	0x41bb790f	23.43411
5	0x42396a85	46.354023
6	0x42064700	33.569336
7	0x4221c483	40.441906

quadjetResNetBlock.reinforce2.sym.weight f4 [8, 1, 2]
0	0x3f000000	0.5
1	0x3f000000	0.5
2	0x3f000000	0.5
3	0x3f000000	0.5
4	0x3f000000	0.5
5	0x3f000000	0.5
6	0x3f000000	0.5
7	0x3f000000	0.5
8	0x3f000000	0.5
9	0x3f000000	0.5
10	0x3f000000	0.5
11	0x3f000000	0.5
12	0x3f000000	0.5
13	0x3f000000	0.5
14	0x3f000000	0.5
15	0x3f000000	0.5

quadjetResNetBlock.reinforce2.antisym.weight f4 [8, 1, 2]
0	0x3f000000	0.5
1	0xbf000000	-0.5
2	0x3f000000	0.5
3	0xbf000000	-0.5
4	0x3f000000	0.5
5	0xbf000000	-0.5
6	0x3f000000	0.5
7	0xbf000000	-0.5
8	0x3f000000	0.5
9	0xbf000000	-0.5
10	0x3f000000	0.5
11	0xbf000000	-0.5
12	0x3f000000	0.5
13	0xbf000000	-0.5
14	0x3f000000	0.5
15	0xbf000000	-0.5

quadjetResNetBlock.reinforce2.conv.module.weight f4 [8, 8, 3]
0	0x3f734694	0.9502957
1	0x3fc2492e	1.5178583
2	0xbf8bc545	-1.0919577
3	0x3eecdc14	0.46261656
4	0x400fcd86	2.2469192
5	0x3fdabdf3	1.7089218
6	0xbfc143df	-1.5098838
7	0xbfc06b33	-1.5032715
8	0xbd814642	-0.06312229
9	0xbe59840c	-0.21241778
10	0xbe3b8239	-0.18311395
11	0x3fd6a8bf	1.6770247
12	0x3f9831c6	1.189019
13	0xbf4bf403	-0.7966921
14	0xbfb158c5	-1.3855215
15	0x3ddf404c	0.109009355
16	0xc0611406	-3.5168471
17	0xbf8c3d53	-1.0956215
18	0x3e5afabe	0.21384713
19	0x3f4ca9b5	0.7994645
20	0x3f4d9ebd	0.8032034
21	0xbff39e9d	-1.903278
22	0x3f5a92bf	0.85380167
23	0xbff90029	-1.9453174
24	0xbfb745ee	-1.4318216
25	0xbec3f14a	-0.38270026
26	0xbd0e2620	-0.034704328
27	0x3c653d61	0.013991685
28	0xbf5db408	-0.8660283
29	0xbe3024d5	-0.1720155
30	0x3f3ade11	0.72995096
31	0x3f8121e4	1.0088468
32	0xbf0ff277	-0.56229347
33	0xbf416003	-0.7553713
34	0xbf49e751	-0.78868586
35	0xbe9cdaca	-0.30635673
36	0xbef3fde2	-0.47654635
37	0xbeb57841	-0.3544331
38	0xbef8b7b8	-0.48577666
39	0xbee69e94	-0.4504286
40	0x3ed3d5f0	0.4137416
41	0xbf9f9702	-1.2467959
42	0xbef739c3	-0.48286256
43	0xbd8932d9	-0.066991515
44	0xbf71aa2a	-0.94400275
45	0xbeef7bd5	-0.46774164
46	0x3ed3d5c3	0.41374025
47	0xbf4ac625	-0.79208595
48	0xbeb00e5d	-0.34385958
49	0x3f169d69	0.5883394
50	0x3dabdc8a	0.08391674
51	0xbf0b1007	-0.5432133
52	0x3ec5643e	0.3855304
53	0xbd8ce8fc	-0.06880376
54	0x3de258fa	0.11052127
55	0xbf9f4c08	-1.2445078
56	0x3fbe374c	1.4860625
57	0xbd607e61	-0.054808024
58	0xc005c552	-2.0901685
59	0xc05793ed	-3.3684037
60	0xc0545fab	-3.318339
61	0xbd75f9dd	-0.06005274
62	0x3d326239	0.043550704
63	0x3f755e87	0.9584736
64	0x3e1ffd3a	0.15623942
65	0xbc72a541	-0.014809907
66	0x40254dd2	2.5828748
67	0x3ec1b235	0.37831274
68	0xbeb7c2d8	-0.3589084
69	0x3f53234b	0.8247573
70	0x3f3f5664	0.74741197
71	0xbfcd6832	-1.6047423
72	0x3f9fe75e	1.2492483
73	0x3ffdc14c	1.9824615
74	0xbf8879df	-1.0662192
75	0xbf707b77	-0.9393839
76	0x3f9dd698	1.2331114
77	0xc044fae9	-3.0778143
78	0x3f1861c9	0.5952421
79	0xc00ed73f	-2.2318876
80	0x3ede48df	0.4341497
81	0x3a449b1f	0.00074999215
82	0xbd4a845d	-0.049442638
83	0xc029b43d	-2.6516259
84	0xbefe3602	-0.4965058
85	0xbf398f05	-0.72483855
86	0x3f7446aa	0.95420325
87	0x3f14cfd5	0.58129627
88	0x403d1d1e	2.9549022
89	0x3f691839	0.91052586
90	0xbfb300da	-1.3984635
91	0xbf3afbee	-0.73040664
92	0xc0149e1b	-2.32215
93	0xbffba79c	-1.9660525
94	0xc0021278	-2.0323772
95	0x3f262a62	0.6490842
96	0xbe922ff0	-0.28552198
97	0x3febe443	1.8429035
98	0xc03c370e	-2.9408603
99	0xc007891a	-2.117743
100	0x3ee72b28	0.45150113
101	0x3ed41306	0.41420764
102	0x3f036349	0.5132337
103	0xbf8406da	-1.0314591
104	0x406cc9ce	3.6998172
105	0x3d7dad59	0.061932895
106	0xc045a4bd	-3.0881798
107	0xc0042a4c	-2.0650816
108	0xc03f358d	-2.9876435
109	0xbdbcd95e	-0.09221147
110	0xbb88b078	-0.0041714273
111	0x3f249dbc	0.64303184
112	0xbfaef3f7	-1.3668202
113	0x3e8b5830	0.2721572
114	0x3e5397a0	0.20663309
115	0xbe3678de	-0.17819545
116	0xbf4c0ef3	-0.7971031
117	0xbf4a9208	-0.79129076
118	0xbe2b74b1	-0.16743733
119	0x3f128f8e	0.572503
120	0xc00429ff	-2.0650632
121	0x3e2eae6a	0.17058721
122	0xbf7fbb0c	-0.99894786
123	0x40075279	2.1144087
124	0xbecb008a	-0.3964885
125	0x3f7b6f2e	0.9821652
126	0xbeed4ae6	-0.46346205
127	0x3f33b758	0.70201635
128	0x3dd03c35	0.101677336
129	0x3ed7f97a	0.42182523
130	0x400543bb	2.082259
131	0x3e9bc63a	0.30424672
132	0xbf0fb797	-0.5613951
133	0x3ec0ebf8	0.3768003
134	0xbf164a2d	-0.58706933
135	0x3f68116e	0.90651596
136	0xbf81e28c	-1.0147262
137	0x3f396402	0.72418225
138	0x3fbb0413	1.4610618
139	0x3ed47c7f	0.41501233
140	0x3fc37ddb	1.5272783
141	0xbe1d435f	-0.15357731
142	0x3ed9368a	0.42424423
143	0x3fb03706	1.3766792
144	0x3ce00356	0.02734534
145	0xc00c723d	-2.1944726
146	0xbe9b54c2	-0.30338103
147	0x3e025359	0.12727107
148	0x3fb45275	1.4087664
149	0x40001874	2.0014925
150	0xbea84692	-0.3286634
151	0x400679cd	2.1011841
152	0x3f882025	1.063481
153	0x3f179ac9	0.5922056
154	0xbe202bbf	-0.15641688
155	0x3efa5075	0.4888951
156	0xc01f9f3e	-2.4940944
157	0x3dd3a8a2	0.103348985
158	0x3ea6f161	0.32606032
159	0x3f1abc0d	0.6044319
160	0xc06dabb1	-3.7136042
161	0x3f4cc51a	0.79988253
162	0x3fb251b7	1.3931187
163	0x3f013a43	0.50479525
164	0xbef3e8c0	-0.47638512
165	0xc0110b62	-2.2663198
166	0xbf1194fa	-0.56867945
167	0xbfe9f311	-1.8277303
168	0x403252ec	2.7863111
169	0x3e984036	0.2973649
170	0x3f9fe443	1.2491535
171	0xbd811c31	-0.06304205
172	0x3ee0ff84	0.43944943
173	0xbf4484ef	-0.7676534
174	0xbf30cd0f	-0.69062895
175	0x3e723bfb	0.23655693
176	0xbf80a9b8	-1.0051794
177	0x3f5d95aa	0.86556494
178	0x3fb82ab2	1.438803
179	0xbfe7adfb	-1.809997
180	0x3ff910fc	1.9458308
181	0xbe463f39	-0.19360055
182	0x400b5305	2.176942
183	0xbd957301	-0.07297326
184	0x3f31b814	0.69421506
185	0xbe567b4f	-0.20945476
186	0xbfe05a39	-1.7527534
187	0xbeac808f	-0.33691832
188	0xbd956a00	-0.072956085
189	0x3fa6f01c	1.3042026
190	0x3fa9192b	1.3210806
191	0xbf486c48	-0.78290224

quadjetResNetBlock.reinforce2.conv.module.bias f4 [8]
0	0xbec79b1a	-0.3898552
1	0xbf24544e	-0.6419114
2	0x40dc6b6a	6.888112
3	0x3f9228a3	1.1418651
4	0x401d7672	2.4603543
5	0x400e4899	2.223181
6	0x3fb0f05f	1.3823355
7	0x3efd275d	0.49444094

eventConv1.module.weight f4 [8, 8, 1]
0	0xbd694a26	-0.05695548
1	0xbec60486	-0.38675326
2	0xc027ea99	-2.6236937
3	0xbfbd77f1	-1.4802228
4	0x3f18f803	0.59753436
5	0x3f20a795	0.6275571
6	0x3f8acb9a	1.0843384
7	0x3f2d7889	0.6776205
8	0x3df0d702	0.117597595
9	0xbe0c370f	-0.13692878
10	0xbef63ee4	-0.48094857
11	0xbf523372	-0.8210975
12	0xbded71f1	-0.11593998
13	0x3e0fcbbc	0.14042562
14	0x3d9923d0	0.07477534
15	0xbf9ffd92	-1.2499259
16	0x3f07ffec	0.5312488
17	0x3d8724be	0.06598805
18	0xbffd9426	-1.9810836
19	0x3fe6fd08	1.8045969
20	0xbf76ba2b	-0.9637782
21	0xbfb3cd11	-1.4046956
22	0xbf76f07f	-0.9646072
23	0x3edf3456	0.43594617
24	0x3d82c0ff	0.06384467
25	0x3c6231d7	0.013805828
26	0x4030a538	2.7600842
27	0xbfb0e33f	-1.381935
28	0xbfb4ee5e	-1.4135244
29	0xbf25611f	-0.6460132
30	0xbea4d03c	-0.3219012
31	0x3e4a3521	0.1974683
32	0x400b9b50	2.1813545
33	0x3f422a09	0.7584539
34	0xc024f6b3	-2.5775573
35	0xbeb60fd8	-0.35558963
36	0xc001e8e6	-2.02984
37	0x3f0629e6	0.5240768
38	0x3e950764	0.291072
39	0xbf775380	-0.96611786
40	0xbf6e221c	-0.93020797
41	0x3edc6ef0	0.4305339
42	0x3e4355c5	0.19075687
43	0x3fcf9f47	1.6220483
44	0xc020645b	-2.5061252
45	0xbf883cc6	-1.0643547
46	0xbfde297a	-1.7356408
47	0x3fabc29e	1.3418767
48	0xbf59a222	-0.8501302
49	0xbf085802	-0.5325929
50	0x3e189d6e	0.14903805
51	0x3f46e235	0.77688915
52	0xbf0e0654	-0.55478406
53	0xbfb785b9	-1.4337684
54	0xc07a331a	-3.909369
55	0x3d50160e	0.050802283
56	0xbfa31fd8	-1.2744093
57	0x3832288d	4.2476273e-05
58	0x405c4d24	3.4422083
59	0x3dde8c6d	0.10866628
60	0x3df650e7	0.1202715
61	0xbf4dd4a1	-0.8040257
62	0x3f8ef44f	1.1168307
63	0x3f3ebce1	0.74506956

eventConv1.batchNorm.gamma f4 [8]
0	0xbd8469d3	-0.06465497
1	0x3f961a2b	1.1726736
2	0x4010a1c5	2.2598736
3	0x403b5bda	2.9274812
4	0x3fa24fa5	1.2680556
5	0x408498ec	4.143667
6	0x403abdaa	2.9178262
7	0x409c391f	4.881973

eventConv1.batchNorm.bias f4 [8]
0	0xbfa2b4f7	-1.2711476
1	0xbf17965d	-0.5921381
2	0x409e834e	4.9535284
3	0x3db40b89	0.08791263
4	0xbf290efc	-0.6603849
5	0x3fcf9cd2	1.6219733
6	0x3e8de2b9	0.27712038
7	0xbef0311a	-0.46912462

eventConv1.batchNorm.m f4 [1, 8, 1]
0	0x40fecb3e	7.96231
1	0xc1f2d8e2	-30.3559
2	0xc2832281	-65.56739
3	0x40f9df88	7.8085365
4	0xc1ebfd8a	-29.498798
5	0xc12d4e51	-10.83162
6	0xc2782ea1	-62.045536
7	0x41ddc961	27.72333

eventConv1.batchNorm.s f4 [1, 8, 1]
0	0x41c56acb	24.677145
1	0x414e3459	12.88778
2	0x41d1a35c	26.204765
3	0x41919816	18.19926
4	0x419bd31e	19.478085
5	0x41e37ad7	28.43498
6	0x42002b61	32.042362
7	0x41be75b6	23.807476

eventConv2.module.weight f4 [8, 8, 1]
0	0xc005deaa	-2.0917153
1	0x3f54c3fe	0.8311156
2	0x3f7eb89b	0.99500436
3	0xbf932ce1	-1.1498071
4	0x3f0e4361	0.5557156
5	0x3fa7ac9e	1.3099554
6	0x3ee4bcc4	0.44675267
7	0x3efbe2a3	0.49196348
8	0x3f12aa6f	0.5729131
9	0xbf1f4437	-0.6221346
10	0x3e629862	0.22128442
11	0x3ed2b293	0.41151866
12	0x3d764ba7	0.06013074
13	0xbecb8125	-0.39746967
14	0xbd2b942b	-0.04188935
15	0xbe9dcd51	-0.30820706
16	0xbd5c6434	-0.0538065
17	0x3f94a38c	1.161241
18	0x400a3d55	2.1599934
19	0x3ec90955	0.39264932
20	0x3dec33db	0.11533328
21	0x3e9a7296	0.30165547
22	0xbd0bbaff	-0.03411388
23	0x3da076df	0.07835173
24	0x3f48ed31	0.78486925
25	0xbf08cb0e	-0.53434837
26	0x3fa1466e	1.2599618
27	0x3eae718b	0.34071
28	0xbe673f2f	-0.22582696
29	0x3df5957c	0.119914025
30	0xbf701fac	-0.9379833
31	0xbd7c395e	-0.061578147
32	0xbe25a3a1	-0.161757
33	0x3f8cd08f	1.1001147
34	0x3fead41d	1.8345982
35	0x3eb53880	0.3539467
36	0xbf4fd725	-0.8118766
37	0x3f94d1e9	1.162656
38	0x3e4f0b88	0.20219243
39	0x3ed9ff4b	0.42577586
40	0xbec2a4a8	-0.38016248
41	0xbe45c1c2	-0.19312194
42	0xbe915cb4	-0.2839104
43	0xbf98523d	-1.1900097
44	0x3eec8f13	0.46202907
45	0x3fa20050	1.2656345
46	0x3f69d6c4	0.9134333
47	0x3e13662c	0.14394444
48	0xbf9207aa	-1.1408589
49	0x3f926159	1.1435958
50	0x3e70f0ff	0.23529433
51	0xbee4773f	-0.44622228
52	0x3ed9fab7	0.42574093
53	0x3e08c7d1	0.13357474
54	0x3fbc683d	1.4719311
55	0xbf9fa6e2	-1.2472804
56	0x3e131e5f	0.14367054
57	0xbf749678	-0.955421
58	0x3e44d9d1	0.19223715
59	0x3f4228c4	0.75843453
60	0xbf74422f	-0.9541349
61	0x3f43aada	0.76432574
62	0x3e755b7c	0.2396068
63	0x4010ee98	2.2645626

eventConv2.module.bias f4 [8]
0	0x3f07369e	0.52817714
1	0xbecbdc42	-0.3981648
2	0x40efa819	7.4892697
3	0x3ff74150	1.9316807
4	0x40e3f685	7.1238427
5	0x3fdf4603	1.7443241
6	0x3f615707	0.8802342
7	0x3f230be6	0.6369003

select_q.module.weight f4 [1, 8, 1]
0	0xbc7ffb8b	-0.015623937
1	0xbed54ee1	-0.41661742
2	0xbf3ccd23	-0.73750514
3	0x402cbbc7	2.698961
4	0x3f5b6fb3	0.85717314
5	0x3fdd5f57	1.729472
6	0x3f7bee50	0.9841051
7	0xbf574058	-0.84082556

out.module.weight f4 [4, 8, 1]
0	0x3f838908	1.0276194
1	0x3f5aaf40	0.8542366
2	0x3e9d2120	0.30689335
3	0xbf2f71e4	-0.6853316
4	0xbedbc37b	-0.42922577
5	0x3fca9129	1.5825549
6	0x3f9e61c1	1.2373582
7	0xc029d53b	-2.6536396
8	0xbff93114	-1.9468102
9	0xbea3f8f4	-0.32025874
10	0xbe2ba957	-0.16763817
11	0x40017b7f	2.0231626
12	0x3e1b84a8	0.15187323
13	0xbfb403f0	-1.4063702
14	0xbfa424d8	-1.2823744
15	0xbfd62025	-1.672856
16	0x3e7ee4f5	0.24892028
17	0x3ddbffc5	0.107421435
18	0x3f667272	0.9001838
19	0xbf770e0a	-0.96505797
20	0xc0880862	-4.2510233
21	0xbf5d24f7	-0.8638453
22	0xbf926d5b	-1.1439623
23	0x3d8b9ef7	0.068174295
24	0xbefdb32c	-0.4955076
25	0x3c212dc2	0.00983757
26	0xc01618f7	-2.3452737
27	0x3f863332	1.0484374
28	0xc022b8c6	-2.5425277
29	0x3fc1c7f9	1.5139152
30	0xbf71ca6a	-0.94449484
31	0x3ec54d1a	0.38535386

out.batchNorm.gamma f4 [4]
0	0x3f941fe2	1.157223
1	0x3f6ab1f9	0.91677815
2	0x3fe0485d	1.7522084
3	0x3fb9f5b9	1.4528114

out.batchNorm.bias f4 [4]
0	0x3f0501ac	0.51955676
1	0x3f6a61d5	0.9155553
2	0xc0186e1e	-2.381721
3	0x3fb0eb76	1.3821857

out.batchNorm.m f4 [1, 4, 1]
0	0xc20eacd3	-35.668774
1	0xc3b8fcaa	-369.97394
2	0xc3aba2d4	-343.2721
3	0xc35b32c7	-219.19835

out.batchNorm.s f4 [1, 4, 1]
0	0x42eecdd7	119.40203
1	0x4296b5b8	75.35492
2	0x42d7387c	107.61032
3	0x42d62407	107.070366

exp_avg f4 [8, 4, 1]
0	0x387d8693	6.0445233e-05
1	0x38e5973b	0.0001094774
2	0xb85e8f4c	-5.306238e-05
3	0xb91d6478	-0.00015010114
4	0x38e0e5e2	0.00010723971
5	0xb8efe509	-0.00011439069
6	0xb817188b	-3.6024063e-05
7	0x37f22b88	2.8868919e-05
8	0x389025ef	6.873521e-05
9	0x38831fff	6.2525265e-05
10	0x38a7f72f	8.009222e-05
11	0xb8ab6ec3	-8.1745464e-05
12	0xb93919d4	-0.00017652597
13	0x38c28c15	9.276733e-05
14	0x381daf3f	3.7594928e-05
15	0xb8abef4b	-8.198487e-05
16	0x38988892	7.273363e-05
17	0xb78f3c4f	-1.7075012e-05
18	0x37866341	1.6020264e-05
19	0x38139cd4	3.519359e-05
20	0xb7c03e73	-2.2917264e-05
21	0xb7c71184	-2.3730805e-05
22	0x37575d2b	1.2836691e-05
23	0x37ff7bd0	3.0456024e-05
24	0xb86c62e1	-5.6358873e-05
25	0x3775dad2	1.4654086e-05
26	0xb7a79d3d	-1.9981171e-05
27	0xb8a91f87	-8.0644204e-05
28	0x39c2737c	0.00037088606
29	0x3960cf71	0.00021439583
30	0xb7b7127f	-2.1823913e-05
31	0x39098693	0.00013115471

exp_avg_sq f4 [8, 4, 1]
0	0x361979e7	2.2869733e-06
1	0x346ea898	2.2226811e-07
2	0x3414f6ce	1.3873361e-07
3	0x360facf7	2.140934e-06
4	0x36093701	2.0446607e-06
5	0x35433106	7.27145e-07
6	0x34a9f448	3.165644e-07
7	0x36328138	2.6599282e-06
8	0x34d1a008	3.9045722e-07
9	0x34f1cad1	4.5037316e-07
10	0x33e082c7	1.0454601e-07
11	0x350b39da	5.186572e-07
12	0x358bb773	1.0409698e-06
13	0x3494bbd5	2.7703814e-07
14	0x339094fc	6.7326226e-08
15	0x3547ff98	7.4505215e-07
16	0x34124301	1.3621685e-07
17	0x32c54279	2.2964047e-08
18	0x320077e4	7.477841e-09
19	0x34756c77	2.2856862e-07
20	0x34a13da5	3.003344e-07
21	0x343fe91a	1.7873063e-07
22	0x330b533f	3.243917e-08
23	0x3443c9f8	1.8234266e-07
24	0x3502e69c	4.8764355e-07
25	0x34503627	1.939121e-07
26	0x33f173b3	1.12434826e-07
27	0x34fc0ada	4.6946553e-07
28	0x3670a159	3.5856704e-06
29	0x3592fae7	1.095087e-06
30	0x34e71499	4.304209e-07
31	0x36b8377c	5.4900866e-06

exp_avg f4 [8]
0	0xb8fecfef	-0.000121503945
1	0xb9a0ce9c	-0.00030671514
2	0xb91ddaca	-0.00015054192
3	0x37a37197	1.9484009e-05
4	0x388b3d46	6.6394496e-05
5	0xb5ae527d	-1.2988017e-06
6	0x38ecc383	0.00011289774
7	0xb936d56e	-0.00017436381

exp_avg_sq f4 [8]
0	0x351b1d6d	5.778482e-07
1	0x362ffca7	2.6224095e-06
2	0x3491258e	2.703568e-07
3	0x34aee984	3.257993e-07
4	0x33c7d04e	9.30455e-08
5	0x349d2b2b	2.9274938e-07
6	0x34c2728a	3.6218654e-07
7	0x3641e057	2.8889824e-06

exp_avg f4 [2]
0	0xb96b96e4	-0.00022467558
1	0x38e7341f	0.00011024647

exp_avg_sq f4 [2]
0	0x368ad542	4.137547e-06
1	0x378e72a6	1.6981106e-05

exp_avg f4 [2]
0	0x3976f1fb	0.00023550533
1	0x38887521	6.506802e-05

exp_avg_sq f4 [2]
0	0x37eb0c95	2.8020042e-05
1	0x3703b045	7.849249e-06

exp_avg f4 [8, 2, 1]
0	0x393fcdea	0.00018291888
1	0x38192627	3.6513575e-05
2	0x39ca1f7b	0.00038551897
3	0x38945851	7.07364e-05
4	0x38ccaaf7	9.759323e-05
5	0x37075550	8.06649e-06
6	0xb6177f9f	-2.2575039e-06
7	0xb9174c88	-0.00014428992
8	0xb981a2df	-0.00024726146
9	0xb96965fa	-0.00022258601
10	0x38f43799	0.000116451825
11	0xb8bdf0c9	-9.057072e-05
12	0x387b0b58	5.9853628e-05
13	0x37827559	1.5551852e-05
14	0xb77155eb	-1.4384724e-05
15	0x38551a9a	5.0807932e-05

exp_avg_sq f4 [8, 2, 1]
0	0x35d2efb5	1.5715983e-06
1	0x34e39de6	4.239693e-07
2	0x35f6bdcb	1.8383665e-06
3	0x34f5d419	4.5789128e-07
4	0x34945e78	2.7635883e-07
5	0x352a3deb	6.342004e-07
6	0x361b625c	2.3154053e-06
7	0x35a994dd	1.2634806e-06
8	0x370dcae2	8.451492e-06
9	0x3645dc26	2.948343e-06
10	0x359f8b9c	1.1887055e-06
11	0x35d637bd	1.5960464e-06
12	0x346e0cf3	2.2170188e-07
13	0x339dd06f	7.348796e-08
14	0x354b03de	7.562902e-07
15	0x348333c9	2.443833e-07

exp_avg f4 [8]
0	0x39096a98	0.00013105047
1	0x386feb50	5.7201192e-05
2	0xb708117c	-8.110303e-06
3	0x38943e28	7.0687674e-05
4	0x39a03a86	0.00030561181
5	0xb94af46e	-0.00019355278
6	0xb8d6ae52	-0.00010236785
7	0x38842259	6.300648e-05

exp_avg_sq f4 [8]
0	0x359ad12e	1.1534773e-06
1	0x348ce0d4	2.6240616e-07
2	0x3482a97f	2.4337712e-07
3	0x3527b9a5	6.2482496e-07
4	0x36bf182c	5.6950576e-06
5	0x35dfbb99	1.6669393e-06
6	0x348e6a8d	2.6527087e-07
7	0x35346e93	6.721613e-07

exp_avg f4 [8, 8, 3]
0	0x3842efbe	4.647648e-05
1	0x37596245	1.2957088e-05
2	0x37833e49	1.564542e-05
3	0x36fa9f84	7.4691507e-06
4	0x370b792b	8.313257e-06
5	0xb79c1f13	-1.861112e-05
6	0x36b974ad	5.5270125e-06
7	0x3551e4df	7.819162e-07
8	0xb723202b	-9.723047e-06
9	0xb6849252	-3.9509405e-06
10	0x371390c5	8.79559e-06
11	0xb71f9372	-9.511468e-06
12	0x3782af7a	1.557892e-05
13	0xb57c7f25	-9.4062335e-07
14	0xb599b60e	-1.1452373e-06
15	0xb6c40885	-5.842247e-06
16	0xb75685a3	-1.2786509e-05
17	0xb7387ac8	-1.0995842e-05
18	0xb58eae45	-1.0630544e-06
19	0xb767c018	-1.3813398e-05
20	0x36f58317	7.31683e-06
21	0x373ad39f	1.1135736e-05
22	0xb6035e1d	-1.9575302e-06
23	0xb78dad82	-1.6889306e-05
24	0x375ff217	1.3348202e-05
25	0x371d68df	9.382346e-06
26	0x36b9b60a	5.534622e-06
27	0xb589ea86	-1.0275551e-06
28	0x370ace4f	8.273476e-06
29	0x35ca1b6b	1.5058152e-06
30	0x36e08658	6.69136e-06
31	0x36b8f6b1	5.512346e-06
32	0x3710dd1c	8.63455e-06
33	0x368cd079	4.1965945e-06
34	0x3795d497	1.7861179e-05
35	0x3691d8ad	4.346561e-06
36	0x372e23c0	1.0379532e-05
37	0xb525c19e	-6.174904e-07
38	0x36a0a72a	4.787832e-06
39	0x3495b4f2	2.7885068e-07
40	0x35b02e7f	1.3126554e-06
41	0xb6aa6e72	-5.0792523e-06
42	0x36044d9b	1.9714705e-06
43	0xb5d2a046	-1.5692865e-06
44	0x366d8a93	3.5396413e-06
45	0x374d338f	1.2230957e-05
46	0xb486cb39	-2.510731e-07
47	0x367502bc	3.6509437e-06
48	0xb827dfa3	-4.002418e-05
49	0x3712bc60	8.746138e-06
50	0xb778320c	-1.4793604e-05
51	0xb81e8790	-3.7796388e-05
52	0xb7aec5b6	-2.0834483e-05
53	0x378eb004	1.7009683e-05
54	0xb7c5e1da	-2.35894e-05
55	0xb7c836c0	-2.3867353e-05
56	0xb8378dd5	-4.376269e-05
57	0xb7b61607	-2.1706348e-05
58	0xb863d40e	-5.431851e-05
59	0xb81312d4	-3.5065066e-05
60	0xb7b703a6	-2.1816999e-05
61	0xb562a781	-8.443531e-07
62	0xb7ee1a40	-2.8384035e-05
63	0xb78e0089	-1.6927968e-05
64	0xb78a9a26	-1.6522663e-05
65	0xb935aed4	-0.00017326634
66	0xb78640f2	-1.6004287e-05
67	0xb773f21d	-1.45403e-05
68	0xb6846ec4	-3.9468014e-06
69	0xb83f7ec0	-4.5655994e-05
70	0x3706f467	8.043927e-06
71	0x37e441e5	2.7210403e-05
72	0xb64473ad	-2.9273608e-06
73	0xb6890f11	-4.084672e-06
74	0x361d7cf5	2.3467558e-06
75	0xb6c443ca	-5.849147e-06
76	0x3594b097	1.1078254e-06
77	0xb53c73ea	-7.0204135e-07
78	0x35bc5063	1.4030487e-06
79	0xb66103e0	-3.3529868e-06
80	0xb73c1e0e	-1.1212671e-05
81	0x36954fb2	4.449824e-06
82	0xb26691c9	-1.342091e-08
83	0xb70fce2d	-8.571468e-06
84	0xb5e2df32	-1.690327e-06
85	0x33cca0dd	9.528751e-08
86	0xb6b4a023	-5.3830604e-06
87	0x340472e2	1.2335252e-07
88	0x3692457a	4.359227e-06
89	0xb793a23b	-1.759931e-05
90	0xb614ca7b	-2.2171578e-06
91	0x355d00d6	8.233013e-07
92	0x359cb953	1.1676842e-06
93	0xb73adbad	-1.1137611e-05
94	0xb6607b81	-3.345049e-06
95	0xb60e1490	-2.1171618e-06
96	0xb7e732f7	-2.7561078e-05
97	0x374cf9f5	1.2217545e-05
98	0x3796d988	1.798269e-05
99	0x36060f26	1.9976374e-06
100	0x36fc3bdb	7.5171533e-06
101	0xb791014e	-1.7285955e-05
102	0xb7f8582a	-2.9604958e-05
103	0xb7e4db85	-2.728194e-05
104	0xb81653ef	-3.5840956e-05
105	0xb59139ba	-1.0820143e-06
106	0xb7d19d15	-2.4987889e-05
107	0xb8250f81	-3.9353505e-05
108	0xb7023ebc	-7.76321e-06
109	0x359c328b	1.1637616e-06
110	0xb5d34ee4	-1.5743685e-06
111	0xb7719af3	-1.4400796e-05
112	0xb710e36e	-8.636021e-06
113	0x376d40ed	1.41414175e-05
114	0xb796ce0c	-1.7977341e-05
115	0xb7a4f926	-1.9666342e-05
116	0x371789e9	9.032411e-06
117	0xb83d1160	-4.5077293e-05
118	0xb680d1fd	-3.839143e-06
119	0xb79346b0	-1.7556682e-05
120	0xb7de2ddc	-2.6485817e-05
121	0x3674e9f4	3.6495012e-06
122	0xb781821e	-1.5438589e-05
123	0xb784e3ee	-1.5841764e-05
124	0x368ba7c6	4.162054e-06
125	0x37d75992	2.5671707e-05
126	0x3785c30e	1.5945665e-05
127	0x377330ec	1.4495319e-05
128	0x3811a4af	3.4724068e-05
129	0x36c5b338	5.8919213e-06
130	0x381d128f	3.7449e-05
131	0x37ef0b50	2.8496288e-05
132	0xb423d837	-1.5259216e-07
133	0x34cb52ae	3.7871854e-07
134	0x377ac1ad	1.4946255e-05
135	0x3725fa43	9.893035e-06
136	0x36d869fb	6.4496394e-06
137	0xb7650bf2	-1.3652245e-05
138	0x378d385e	1.6834758e-05
139	0xb5e0578f	-1.6714783e-06
140	0xb6fe6867	-7.581944e-06
141	0x37bad6be	2.2272925e-05
142	0xb7055a20	-7.948402e-06
143	0x37bd47c3	2.2563972e-05
144	0x37c09826	2.2959033e-05
145	0x373e56f9	1.1345132e-05
146	0xb7e7be03	-2.7625827e-05
147	0x3733a403	1.0707418e-05
148	0x37e9d236	2.7873652e-05
149	0x38710951	5.7467554e-05
150	0x36580c7f	3.2193782e-06
151	0xb72e57ef	-1.0391682e-05
152	0xb82d3361	-4.1294265e-05
153	0x378707e4	1.6096928e-05
154	0xb63eee80	-2.8451032e-06
155	0xb79a5635	-1.8398374e-05
156	0xb3a82a3a	-7.8307906e-08
157	0xb6517c0f	-3.1215639e-06
158	0xb7d1b798	-2.5000234e-05
159	0xb6721726	-3.6074284e-06
160	0xb7d38f9c	-2.5220033e-05
161	0xb98e2aeb	-0.00027116327
162	0x3744a503	1.172093e-05
163	0xb739850e	-1.10578385e-05
164	0xb7559df0	-1.2732562e-05
165	0xb632e11d	-2.66551e-06
166	0x36e4b035	6.8154427e-06
167	0x385375a7	5.0415892e-05
168	0xb8113cb1	-3.4627217e-05
169	0x373dd92e	1.1315844e-05
170	0xb74dcce6	-1.2266659e-05
171	0xb7fd1b0c	-3.0172545e-05
172	0x376ace94	1.3995585e-05
173	0x371f7286	9.503803e-06
174	0x375d9268	1.3206714e-05
175	0x351fefcf	5.9581083e-07
176	0x371b7c61	9.267679e-06
177	0xb78935b9	-1.635669e-05
178	0xb6f88a05	-7.4070435e-06
179	0x37c3d1b8	2.334347e-05
180	0xb2ebd552	-2.7454607e-08
181	0x3529133d	6.29854e-07
182	0xb6ead33a	-6.9983334e-06
183	0x36b3d448	5.3593285e-06
184	0xb74743d9	-1.1877121e-05
185	0xb890ba7c	-6.9011905e-05
186	0x37044249	7.883246e-06
187	0xb71ff802	-9.534882e-06
188	0xb6ec3da2	-7.040523e-06
189	0x37675bc7	1.37900415e-05
190	0x3778fc7d	1.4840739e-05
191	0x370eed5c	8.519124e-06
