nTupleAnalysis/pytorchModels/SvB_ResNet_8_8_8_np1391_lr0.008_epochs40_stdscale_epoch38_loss0.1515.pkl (torch_old, 53954 bytes, 137 tensors)

canJetScaler.m f4 [1, 4, 1]
0	0x00000000	0.0
1	0x00000000	0.0
2	0x00000000	0.0
3	0x00000000	0.0

canJetScaler.s f4 [1, 4, 1]
0	0x3f800000	1.0
1	0x3f800000	1.0
2	0x40490fdb	3.1415927
3	0x3f800000	1.0

dijetScaler.m f4 [1, 2, 1]
0	0x00000000	0.0
1	0x00000000	0.0

dijetScaler.s f4 [1, 2, 1]
0	0x3f800000	1.0
1	0x3f800000	1.0

quadjetScaler.m f4 [1, 6, 1]
0	0x00000000	0.0
1	0x00000000	0.0
2	0x00000000	0.0
3	0x00000000	0.0
4	0x00000000	0.0
5	0x00000000	0.0

quadjetScaler.s f4 [1, 6, 1]
0	0x3f800000	1.0
1	0x3f800000	1.0
2	0x3f800000	1.0
3	0x3f800000	1.0
4	0x3f800000	1.0
5	0x3f800000	1.0

jetEmbed.module.weight f4 [8, 4, 1]
0	0x3f179ea0	0.5922642
1	0xc0060a79	-2.0943892
2	0x3e6b97aa	0.23007074
3	0x3ef2ff73	0.47460517
4	0xbf500485	-0.81256896
5	0x3fe7994d	1.8093659
6	0xbf142b59	-0.57878643
7	0xbf23f358	-0.6404319
8	0x3fbe9232	1.4888365
9	0x3f9d8463	1.2306026
10	0xbdff8bd3	-0.12477841
11	0xbe351d12	-0.1768687
12	0xbe831ab9	-0.25606325
13	0xc0070678	-2.1097698
14	0xbca81404	-0.020517357
15	0xbf16d97f	-0.5892562
16	0xbd7a4636	-0.061102115
17	0x3fa03cb9	1.2518531
18	0xbe91ce7e	-0.28477854
19	0xbf267dac	-0.6503551
20	0xbf54d8c5	-0.83143264
21	0xbe96deed	-0.29466954
22	0x3e5668c2	0.209384
23	0xbfacc34c	-1.34971
24	0xbfb66f2b	-1.4252676
25	0xbf0afe1b	-0.54293984
26	0x3c344ad6	0.01100417
27	0x3ec87430	0.39151144
28	0xbfaf3b6a	-1.3690007
29	0x3f02904d	0.51001436
30	0xbea57694	-0.3231703
31	0x3fe54a96	1.7913387

jetEmbed.module.bias f4 [8]
0	0xbf2302e8	-0.6367631
1	0x3d9dba16	0.07701509
2	0xbf7e9666	-0.9944824
3	0x3f122176	0.5708231
4	0xc02d4460	-2.7072983
5	0xbee0e303	-0.43923196
6	0x3eab1ddf	0.33421227
7	0xbe2381f7	-0.15967546

dijetGBN.gamma f4 [2]
0	0x400e38d8	2.2222195
1	0x3efff974	0.49995005

dijetGBN.bias f4 [2]
0	0x3ef9aadc	0.48763168
1	0x3f076734	0.5289185

dijetGBN.m f4 [1, 2, 1]
0	0x4335f209	181.94545
1	0x400a020e	2.1563754

dijetGBN.s f4 [1, 2, 1]
0	0x42d7c5c5	107.88627
1	0x3f710ed2	0.9416324

dijetEmbed1.module.weight f4 [8, 2, 1]
0	0xbecf6e89	-0.4051402
1	0xbfb5e73c	-1.4211192
2	0x3eeef521	0.46671394
3	0x3f1fdb58	0.62444067
4	0xbe2b9f5a	-0.16760007
5	0x3fc6e6ca	1.5539181
6	0xbebdbb66	-0.37057036
7	0x3eed5800	0.463562
8	0xbfc5aa78	-1.5442648
9	0x3f505072	0.8137275
10	0xc09cd58f	-4.901069
11	0xbfb7aae5	-1.4349028
12	0xbddf324d	-0.10898266
13	0xbf2ed155	-0.68288165
14	0x3b38703a	0.0028143064
15	0x3ecfcf13	0.40587673

dijetEmbed1.module.bias f4 [8]
0	0x3dea9845	0.11454824
1	0xbf755dad	-0.9584606
2	0x3fabdd68	1.3426943
3	0x3e3a6cfd	0.18205638
4	0x3fdc07d0	1.7189884
5	0x3fc5fe72	1.5468276
6	0x3e0e5408	0.13899243
7	0x40252943	2.5806434

dijetResNetBlock.reinforce1.conv.module.weight f4 [8, 8, 3]
0	0xbf9a727c	-1.2066188
1	0xbec65a10	-0.38740587
2	0xbf755788	-0.9583669
3	0x3ef58194	0.47950423
4	0x3f9c428a	1.2207806
5	0xbf98ce11	-1.1937886
6	0x3f16e8a9	0.5894876
7	0x3ed427bd	0.41436568
8	0xbfce861f	-1.613468
9	0x3ec5a553	0.38602695
10	0x3fcd45da	1.6036942
11	0x3ea0ff90	0.3144498
12	0x3f1387b4	0.5762894
13	0x3ffeb458	1.9898787
14	0xbfc2d4b9	-1.5221168
15	0xbdd23414	-0.10263839
16	0x3f766cb2	0.96259606
17	0xc00d49ff	-2.2076414
18	0xbe9c078f	-0.30474517
19	0xbfc7b87c	-1.5603175
20	0x3f4db05b	0.8034722
21	0xc02bb0f6	-2.6826758
22	0xc0c5add3	-6.177469
23	0xbf202492	-0.625558
24	0xbf0d1c51	-0.5512133
25	0xc02f5048	-2.739275
26	0x3df90fdf	0.1216123
27	0xbf134e96	-0.5754179
28	0xbee2f04d	-0.4432396
29	0xbcf4cd29	-0.029882984
30	0x3d1978e7	0.037468817
31	0xbfae71da	-1.3628495
32	0x3e46d489	0.19417013
33	0x401b45dd	2.426139
34	0xc0052ea1	-2.080971
35	0xbe83a57e	-0.25712198
36	0xbde42482	-0.11139776
37	0x3f629b37	0.8851809
38	0xbfd382b9	-1.6524268
39	0x3fc18659	1.5119125
40	0xbf6fd6be	-0.93687046
41	0xbfeeb85a	-1.865001
42	0x3e55e561	0.20888282
43	0xc04aaf3d	-3.1669457
44	0xbf1c42c9	-0.61039406
45	0xc01f2449	-2.4865897
46	0xc0aacca7	-5.337482
47	0x3f1b5260	0.6067257
48	0xc0273d76	-2.6131263
49	0xbfe85cde	-1.8153341
50	0xbfa98dfa	-1.3246453
51	0xbfdfc1d7	-1.748103
52	0x3f1e8d29	0.61934143
53	0xbf7157d0	-0.94274616
54	0xc080baa3	-4.022783
55	0xbf8e8bd3	-1.1136421
56	0xbf0cecb2	-0.5504867
57	0xbf1b2fde	-0.60619915
58	0x3d8bfe9a	0.06835671
59	0xbecf55f2	-0.4049526
60	0xbe81fc1d	-0.2538766
61	0x3d53bf38	0.051696032
62	0xbffeff61	-1.9921685
63	0x3f151d9b	0.582483
64	0x3f8417d5	1.0319773
65	0xc02d78a4	-2.7104883
66	0xbe74efc2	-0.23919585
67	0x3ee8bc62	0.45456225
68	0x3d5f4845	0.05451228
69	0xbf9263fe	-1.1436765
70	0xc07d8579	-3.9612715
71	0x3f251d67	0.6449799
72	0x3f3f9ab1	0.74845415
73	0x3f956a6d	1.1673104
74	0x3f19a1f2	0.60012734
75	0xbf80298a	-1.0012677
76	0x3f5b043f	0.85553354
77	0x3f1e8810	0.61926365
78	0x3f16ae4b	0.588597
79	0xbea08df4	-0.31358302
80	0x4023242c	2.5490828
81	0xbfadfd48	-1.359292
82	0xbf997e04	-1.1991582
83	0x40436355	3.0529377
84	0x3dfb2575	0.12263004
85	0x3e147a10	0.14499688
86	0x4082acdf	4.0836024
87	0xbf8bdd40	-1.0926895
88	0xbfe4b1be	-1.7866743
89	0x40b2fc7b	5.5933204
90	0xbfea2682	-1.8293002
91	0x3ec811fb	0.39076218
92	0xbf298309	-0.6621557
93	0xbf89adec	-1.0756202
94	0x3e8c7578	0.27433372
95	0x3f94504d	1.1587006
96	0xbf2b17b1	-0.66833025
97	0xbf83acf8	-1.0287161
98	0xbf6129e9	-0.87954575
99	0xbe96e833	-0.2947403
100	0x3ef2e474	0.4743992
101	0xbf1ce835	-0.6129182
102	0xbfd3b205	-1.6538702
103	0x3dab8da8	0.08376628
104	0x3f69f18f	0.91384214
105	0x3fe6fbbf	1.8045577
106	0x3f0c4053	0.5478565
107	0x3e7f2b90	0.24918962
108	0x3e65dd7d	0.22447772
109	0xbf9835f2	-1.1891463
110	0xbfa9ad51	-1.3256017
111	0x4012b01f	2.2919996
112	0x3f4650c2	0.77466977
113	0xc05324b5	-3.2991154
114	0x4029f31c	2.6554632
115	0x3f7f060e	0.99618614
116	0xc039f6b7	-2.9056833
117	0x3f6f2c64	0.9342711
118	0x402be25c	2.6856909
119	0x3ebea2fe	0.37233728
120	0xbf6589d1	-0.89663416
121	0xbfb10553	-1.382975
122	0x3f9c63b9	1.2217933
123	0x3fa4f3a0	1.2886848
124	0xbfc50a42	-1.5393755
125	0xbe11a5b7	-0.14223371
126	0xbe3e7ae1	-0.18601562
127	0xbed2efa6	-0.41198462
128	0xc02a3a92	-2.6598248
129	0x3ee82455	0.4534022
130	0x3f5ce1e1	0.86282164
131	0xc059ecbb	-3.405074
132	0x3f5d1ec1	0.8637505
133	0xbed87be7	-0.4228203
134	0xc05c93ba	-3.4465165
135	0x4035cc5d	2.8405983
136	0x3fd5f0a5	1.6714064
137	0xc0518574	-3.2737703
138	0x402c47e3	2.6918876
139	0xbe0f33d3	-0.13984613
140	0x3f9b0827	1.2111863
141	0x3fa4c40f	1.2872332
142	0xbec190dc	-0.3780583
143	0x3d0dc0ef	0.034607824
144	0x4042496b	3.035731
145	0xc0532a65	-3.2994626
146	0x3ec1e327	0.37868616
147	0xc0086562	-2.131188
148	0x400a64f9	2.162413
149	0xbf9bad13	-1.2162193
150	0xbf92e684	-1.1476598
151	0xbf9f7ee2	-1.2460597
152	0xbf54e684	-0.8316424
153	0x40461550	3.0950508
154	0xc0763032	-3.8466916
155	0x3e279931	0.16367032
156	0x405be418	3.4357967
157	0xc017869c	-2.367591
158	0xbfa7ab3e	-1.3099134
159	0x3f746015	0.9545911
160	0x3ed6db7e	0.41964334
161	0x3e59b9df	0.2126231
162	0x3fc3d567	1.52995
163	0xbebff265	-0.3748962
164	0xc0012ee9	-2.0184882
165	0x3ea7d49b	0.32779393
166	0x3fc6f197	1.5542477
167	0xbf635a4f	-0.88809675
168	0xbf21cb19	-0.6320053
169	0xbd86c8d2	-0.06581272
170	0xbff2a6bf	-1.8957137
171	0x3e8fd052	0.28088623
172	0xbf8b02b2	-1.0860198
173	0xbfcd64bb	-1.6046365
174	0x3f8f1379	1.1177818
175	0x3ed2580f	0.41082808
176	0xbfb4e3e0	-1.4132042
177	0xbf096086	-0.5366291
178	0x3cc0787c	0.023494951
179	0xc085ddfa	-4.1833467
180	0x3ff39fa4	1.9033093
181	0x3fb11f26	1.3837631
182	0xc0a14579	-5.0397305
183	0xbd9be4f7	-0.07612031
184	0x3fc21f0f	1.5165728
185	0xc0b2d153	-5.5880523
186	0x3f2a83e0	0.66607475
187	0xbf24ef9f	-0.6442813
188	0x3d256e21	0.04038823
189	0xbf0f0b78	-0.55876875
190	0x3f5a37c7	0.8524136
191	0xc00668f0	-2.1001549

dijetResNetBlock.reinforce1.conv.batchNorm.gamma f4 [8]
0	0x40321a5e	2.7828593
1	0x3feec046	1.8652427
2	0x401bbc08	2.4333515
3	0x4065c101	3.589905
4	0x4054bbd9	3.3239653
5	0x4086ccf8	4.2125206
6	0x401a96d2	2.4154553
7	0x404a43d4	3.16039

dijetResNetBlock.reinforce1.conv.batchNorm.bias f4 [8]
0	0x3eec0658	0.4609859
1	0x3fd1dcd9	1.6395522
2	0xbf840968	-1.031537
3	0xbfeef3bc	-1.8668132
4	0x3ea6ab07	0.32552359
5	0xbff64ab5	-1.9241549
6	0xbf1f0a61	-0.6212521
7	0x3fcb01ea	1.5859959

dijetResNetBlock.reinforce1.conv.batchNorm.m f4 [1, 8, 1]
0	0xc16436b2	-14.263353
1	0xc1464119	-12.390893
2	0xc15f6f04	-13.964603
3	0x41fff8ea	31.99654
4	0xc0d2e3ba	-6.5902987
5	0xc1aad004	-21.35157
6	0xc0a6937b	-5.205503
7	0xc219da3a	-38.46311

dijetResNetBlock.reinforce1.conv.batchNorm.s f4 [1, 8, 1]
0	0x41245194	10.269917
1	0x4135f941	11.373353
2	0x4160b053	14.043048
3	0x41d44e73	26.538305
4	0x417bd704	15.739994
5	0x418124da	16.142994
6	0x4109c9de	8.611784
7	0x41ec8819	29.566454

dijetResNetBlock.convJ.module.weight f4 [8, 8, 1]
0	0xbf0dc512	-0.5537883
1	0x40214316	2.5197196
2	0x4019ea94	2.4049425
3	0xc005e117	-2.0918634
4	0x3f9ef387	1.2418069
5	0xbfd7d77c	-1.6862636
6	0xbfb131cd	-1.3843323
7	0x3f5dbce8	0.86616373
8	0x4005ace2	2.088677
9	0xbf9da4ee	-1.2315958
10	0xbf95020d	-1.1641251
11	0xc07c36bc	-3.9408407
12	0x40331089	2.7978842
13	0xbebd27b5	-0.36944357
14	0x3f9f6dcf	1.2455386
15	0x3e14e86c	0.14541787
16	0xbf2593f1	-0.64678866
17	0x40261c5b	2.5954807
18	0x3ee29222	0.44252115
19	0xc094559e	-4.6354513
20	0x3ee239a8	0.44184613
21	0xbe1b8e38	-0.15190971
22	0x3efde56d	0.495891
23	0x3eb6c06e	0.35693687
24	0xbfa562c1	-1.2920762
25	0xc0008141	-2.007889
26	0x3fd99bcc	1.700067
27	0xc049f69b	-3.1556766
28	0xbf5357f6	-0.8255609
29	0xbf5df62a	-0.8670374
30	0xc01f4798	-2.4887447
31	0x3db88b02	0.09010889
32	0xbf608151	-0.8769732
33	0x3f566812	0.8375255
34	0xc080fab2	-4.0306025
35	0xc03716e4	-2.8607721
36	0xc0a35d79	-5.10516
37	0x3ef6d273	0.48207435
38	0x3fbb5bc0	1.4637375
39	0x3f4709ff	0.7774963
40	0xc050e823	-3.2641685
41	0xbea0ac07	-0.31381246
42	0x3fd59fbf	1.6689376
43	0xbfbc1f8c	-1.4697127
44	0xbee65214	-0.44984496
45	0xc0095be6	-2.146234
46	0xc02f5b34	-2.7399416
47	0xbeedaabf	-0.4641933
48	0xbdeadc29	-0.114677735
49	0x3f832430	1.0245419
50	0x3ef2952c	0.47379434
51	0xbe0f598a	-0.13999
52	0x3fd48b9e	1.6605108
53	0x40952b39	4.661526
54	0x402a325c	2.6593237
55	0x3fde96bb	1.7389749
56	0x3f6c5710	0.92320347
57	0x3ef7732d	0.4833006
58	0x400836ed	2.1283524
59	0xc09a7fd3	-4.8281035
60	0x3f3b9937	0.7328066
61	0x3e532a9e	0.20621726
62	0x4025862a	2.5863137
63	0xbeed89f0	-0.463943

dijetResNetBlock.convJ.batchNorm.gamma f4 [8]
0	0xbe135e01	-0.14391328
1	0x3ee3e217	0.4450843
2	0xbe9dbb1a	-0.3080681
3	0x3f5ec547	0.8701977
4	0x3fe1446a	1.7599003
5	0x3fe83764	1.8141904
6	0x3e98193a	0.29706746
7	0x3ed517a7	0.41619608

dijetResNetBlock.convJ.batchNorm.bias f4 [8]
0	0xbfa07fc2	-1.2538989
1	0x3fd9dc9c	1.702045
2	0x3fa9fcc2	1.328026
3	0xc0056d56	-2.0847983
4	0xbfab3d57	-1.3378094
5	0xbf886128	-1.065465
6	0xbe8027de	-0.25030416
7	0x3f57a3ba	0.842342

dijetResNetBlock.convJ.batchNorm.m f4 [1, 8, 1]
0	0xbfc16ad9	-1.5110732
1	0xc0645398	-3.5676022
2	0xc00d375a	-2.2065034
3	0xc0ad6c9b	-5.4195075
4	0xbebf931d	-0.37416926
5	0xc081220c	-4.035406
6	0x40490d20	3.141426
7	0xc00eb749	-2.2299368

dijetResNetBlock.convJ.batchNorm.s f4 [1, 8, 1]
0	0x40baeac9	5.8411603
1	0x404d2f54	3.2060137
2	0x40e8ffff	7.2812495
3	0x40b19efc	5.5506573
4	0x40a49bf4	5.1440372
5	0x40a298b0	5.0811386
6	0x407b83c2	3.9299169
7	0x40a3d04f	5.1191783

dijetResNetBlock.reinforce2.conv.module.weight f4 [8, 8, 3]
0	0x3f82dec2	1.022423
1	0xbfee2473	-1.8604873
2	0xc0b67198	-5.7013664
3	0xc000b674	-2.011136
4	0x3f57ab82	0.84246075
5	0xc0adf1e0	-5.4357758
6	0xc01484a8	-2.3205967
7	0xc04d0013	-3.2031295
8	0xc08762aa	-4.230794
9	0xbd270811	-0.040779177
10	0xc0088fe7	-2.133783
11	0x3ba64073	0.005073601
12	0x3e8ea97a	0.27863675
13	0xc0366e32	-2.8504758
14	0x3fd4a586	1.6613014
15	0x3e89e535	0.26932684
16	0x3f19b740	0.6004524
17	0xbdd430b8	-0.10360855
18	0x4048e78d	3.1391327
19	0xbe17d5e4	-0.14827687
20	0xc06879ae	-3.6324267
21	0xbfe5873d	-1.7931896
22	0xbf04901c	-0.51782393
23	0xbf033a24	-0.5126059
24	0x3ef30f21	0.4747248
25	0x4022bd3f	2.5428007
26	0xbf380532	-0.7188293
27	0xbefb8d76	-0.49131364
28	0xc048bb0d	-3.1364167
29	0x3f35ab97	0.7096495
30	0x3fd4542b	1.6588186
31	0xbee65fe4	-0.44995034
32	0xbd91de6c	-0.07122502
33	0xbfa00ea4	-1.2504468
34	0x3fc347d5	1.5256296
35	0xbffe650d	-1.9874588
36	0x3fbe9041	1.4887773
37	0x3ce7c53a	0.028292287
38	0x3bffb12c	0.007803103
39	0x403e82b5	2.9767277
40	0x3fa5a889	1.2942058
41	0x3e42a9c9	0.1901008
42	0x3f85c8a6	1.0451858
43	0xbf50807f	-0.8144607
44	0x3f7674af	0.96271795
45	0x3fe88e46	1.8168418
46	0xbe7de77d	-0.24795337
47	0x3fb86ce1	1.4408227
48	0xbf1cf13e	-0.61305606
49	0x3e478375	0.1948374
50	0x402c3cf9	2.6912215
51	0x3de0366c	0.1094788
52	0xbf21a85c	-0.6314752
53	0x3fbd492a	1.4787953
54	0x3d815e32	0.063167945
55	0xbcb8c048	-0.022552624
56	0x3f44cb4d	0.7687271
57	0xbfd3b408	-1.6539316
58	0xbfa1e59b	-1.2648195
59	0xbfa820b1	-1.3134977
60	0xbf40f908	-0.7537999
61	0xbf0fddbe	-0.56197727
62	0xbe29ca30	-0.16581035
63	0xbed37b5a	-0.41305047
64	0xbf3f50ba	-0.74732554
65	0x3f483261	0.7820187
66	0xbdce5516	-0.100748226
67	0x3ecc2a3a	0.39875966
68	0x3c5e0f34	0.013553429
69	0x3ec68426	0.38772696
70	0x3f822bb5	1.0169588
71	0x403fee9b	2.9989383
72	0xbfce93f6	-1.6138904
73	0xc0758e23	-3.8368003
74	0x3ef5ecd5	0.4803225
75	0x40123f56	2.2851157
76	0x4044a212	3.072392
77	0x3e9d394a	0.3070777
78	0x3f0775a0	0.52913857
79	0xbde3e1e3	-0.11127069
80	0xbf3b1984	-0.7308581
81	0x3edb53db	0.42837414
82	0xbf83c674	-1.0294938
83	0x3e44e3ea	0.19227567
84	0xbfc7da31	-1.5613462
85	0xbf98a389	-1.1924907
86	0x3f46bea2	0.7763463
87	0x3d9063fd	0.07050321
88	0xbec05dcb	-0.37571558
89	0xbed9fcf7	-0.4257581
90	0x3febda04	1.8425908
91	0x3f6795d1	0.90462977
92	0xbfeff540	-1.8746719
93	0x3f733d7a	0.9501568
94	0x3f8524bf	1.0401839
95	0x3ea1547e	0.31509775
96	0xbfe31de8	-1.7743502
97	0x3e9abfa4	0.30224335
98	0xbfa1b9fc	-1.2634883
99	0xbf20fe53	-0.6288807
100	0x3ca3032b	0.019898972
101	0x3ec45f7d	0.38354102
102	0x3f540751	0.82823664
103	0x3f6b3dfa	0.91891444
104	0xbf182a93	-0.59439963
105	0x3e2cf621	0.16890766
106	0x3f7f5497	0.9973845
107	0xbf57e5ae	-0.8433484
108	0x3f8bc38d	1.0919052
109	0x3da340e2	0.0797136
110	0xbfcae264	-1.5850339
111	0xbe8feaae	-0.28108734
112	0x401e9d9b	2.4783695
113	0xbf522efd	-0.8210295
114	0xbeeed9a2	-0.46650416
115	0xc0912467	-4.5356936
116	0x3ffbf853	1.9685158
117	0xbed49806	-0.41522235
118	0xc0522d7d	-3.2840264
119	0xbfc151ae	-1.5103052
120	0x3df8865d	0.12135003
121	0x3f0c2f88	0.54760027
122	0xc0312121	-2.767647
123	0xbedf5f7a	-0.4362753
124	0xbf0edbb6	-0.55804
125	0xc017fcfb	-2.3748157
126	0x3e8f85af	0.2803168
127	0x3efd7aee	0.4950785
128	0xc004bb94	-2.0739489
129	0xbf56ffa0	-0.839838
130	0xbeaa649d	-0.33279887
131	0x40673e4e	3.6131778
132	0xbf659615	-0.8968213
133	0xbf751505	-0.957352
134	0x3ff4a482	1.9112704
135	0xbe3831de	-0.17987773
136	0xbf2e9cc9	-0.68207985
137	0xbf765631	-0.9622527
138	0xbeecec15	-0.46273866
139	0xbf546dcd	-0.8298004
140	0x3fdf0632	1.7423766
141	0x3f969fcb	1.1767515
142	0x3f63adc6	0.8893703
143	0xbc276073	-0.010215866
144	0x400abced	2.167781
145	0x3f2499d5	0.6429723
146	0xbf2c1c9a	-0.6723114
147	0xc05d9c42	-3.4626622
148	0xbeac293e	-0.33625215
149	0xbf480543	-0.7813303
150	0xbfc55f14	-1.541964
151	0xc01944a3	-2.3948143
152	0xc00b8c9c	-2.180457
153	0x3f7173cd	0.9431732
154	0xbf9f9cea	-1.2469761
155	0xbe57847e	-0.21046636
156	0x3ed9042e	0.42386
157	0xbf7d27b9	-0.98888737
158	0x3e82f36f	0.2557635
159	0x3fd769c1	1.6829149
160	0x3feeb0f4	1.8647752
161	0xbf26bb89	-0.65129906
162	0xbf91d612	-1.1393454
163	0x3fa0cfab	1.2563375
164	0xbfa678d1	-1.300562
165	0xbf060200	-0.523468
166	0xbe86d022	-0.26330668
167	0xbfa2330b	-1.2671827
168	0x3e7fc4ff	0.24977492
169	0x3f44e0cb	0.76905507
170	0xbfad647c	-1.354629
171	0x3f058e83	0.5217058
172	0x3e913732	0.28362423
173	0xc021ecda	-2.5300813
174	0x4037af8b	2.8700893
175	0x3ff8bfc9	1.9433528
176	0xbf4169ee	-0.7555226
177	0xc01fcbe3	-2.4968193
178	0xbf315f7e	-0.69286335
179	0xbf402f56	-0.7507223
180	0x3f98355b	1.1891283
181	0xbea5b64e	-0.3236565
182	0xbe2d6c52	-0.16935852
183	0xbf623656	-0.8836416
184	0xbe1d2f2e	-0.15350029
185	0x3f329d91	0.6977168
186	0xbfe37bf7	-1.7772206
187	0xbf9ea8d2	-1.239527
188	0xbf17b8e2	-0.59266484
189	0xbf0af93a	-0.5428654
190	0xbf15eabe	-0.58561313
191	0xbfaa00d2	-1.32815

dijetResNetBlock.reinforce2.conv.module.bias f4 [8]
0	0x3fe38bd5	1.7777048
1	0xbfc877fd	-1.5661618
2	0x4027b9e7	2.6207216
3	0x3f45b30b	0.7722632
4	0xbff597d6	-1.9186962
5	0xbb9b173d	-0.004732995
6	0x3e417bf3	0.18894939
7	0x4060a633	3.510144

dijetEmbed2.module.weight f4 [8, 8, 1]
0	0x3fa32f22	1.2748759
1	0x40290411	2.6408732
2	0x3f985d35	1.1903445
3	0x3e1ab522	0.15108159
4	0x3e1f01e4	0.15528065
5	0xbccccc7d	-0.024999851
6	0x3f96752c	1.1754508
7	0x3f8ad836	1.0847232
8	0xbf9d0339	-1.2266608
9	0xc02ce17a	-2.701262
10	0xc02742cc	-2.613452
11	0x3ee2dfe0	0.44311428
12	0x3f6b93eb	0.9202258
13	0xbf4a658a	-0.79061186
14	0x3f4b73d8	0.7947364
15	0xbf17e0f1	-0.5932761
16	0x3fb84b79	1.4398032
17	0xbeb613e5	-0.35562053
18	0x3ff9fb13	1.9529747
19	0x3f78f54d	0.972493
20	0xbf2e6bae	-0.68133056
21	0x3ef7791e	0.48334593
22	0xbe97596f	-0.2956042
23	0xbeaf2f4f	-0.3421578
24	0x3f8e4ba4	1.1116834
25	0xbee59491	-0.4483991
26	0x3e8b4dc3	0.27207765
27	0x3eaeda03	0.34150705
28	0x3f8382cb	1.027429
29	0x4020e24d	2.5138123
30	0x3fad850c	1.3556228
31	0xc00a6b40	-2.162796
32	0xbfbd3947	-1.4783105
33	0xbf3c8806	-0.73645055
34	0xc04803ec	-3.1252394
35	0xbe95cb1f	-0.29256532
36	0x3fb7d1a2	1.436085
37	0xbdf2116a	-0.11819728
38	0x3f411038	0.7541537
39	0x3fa92f3d	1.3217541
40	0x3ef96262	0.48707873
41	0xbfed8cc0	-1.8558578
42	0xc01c2645	-2.4398358
43	0xbf50fcfc	-0.81636024
44	0xbf282013	-0.6567394
45	0x3fc4dbbc	1.5379558
46	0xbd8b85c2	-0.06812622
47	0x3f8e90ad	1.1137902
48	0xbda5e79a	-0.08100815
49	0x401cc71a	2.4496522
50	0xbeafbab4	-0.3432213
51	0xbfc1ad7c	-1.5131068
52	0x3ed52f1f	0.41637513
53	0xbf2b8d19	-0.6701217
54	0xbea21ae6	-0.31661147
55	0xbfccceee	-1.600065
56	0xbfea5b86	-1.8309181
57	0xbec3f0ef	-0.38269755
58	0x3f70c2d9	0.94047314
59	0xbfbfa01c	-1.4970737
60	0xbf5fcff9	-0.87426716
61	0x4012e2a0	2.295082
62	0x3ed53eed	0.4164957
63	0x40220f8e	2.5321994

dijetEmbed2.module.bias f4 [8]
0	0x3fcd4c4f	1.6038913
1	0xbffdc16b	-1.9824651
2	0xbe595588	-0.21224034
3	0xbef1c42f	-0.4721999
4	0xbed36b7a	-0.41292936
5	0xbeda576b	-0.4264482
6	0xbf1d3c1e	-0.61419857
7	0xbeb1f4fa	-0.34757215

quadjetGBN.gamma f4 [6]
0	0x3fb2a74c	1.3957305
1	0x3f844c82	1.0335848
2	0x3f22cbf4	0.6359246
3	0x3eb4d3b0	0.35317755
4	0x3fe5b03f	1.7944411
5	0x3f2c172c	0.6722286

quadjetGBN.bias f4 [6]
0	0xbf81c5d1	-1.0138494
1	0x3e251f7f	0.16125296
2	0x3e877d0c	0.2646259
3	0xbe19124b	-0.14948384
4	0x3e0b4a74	0.1360262
5	0x3d3e8742	0.04651571

quadjetGBN.m f4 [1, 6, 1]
0	0x4024ec52	2.5769238
1	0x43f32a1b	486.32895
2	0x406a6c5c	3.6628637
3	0x3f981e8d	1.1884323
4	0x409ddb42	4.933015
5	0x44fc1e6e	2016.9509

quadjetGBN.s f4 [1, 6, 1]
0	0x3f62c2f6	0.88578737
1	0x432cb68e	172.7131
2	0x4046802b	3.1015728
3	0x405f3d1a	3.4881043
4	0x3f7ffc28	0.99994135
5	0x3f5cd3c2	0.86260617

quadjetEmbed.module.weight f4 [8, 6, 1]
0	0xc0518f98	-3.2743893
1	0x3e7f8096	0.24951395
2	0xbe569d2b	-0.20958392
3	0xbaa587b6	-0.0012628946
4	0x40186750	2.3813057
5	0xc0126888	-2.28763
6	0x3e123af1	0.14280297
7	0xbe360b81	-0.17777826
8	0xbf42c44b	-0.7608077
9	0xbf79caca	-0.97575057
10	0x3f70cd87	0.9406361
11	0x3e879844	0.26483357
12	0x407139d6	3.769155
13	0xbf2eca0b	-0.68277043
14	0xbf9d9635	-1.2311465
15	0x3e08beb5	0.13353999
16	0xc092f5d2	-4.5925074
17	0x3dda38aa	0.10655339
18	0xbeb6b145	-0.3568212
19	0xbefba498	-0.49149013
20	0xbea03781	-0.31292346
21	0x3d4e5949	0.050378118
22	0x3e2b3e21	0.16722919
23	0xbedbe79f	-0.4295015
24	0x3f06e9cc	0.52700496
25	0x3f03a91b	0.5142991
26	0x3e8f812f	0.28028247
27	0xbee44c1a	-0.4458931
28	0xbf376103	-0.71632403
29	0x3f7ccf43	0.98753756
30	0x3fa1578f	1.2604846
31	0x4033e5ba	2.8108964
32	0xbeee7fbc	-0.4658183
33	0xbe886daa	-0.26646167
34	0x3eea675a	0.45781976
35	0x3f56edb2	0.83956444
36	0xbf99cf9d	-1.2016484
37	0x3e81ecfd	0.2537612
38	0x40338910	2.8052406
39	0x3fe4481e	1.7834508
40	0xbed777c5	-0.42083564
41	0xbf8f40c2	-1.1191638
42	0x3f96561d	1.174503
43	0x3ebec8fa	0.37262708
44	0x3e9b9f36	0.30394906
45	0x3e86bb3c	0.26314723
46	0xbfd76a51	-1.682932
47	0xbf0a1a47	-0.53946346

quadjetEmbed.module.bias f4 [8]
0	0xbfba49fd	-1.455383
1	0xbe4a9bc6	-0.19785985
2	0xbee39850	-0.44452143
3	0xbffe6ff5	-1.9877917
4	0x400a74ed	2.1633866
5	0x3f2bdff4	0.671386
6	0x403b414c	2.9258604
7	0x3dbe444d	0.09290371

quadjetResNetBlock.reinforce1.sym.weight f4 [8, 1, 2]
0	0x3f000000	0.5
1	0x3f000000	0.5
2	0x3f000000	0.5
3	0x3f000000	0.5
4	0x3f000000	0.5
5	0x3f000000	0.5
6	0x3f000000	0.5
7	0x3f000000	0.5
8	0x3f000000	0.5
9	0x3f000000	0.5
10	0x3f000000	0.5
11	0x3f000000	0.5
12	0x3f000000	0.5
13	0x3f000000	0.5
14	0x3f000000	0.5
15	0x3f000000	0.5

quadjetResNetBlock.reinforce1.antisym.weight f4 [8, 1, 2]
0	0x3f000000	0.5
1	0xbf000000	-0.5
2	0x3f000000	0.5
3	0xbf000000	-0.5
4	0x3f000000	0.5
5	0xbf000000	-0.5
6	0x3f000000	0.5
7	0xbf000000	-0.5
8	0x3f000000	0.5
9	0xbf000000	-0.5
10	0x3f000000	0.5
11	0xbf000000	-0.5
12	0x3f000000	0.5
13	0xbf000000	-0.5
14	0x3f000000	0.5
15	0xbf000000	-0.5

quadjetResNetBlock.reinforce1.conv.module.weight f4 [8, 8, 3]
0	0xbf75b4fc	-0.95979285
1	0xbf48289a	-0.78186953
2	0xc0a9c16a	-5.30486
3	0xbf6fb2fb	-0.9363248
4	0xbe0c76cd	-0.13717194
5	0x400b8c1f	2.1804273
6	0xbeef106e	-0.46692222
7	0x3e6eed42	0.23332694
8	0x402fd4a2	2.747353
9	0x3fdf11da	1.7427323
10	0x4023d4cd	2.5598633
11	0xbfacf263	-1.351147
12	0xbfb3417e	-1.4004362
13	0x3ecef73b	0.40422997
14	0xc0040463	-2.0627677
15	0x3fb1ead4	1.3899789
16	0x3f6c2a9f	0.92252535
17	0x3fc26e4d	1.5189911
18	0x3fa3ed2f	1.2806758
19	0x3fa477b0	1.2849026
20	0xc0ef1339	-7.4710965
21	0xbf447af2	-0.767501
22	0xc03d15c1	-2.9544528
23	0x40192279	2.392729
24	0xbf85a0df	-1.0439719
25	0x3f9d0b98	1.2269163
26	0xc064a5a5	-3.5726101
27	0xbf9ac06c	-1.2089972
28	0x3f188788	0.59581804
29	0xbfc12e71	-1.5092298
30	0xbfe08440	-1.754036
31	0xbfbcc71d	-1.4748265
32	0x3ea2d295	0.31801286
33	0xbfec90ea	-1.8481724
34	0xbe99dac2	-0.3004971
35	0x409c714f	4.8888316
36	0xbf36b56a	-0.71370566
37	0x400d40a6	2.2070708
38	0xbe97f599	-0.29679564
39	0xc00ace63	-2.1688468
40	0xc00d3313	-2.2062423
41	0xbed458b5	-0.41473928
42	0xbf9217b3	-1.1413482
43	0xbfeacc25	-1.834355
44	0x3fe321ac	1.7744651
45	0xbf191b4d	-0.5980728
46	0x3e27d1d0	0.16388631
47	0x405e03f4	3.4689913
48	0xbec427cc	-0.38311613
49	0xc039e290	-2.9044533
50	0xbf5ea17d	-0.8696516
51	0x3f5a21c5	0.8520778
52	0xbe80a227	-0.25123712
53	0x3f413e60	0.754858
54	0x3f6644f6	0.89948976
55	0x3ee97c90	0.45602846
56	0xbfc9c7ae	-1.5764062
57	0x3f2f2833	0.68420714
58	0xc08305d6	-4.0944624
59	0x3fa0dd98	1.2567625
60	0xbf6f0680	-0.93369293
61	0xc061bf81	-3.5273135
62	0xbeb6c413	-0.35696468
63	0x3ff3c009	1.904298
64	0xbf2117b3	-0.6292679
65	0xc02c14da	-2.6887727
66	0xbe117c68	-0.14207613
67	0x3d570cb0	0.052502334
68	0x40302214	2.75208
69	0x3f8b11e8	1.086484
70	0x407510ff	3.8291624
71	0x3f790100	0.9726715
72	0xbfedc6fb	-1.8576349
73	0x3f663398	0.89922476
74	0xc091ce1b	-4.5564094
75	0xbe8fc625	-0.2808086
76	0xbf80f597	-1.0074948
77	0x4098df0e	4.7772284
78	0xbf8dc2d6	-1.1075084
79	0xc02777b8	-2.616682
80	0xc007f6fc	-2.1244497
81	0x3f8a64a4	1.0811963
82	0x3f1e4444	0.61822915
83	0x41040429	8.251016
84	0xbed59619	-0.41716078
85	0xbf01de1b	-0.5072953
86	0x3f4fbc90	0.811471
87	0x3f79540b	0.97393864
88	0x3fdee9f9	1.7415153
89	0x4029d1b7	2.653425
90	0xbe92a966	-0.28644866
91	0x3f037181	0.5134507
92	0x3e141c33	0.14463882
93	0x3ecb8b92	0.3975492
94	0x3f5e7d99	0.86910397
95	0x3ff88103	1.9414371
96	0x3fba89b4	1.4573274
97	0xbe33a1a7	-0.17542134
98	0xbeff9f60	-0.4992628
99	0x3ddb0423	0.106941484
100	0x3ea24544	0.3169347
101	0x402a6545	2.662431
102	0x3f846e83	1.0346226
103	0x40e7395d	7.2257524
104	0xc073e2d1	-3.8107188
105	0xbe8d1402	-0.27554327
106	0xbede7977	-0.43452045
107	0x402a2c95	2.658971
108	0x3fea8778	1.8322592
109	0xbf3ff635	-0.7498506
110	0xc0444ca5	-3.067178
111	0xbf222cb8	-0.63349485
112	0x3f1ab203	0.60427874
113	0x3fb96373	1.4483474
114	0x3bc8602a	0.0061149793
115	0xbfedc67e	-1.85762
116	0xc0067bc6	-2.1013045
117	0x3e118470	0.14210677
118	0x3fb63b4a	1.4236844
119	0xc00d196a	-2.2046762
120	0x400b6c2b	2.178477
121	0xbebe9fe2	-0.37231356
122	0x40823dce	4.0700445
123	0x3fd31151	1.648966
124	0x3f8529f6	1.040343
125	0x401b4736	2.4262214
126	0x3f35332b	0.707812
127	0x4050d3e1	3.262932
128	0x3fc256eb	1.5182775
129	0x3fb8a103	1.4424137
130	0xbeb6cedc	-0.35704696
131	0xc0280927	-2.6255586
132	0x40159718	2.337347
133	0x3fc26735	1.5187746
134	0x40136cfb	2.3035266
135	0xbc81f460	-0.015863597
136	0xc00642c4	-2.097825
137	0x3fe3183c	1.7741771
138	0x3f78ebaa	0.97234595
139	0x4025e0cb	2.5918453
140	0x3e32e21d	0.17469068
141	0xbfbb4dfe	-1.4633176
142	0xbfd3555c	-1.6510425
143	0x402f0c53	2.7351272
144	0x3fd71049	1.6801845
145	0x3ed744d8	0.4204471
146	0x40137f2c	2.304637
147	0xbfc5fa1e	-1.5466955
148	0x3f067f67	0.5253815
149	0xc04204a9	-3.0315344
150	0xbf77821d	-0.9668291
151	0x4003b5d5	2.0579731
152	0xbfd5511f	-1.6665381
153	0xc03caa20	-2.9478836
154	0xc0677027	-3.6162202
155	0xc10246fa	-8.142328
156	0xbf0a0461	-0.5391293
157	0xbf866c8f	-1.050188
158	0xc0995f87	-4.792911
159	0x3d772f12	0.060347624
160	0x3fc7565c	1.557323
161	0xc04008ea	-3.000544
162	0x406c8186	3.6954055
163	0x401fe74b	2.498492
164	0xbf0dcd4b	-0.5539138
165	0xbf8ce04b	-1.1005949
166	0x3de7fc80	0.113274574
167	0xc0455831	-3.0835078
168	0xbfaf2c04	-1.3685308
169	0xbfe75db2	-1.8075469
170	0x3f51d1e6	0.81960905
171	0xbfe488f9	-1.7854301
172	0xbfd995c1	-1.6998826
173	0xc015d269	-2.3409674
174	0x3ec9e68e	0.39433712
175	0x3e9da996	0.30793446
176	0x4083d659	4.1199155
177	0xbf08d288	-0.53446245
178	0x3fc0f606	1.507508
179	0x3efac835	0.4898087
180	0x3f00f08a	0.50367033
181	0xbff61f78	-1.9228354
182	0x3f6c45d5	0.92294055
183	0x3ef746b5	0.48296133
184	0xbf2fd270	-0.6868048
185	0xbfcf9aab	-1.6219076
186	0x3eae9efc	0.3410567
187	0xbfb9a081	-1.4502107
188	0xbf1d66c2	-0.6148492
189	0x3f122139	0.57081944
190	0xc12359f4	-10.209461
191	0xc032521f	-2.7862623

quadjetResNetBlock.reinforce1.conv.batchNorm.gamma f4 [8]
0	0x403b6df3	2.9285858
1	0x40a9d18f	5.306831
2	0x4074d0e0	3.8252487
3	0x40837b1a	4.108777
4	0x409fe908	4.997196
5	0xbff0d053	-1.8813576
6	0xbfc1f9fd	-1.5154415
7	0x40d574ca	6.6705065

quadjetResNetBlock.reinforce1.conv.batchNorm.bias f4 [8]
0	0xbf327af6	-0.69718874
1	0x3e253029	0.16131653
2	0xc0169950	-2.3531075
3	0xc009dbb0	-2.1540337
4	0x3f985e81	1.190384
5	0xbefb744e	-0.4911217
6	0x3da4c81a	0.08045979
7	0xbf8c4e65	-1.0961424

quadjetResNetBlock.reinforce1.conv.batchNorm.m f4 [1, 8, 1]
0	0xc144d1f8	-12.301262
1	0xc3a7ad04	-335.35168
2	0x42cb16b4	101.54434
3	0xc2b9f5c0	-92.97998
4	0x434ab23f	202.69627
5	0x43428a19	194.53944
6	0xc34149c7	-193.2882
7	0xc2914086	-72.62602

quadjetResNetBlock.reinforce1.conv.batchNorm.s f4 [1, 8, 1]
0	0x42bc6806	94.20317
1	0x42a181f6	80.75383
2	0x427f41d2	63.814278
3	0x42d0f465	104.47733
4	0x42d7ce40	107.90283
5	0x429a19c7	77.05035
6	0x42a46e3c	82.2153
7	0x42c1b4ce	96.853134

quadjetResNetBlock.convD.module.weight f4 [8, 8, 1]
0	0xbf77c3c9	-0.9678312
1	0x3e811371	0.25210145
2	0xc0489220	-3.1339188
3	0xbf24882a	-0.6427027
4	0xbf8a2532	-1.0792601
5	0xbfa9eb04	-1.3274846
6	0xc014e06a	-2.3261971
7	0xbf4c2a23	-0.79751796
8	0xbf5c40ef	-0.8603658
9	0x3f900dd2	1.1254218
10	0x400f08eb	2.2349193
11	0x3edc5a29	0.43037537
12	0x3eb1767c	0.3466071
13	0xc09ed2ab	-4.9632163
14	0xbf27fbbf	-0.6561851
15	0xbf8f2f35	-1.1186281
16	0xbffeafd3	-1.9897407
17	0xbf8e351d	-1.1109959
18	0xbf9c02d9	-1.2188369
19	0xc0006b58	-2.0065517
20	0x3ea6b12a	0.3255704
21	0xc04b3228	-3.1749363
22	0x3f523058	0.82105017
23	0xbeb280bc	-0.34863842
24	0xc0311722	-2.767037
25	0xbfcac034	-1.5839906
26	0xc04798ea	-3.1187081
27	0xbfeebba2	-1.8651011
28	0xbf82215a	-1.0166428
29	0xbfde6340	-1.7374039
30	0xc033dd51	-2.810383
31	0x3f7c3cbf	0.9853019
32	0x3f060c81	0.5236283
33	0xbf82e6a4	-1.0226636
34	0x3ecb451d	0.39701167
35	0xc063494c	-3.5513487
36	0xc02d3f4d	-2.7069886
37	0xbf67ebe9	-0.90594345
38	0xbf2d22b7	-0.67631096
39	0xbe9db56c	-0.30802476
40	0xbe70b668	-0.23507082
41	0xbe806eb8	-0.25084472
42	0xbf83ccc9	-1.029687
43	0x40176736	2.3656745
44	0x3f54af47	0.8307995
45	0x403f6971	2.9908106
46	0x3fb5ba84	1.4197545
47	0x3f680d25	0.90645057
48	0x3f279a46	0.6546978
49	0xbe0b462e	-0.1360099
50	0xc03274ef	-2.788387
51	0xbfea149b	-1.8287538
52	0xbf8eb248	-1.1148157
53	0x3e723e18	0.236565
54	0x400ff80d	2.2495148
55	0x3faaf4c4	1.3355947
56	0xc01e33a6	-2.4719024
57	0xbed5e3fc	-0.417755
58	0xc027a2b9	-2.6193068
59	0xc039e7fa	-2.9047837
60	0x403b6333	2.9279296
61	0xbf91b26a	-1.1382573
62	0x3e047bf5	0.12937911
63	0xbf4db4a3	-0.80353755

quadjetResNetBlock.convD.batchNorm.gamma f4 [8]
0	0x3f40ad14	0.75264096
1	0x402f648f	2.7405126
2	0x405a6575	3.4124424
3	0x3f93e1d2	1.155329
4	0x3f4610b8	0.7736926
5	0x3ea1014e	0.31446308
6	0x3fdfd23d	1.7486035
7	0x402095cc	2.5091429

quadjetResNetBlock.convD.batchNorm.bias f4 [8]
0	0xbe7c297b	-0.24625199
1	0xbf77f2cc	-0.96854854
2	0x40357a93	2.8356063
3	0x3eb2a966	0.34894866
4	0xbf6a0e31	-0.91427904
5	0x3ef6d7c8	0.48211503
6	0x40064513	2.097966
7	0x401b00a2	2.4219136

quadjetResNetBlock.convD.batchNorm.m f4 [1, 8, 1]
0	0xc3b19071	-355.12845
1	0x42e2a48e	113.321396
2	0xc38d56e3	-282.6788
3	0xc3d40e9e	-424.1142
4	0xc2f2ec45	-121.461464
5	0x4268963a	58.146706
6	0xc38d5bd0	-282.7173
7	0xc3d99aa6	-435.2082

quadjetResNetBlock.convD.batchNorm.s f4 [1, 8, 1]
0	0x42a24b5b	81.14718
1	0x4352a954	210.66144
2	0x42b6f327	91.47491
3	0x42c1354f	96.60412
4	0x4302e6bc	130.9013
5	0x4331011e	177.00436
6	0x42f13b8c	120.6163
7	0x428e2cfd	71.08787

quadjetResNetBlock.reinforce2.sym.weight f4 [8, 1, 2]
0	0x3f000000	0.5
1	0x3f000000	0.5
2	0x3f000000	0.5
3	0x3f000000	0.5
4	0x3f000000	0.5
5	0x3f000000	0.5
6	0x3f000000	0.5
7	0x3f000000	0.5
8	0x3f000000	0.5
9	0x3f000000	0.5
10	0x3f000000	0.5
11	0x3f000000	0.5
12	0x3f000000	0.5
13	0x3f000000	0.5
14	0x3f000000	0.5
15	0x3f000000	0.5

quadjetResNetBlock.reinforce2.antisym.weight f4 [8, 1, 2]
0	0x3f000000	0.5
1	0xbf000000	-0.5
2	0x3f000000	0.5
3	0xbf000000	-0.5
4	0x3f000000	0.5
5	0xbf000000	-0.5
6	0x3f000000	0.5
7	0xbf000000	-0.5
8	0x3f000000	0.5
9	0xbf000000	-0.5
10	0x3f000000	0.5
11	0xbf000000	-0.5
12	0x3f000000	0.5
13	0xbf000000	-0.5
14	0x3f000000	0.5
15	0xbf000000	-0.5

quadjetResNetBlock.reinforce2.conv.module.weight f4 [8, 8, 3]
0	0x3edd7970	0.43256712
1	0x3dace911	0.084428914
2	0xbf1f6063	-0.6225645
3	0x3fa24a82	1.2678988
4	0x3e51a16f	0.20471738
5	0x4016ad6b	2.3543346
6	0x3fa865d3	1.3156074
7	0x3edc4221	0.43019202
8	0x3fcb5a5b	1.5886949
9	0x4019eeef	2.4052083
10	0x404522e6	3.080255
11	0x4057b3bc	3.370345
12	0x40b262fb	5.5745826
13	0xc114749d	-9.27847
14	0x3fc6308b	1.5483564
15	0x400c1add	2.1891396
16	0xbc397a10	-0.011320606
17	0x4007942a	2.1184182
18	0xbf8a43a7	-1.0801896
19	0x4005d81c	2.0913153
20	0x3f6093d6	0.8772558
21	0xbff886a0	-1.9416084
22	0xbef24941	-0.47321513
23	0x3f4a467c	0.790138
24	0x4015a491	2.3381693
25	0x401460f7	2.3184183
26	0x3fa5a5c5	1.2941214
27	0xbd1ddf9d	-0.038543332
28	0x3f45de6e	0.77292526
29	0x3f3f13d4	0.7463963
30	0x3f064a0e	0.5245675
31	0x3fe43a56	1.7830303
32	0xc0234185	-2.550874
33	0x3f9142a5	1.1348463
34	0xc012e0a9	-2.2949622
35	0xbe1fbef7	-0.15600191
36	0x3f118a31	0.5685149
37	0x4014f158	2.3272305
38	0x3fa6cef9	1.3031913
39	0xbf63e04d	-0.8901413
40	0xbf0b782f	-0.5448026
41	0x3f2c3ce9	0.6728044
42	0x3e623a95	0.2209266
43	0x3fd1666c	1.6359382
44	0xc100f340	-8.059387
45	0xbe9566e7	-0.2918007
46	0x3f03f919	0.5155197
47	0x3e81f7b9	0.2538431
48	0x3fd129a1	1.6340829
49	0x3f6dd6d5	0.9290593
50	0xbf4ed803	-0.8079836
51	0x3f34856c	0.70516086
52	0x3f418bb2	0.75603783
53	0xbfd37b8a	-1.6522076
54	0xc02870d0	-2.6318855
55	0x40301fa6	2.7519317
56	0x3fbb3b17	1.4627408
57	0xbe0c08e2	-0.13675264
58	0xc03c2b8c	-2.940158
59	0xc084dce8	-4.151966
60	0x3f4acb87	0.7921681
61	0xc029b545	-2.6516888
62	0x3fbbb896	1.4665706
63	0xbf164287	-0.5869526
64	0xbfbe05ff	-1.484558
65	0x3e606d3d	0.21916671
66	0x3fb10e0d	1.3832413
67	0x3f930d97	1.1488522
68	0xbf4cc875	-0.79993373
69	0x3f6899dd	0.90859777
70	0x3fec4b1f	1.8460425
71	0x409a1a20	4.815689
72	0xbdbfab6e	-0.093588695
73	0xbef07b7a	-0.46969205
74	0x3e8304e1	0.2558966
75	0x3e863516	0.26212376
76	0x3e689e75	0.22716697
77	0xbfb40782	-1.4064791
78	0xbecd7b7a	-0.40133268
79	0xbf99be4f	-1.2011203
80	0xbe963574	-0.29337656
81	0xbf804283	-1.0020298
82	0xbf3d3e73	-0.73923415
83	0xbec3bfa0	-0.38232136
84	0x3f0ff36a	0.56230795
85	0xbf57b0b7	-0.8425402
86	0xbe640c73	-0.22270374
87	0xbee6a1ec	-0.45045412
88	0xbe3c12ce	-0.18366548
89	0xbfab5b48	-1.3387232
90	0xbf9996bf	-1.1999129
91	0xbf153bcf	-0.58294386
92	0xbe834365	-0.25637355
93	0xbe0c89ba	-0.13724414
94	0xbeec73e0	-0.46182156
95	0xbe9ab0fd	-0.30213156
96	0xbeaba694	-0.33525527
97	0xbf7662d1	-0.9624453
98	0xbf200123	-0.62501734
99	0xbf8aa5de	-1.0831869
100	0xbf18a310	-0.59623814
101	0x3f8ebd70	1.1151562
102	0x3e370c37	0.17875753
103	0xbd74f8c3	-0.05980755
104	0x3f8c583a	1.0964425
105	0xbe84ef2f	-0.25963733
106	0x3f3ff75e	0.7498683
107	0xc0a1533a	-5.0414095
108	0xc07fc58c	-3.9964323
109	0x3fa10ba5	1.2581679
110	0xc04e6f69	-3.22555
111	0xbe72be86	-0.23705491
112	0x408e267c	4.442198
113	0xbfa2108e	-1.2661302
114	0xbe0343b7	-0.128188
115	0x3d24fda4	0.040280953
116	0x3da85523	0.082193635
117	0x3f8ef03f	1.1167067
118	0x3e8c77da	0.2743519
119	0xc03072a0	-2.7569962
120	0x3ec7f1d2	0.39051682
121	0x3f8df99e	1.1091802
122	0xbf55ff08	-0.8359227
123	0x3e4eb9a5	0.20188005
124	0xbec77fc4	-0.38964665
125	0xbf355de3	-0.70846385
126	0xbfad0ef3	-1.3520187
127	0xbec562a5	-0.38551822
128	0xbd94d0ab	-0.07266363
129	0xbf18e140	-0.59718704
130	0xbf3641aa	-0.71193945
131	0xbf4b67b2	-0.794551
132	0xbf46e26a	-0.7768923
133	0xbf6a3c29	-0.9149805
134	0xbec419e0	-0.3830099
135	0xbf9cbf26	-1.2245834
136	0xbf6780a0	-0.9043064
137	0x3f095b50	0.53654957
138	0xbe3791c5	-0.179267
139	0xbf09b60a	-0.53793395
140	0xbec7ba28	-0.39009213
141	0xbf22a6a0	-0.635355
142	0xbf036a51	-0.513341
143	0xbfc4c9f4	-1.5374131
144	0x3eedfe96	0.46483296
145	0x3fd98445	1.699349
146	0x3e8c3030	0.27380514
147	0xc002194d	-2.0327942
148	0xc01c758d	-2.4446747
149	0xbebff419	-0.3749092
150	0xbfedfb26	-1.859227
151	0xbfcac4e2	-1.5841334
152	0xc0592dd5	-3.3934224
153	0x3f78a3fa	0.9712521
154	0xbf27dec7	-0.65574306
155	0xbfabc472	-1.3419325
156	0x3f96d3d4	1.1783395
157	0xbff33e07	-1.9003304
158	0xc01dfeec	-2.4686842
159	0xbc2a5038	-0.010395102
160	0xc00b83ab	-2.1799114
161	0x3f9daa30	1.2317562
162	0x3f75cceb	0.96015805
163	0x3f419d83	0.7563097
164	0xbf59f41d	-0.8513811
165	0x3f988784	1.1916356
166	0x3f645633	0.8919403
167	0x401ce095	2.4512074
168	0xbfe24ff2	-1.7680647
169	0xbfb25a98	-1.3933897
170	0x3ff12ffc	1.8842769
171	0xbfc8b206	-1.5679328
172	0xbedaf7f3	-0.42767295
173	0x3fed7cfd	1.8553768
174	0x4031b2ad	2.7765305
175	0x3f39532c	0.72392535
176	0xbdeb2331	-0.114813216
177	0xbf2e1ee7	-0.68015903
178	0x3e2c942a	0.16853395
179	0x40b5223e	5.66043
180	0xbfa13418	-1.2594023
181	0xbfb915c6	-1.445977
182	0xbebce99a	-0.36896974
183	0x3f4f66b0	0.81016064
184	0xbf8dd556	-1.108073
185	0x3f6c1b4d	0.9222916
186	0xbfcc710d	-1.5972
187	0xbf37e984	-0.7184069
188	0xbe3842e3	-0.17994265
189	0xbfe3d6a8	-1.7799883
190	0xbe733b14	-0.23753005
191	0x3f672146	0.90285146

quadjetResNetBlock.reinforce2.conv.module.bias f4 [8]
0	0xc0bb3b20	-5.8509674
1	0x3f09029e	0.5351962
2	0x3f611e49	0.87936836
3	0xbf6d926a	-0.92801535
4	0x3f3cc923	0.7374441
5	0xbf5c5caa	-0.86078894
6	0x3fe397ba	1.7780678
7	0xbe7a6fd1	-0.24456717

eventConv1.module.weight f4 [8, 8, 1]
0	0xbfa84180	-1.3144989
1	0x3fc74d22	1.5570414
2	0xc0a7cce8	-5.243763
3	0x3fa26a91	1.2688771
4	0x3f783dad	0.9696911
5	0x3e127132	0.14300993
6	0xc04b58d7	-3.1772974
7	0x3e6a1c5b	0.22862379
8	0x3f68803e	0.9082068
9	0xc015fd8d	-2.3436005
10	0x3f803981	1.0017549
11	0x3e413c55	0.18870671
12	0xbfde8cc8	-1.7386713
13	0x3f32abf0	0.69793606
14	0xbfd03d17	-1.6268643
15	0x3fab5ee0	1.3388329
16	0x3dcfa037	0.101379804
17	0xbf4e1cf1	-0.8051291
18	0xbfe0aee1	-1.7553369
19	0xbe164928	-0.14676344
20	0x3bd70d07	0.0065628323
21	0xbe3cc572	-0.18434694
22	0xc0b48326	-5.6410093
23	0x3f7658af	0.9622907
24	0x3f02c611	0.51083475
25	0xbd936f3a	-0.07198949
26	0xbe7627ae	-0.24038574
27	0xbeded8dd	-0.4352483
28	0x3f85d45b	1.0455431
29	0xbe677601	-0.22603609
30	0xbee8ae00	-0.4544525
31	0x3f057faa	0.52147925
32	0xc043f538	-3.061842
33	0x3f7429a4	0.9537604
34	0x407f3c38	3.9880505
35	0xbf37ec39	-0.7184482
36	0x40217f33	2.5233886
37	0xbf3c1772	-0.73473275
38	0x3fac0670	1.3439465
39	0xbe978f2f	-0.29601428
40	0xbe46614d	-0.19373055
41	0x3ec4231c	0.38308036
42	0x3ee85808	0.45379663
43	0x3ec3c9c3	0.3823987
44	0x3e8e620a	0.27809173
45	0xbddb678b	-0.10713109
46	0x3d5a85e6	0.05335035
47	0x3f42b127	0.76051563
48	0xbfedc9e8	-1.8577242
49	0xbfc9bba7	-1.5760392
50	0x3e91db00	0.28487396
51	0x3e86fcbf	0.26364705
52	0x3f7c8833	0.98645324
53	0xbcae18ba	-0.021252025
54	0xc0223c57	-2.5349329
55	0xbfe24baf	-1.7679347
56	0xbf025ed9	-0.50925976
57	0x3ecc0bfd	0.39852896
58	0xbf92b563	-1.1461605
59	0xbf3bf339	-0.73418003
60	0xbf66c1a9	-0.9013925
61	0xbe45a900	-0.1930275
62	0x40b0594a	5.5108995
63	0xbf50c430	-0.8154936

eventConv1.batchNorm.gamma f4 [8]
0	0x3fb0a127	1.379918
1	0x403b3252	2.9249463
2	0x4036b6cc	2.854907
3	0x3fb68b40	1.4261246
4	0x40a6a111	5.2071614
5	0x3f9de268	1.2334719
6	0x41096c2c	8.588909
7	0x4089edd9	4.310284

eventConv1.batchNorm.bias f4 [8]
0	0xc0a9a5f9	-5.3015103
1	0xc09d5b13	-4.9173675
2	0xc008c5e5	-2.1370785
3	0xbf1883c1	-0.5957604
4	0x3d39ac9d	0.045330632
5	0xbf3c7625	-0.73617774
6	0x3f7bd638	0.98373747
7	0x3ecf309f	0.40466782

eventConv1.batchNorm.m f4 [1, 8, 1]
0	0xc2f66221	-123.19166
1	0x430a2057	138.12633
2	0x423fe359	47.97202
3	0x42cc9c80	102.305664
4	0xc3abeaed	-343.83536
5	0x420a8c7d	34.637196
6	0xc3b461a2	-360.76276
7	0xc2d8718d	-108.22178

eventConv1.batchNorm.s f4 [1, 8, 1]
0	0x42651db7	57.27902
1	0x42ad3bac	86.61655
2	0x4273d6a8	60.959625
3	0x41a5ad86	20.709728
4	0x42aadcdc	85.431366
5	0x41c2fc72	24.373264
6	0x42b6dffa	91.437454
7	0x42478a30	49.88495

eventConv2.module.weight f4 [8, 8, 1]
0	0x403508e7	2.8286684
1	0x3f3af1fb	0.7302548
2	0x3f9701c0	1.1797409
3	0xbeb391ea	-0.3507226
4	0x3ee39d9e	0.4445619
5	0x3ec9518e	0.39320034
6	0x3ffbb0d7	1.9663342
7	0xbe980de0	-0.29698086
8	0x3ef66110	0.48120928
9	0xbcc50a0c	-0.024052642
10	0x3f38a43f	0.7212562
11	0xbed5930a	-0.41713744
12	0x3d934622	0.07191111
13	0x3eedd796	0.46453542
14	0x3ee86555	0.4538981
15	0x3f859ef9	1.043914
16	0x3f592075	0.8481515
17	0x3eb95ef4	0.36205256
18	0x3f5b7134	0.8571961
19	0x3cb475ad	0.022028768
20	0xbd5f7897	-0.054558363
21	0x3e6dbe63	0.23217158
22	0x3f9a7a90	1.2068653
23	0xbdbb383c	-0.09141585
24	0xbeeef166	-0.46668547
25	0xbdc9d806	-0.09855656
26	0x3e51442d	0.20436163
27	0xbdfb28c2	-0.12263633
28	0xbc71301d	-0.014720944
29	0x3d30ffc7	0.04321268
30	0xbe5e57e3	-0.21713214
31	0xbf159100	-0.5842438
32	0xbe105456	-0.14094672
33	0xbeaecc67	-0.34140322
34	0xbf971fed	-1.1806618
35	0x3eae6242	0.3405934
36	0x406fa891	3.7446635
37	0x3e956703	0.29180154
38	0xbfb46627	-1.4093674
39	0xbee20d5f	-0.44150826
40	0xbe931d74	-0.28733408
41	0x3e65a2f6	0.22425446
42	0x3f383a60	0.71964073
43	0xbc8b7ba2	-0.017026726
44	0xbf630433	-0.8867828
45	0xbf1cb98c	-0.6122062
46	0x3dbb0419	0.09131641
47	0xbf3fcee1	-0.7492505
48	0x3e77e229	0.24207367
49	0xbf97423a	-1.1817086
50	0x3f6cb2b6	0.9246019
51	0x3d9b4d58	0.075831115
52	0xc006be39	-2.1053603
53	0x3f05dcff	0.5229034
54	0x403b10fb	2.9229114
55	0xbfbfa5ec	-1.497251
56	0x3f8986ad	1.0744225
57	0xbf26829f	-0.6504306
58	0xbf8924b7	-1.071433
59	0x3f1f0539	0.62117344
60	0x3f10e7a0	0.5660343
61	0xbdefb8f2	-0.117051974
62	0xbf31fddd	-0.6952799
63	0x401442ee	2.316585

eventConv2.module.bias f4 [8]
0	0xbe7dd8af	-0.2478969
1	0x40849dc8	4.1442604
2	0x40b28b25	5.5794854
3	0xbe8fa0fd	-0.28052512
4	0x4022b54f	2.5423162
5	0xbc70d604	-0.014699463
6	0x3ffebae2	1.9900782
7	0x3fec52f0	1.846281

select_q.module.weight f4 [1, 8, 1]
0	0x3fa7f05c	1.3120227
1	0xc0a4a3ea	-5.145009
2	0xbeb1b7e6	-0.34710616
3	0x3e5abc8f	0.21360992
4	0x3f182246	0.594273
5	0x3e06a2d7	0.13148056
6	0x3fcdeb43	1.6087421
7	0xbfb2dc75	-1.3973528

out.module.weight f4 [4, 8, 1]
0	0xbe497e70	-0.19677138
1	0x3eb1c755	0.3472239
2	0x3ed7cd9d	0.42149058
3	0x3d94aa30	0.07259023
4	0xc0b7a383	-5.73871
5	0x3e8ae645	0.27128807
6	0x3fa9f1af	1.3276881
7	0xbf8a57ce	-1.0808046
8	0xc083953e	-4.111968
9	0x3f8a0504	1.0782781
10	0xbf331ae1	-0.6996289
11	0x3e5d2250	0.2159512
12	0xbe907809	-0.2821658
13	0x3ea37f3a	0.31933004
14	0xc017658c	-2.365573
15	0x3ebfef9f	0.37487504
16	0x3f90669b	1.1281313
17	0x40568107	3.3516252
18	0xc06f94ee	-3.743465
19	0x3e3f7589	0.1869718
20	0xbf36a64e	-0.7134751
21	0x3e194ebc	0.14971441
22	0xbeafa72c	-0.3430723
23	0xbe2c28e5	-0.16812475
24	0x3fe5f1f3	1.7964462
25	0xbf0e578d	-0.5560234
26	0xbfd6047d	-1.672012
27	0xbd9dc0aa	-0.077027634
28	0xbfa8d8c0	-1.3191147
29	0x3e8369d4	0.25666678
30	0xbf6dfb37	-0.9296145
31	0x403a9662	2.9154286

out.batchNorm.gamma f4 [4]
0	0x3f7a40a6	0.97754896
1	0x3f789f21	0.9711781
2	0x40042e77	2.065336
3	0x3fc742e6	1.5567291

out.batchNorm.bias f4 [4]
0	0x3ed15af3	0.408897
1	0x3f424df2	0.75900185
2	0xc01a3bbd	-2.4098961
3	0x3faab152	1.3335364

out.batchNorm.m f4 [1, 4, 1]
0	0xc426fa16	-667.9076
1	0xc4ded216	-1782.5652
2	0x43e12fad	450.37247
3	0x44982289	1217.0792

out.batchNorm.s f4 [1, 4, 1]
0	0x43d4beb2	425.4898
1	0x439591cd	299.13907
2	0x4381abb3	259.3414
3	0x43b3db43	359.71298

exp_avg f4 [8, 4, 1]
0	0xb90c4ce9	-0.00013380092
1	0xb8ce9169	-9.84993e-05
2	0x375fa500	1.3330253e-05
3	0x37c9e7d0	2.4069013e-05
4	0x38c709eb	9.490907e-05
5	0x391633c0	0.00014324393
6	0xb931c6e7	-0.00016954132
7	0x38af5975	8.361313e-05
8	0xb98548d3	-0.00025421995
9	0x39071c3e	0.00012885124
10	0xb759b4a9	-1.2976271e-05
11	0x379f8d39	1.9020039e-05
12	0x39128c15	0.0001397583
13	0x38881fdc	6.4909196e-05
14	0x38f93e64	0.000118848664
15	0xb7991502	-1.8248804e-05
16	0xb7fb4789	-2.9954843e-05
17	0x3864e180	5.456945e-05
18	0xb6604fd2	-3.3425063e-06
19	0xb7c45bd7	-2.3407787e-05
20	0x388215c2	6.202936e-05
21	0x3898522e	7.263232e-05
22	0x38144a93	3.5355402e-05
23	0x3737287a	1.0917074e-05
24	0x394d1a10	0.00019560033
25	0x397dc841	0.0002420256
26	0xb76b1e4a	-1.4014144e-05
27	0xb51c87a6	-5.8311923e-07
28	0xb9750722	-0.00023367678
29	0xb8c9c9d1	-9.622018e-05
30	0xb8dcbfa2	-0.00010526112
31	0xb90e4c43	-0.00013570585

exp_avg_sq f4 [8, 4, 1]
0	0x369dc649	4.702048e-06
1	0x3593a01d	1.0998953e-06
2	0x33eb8b3f	1.0968369e-07
3	0x366d3745	3.5347923e-06
4	0x35aeaaf3	1.3013763e-06
5	0x3572b733	9.0418615e-07
6	0x34648989	2.128419e-07
7	0x358909a5	1.0210102e-06
8	0x367deb77	3.7836996e-06
9	0x35a62e90	1.2381515e-06
10	0x34f64eca	4.5878397e-07
11	0x36b888eb	5.4995667e-06
12	0x35ea77f0	1.7469265e-06
13	0x34ce4dde	3.8427146e-07
14	0x340dccbb	1.3206129e-07
15	0x358f98ab	1.0698762e-06
16	0x33371316	4.2625366e-08
17	0x33991def	7.1300626e-08
18	0x318c1af9	4.0776027e-09
19	0x32f54865	2.8554675e-08
20	0x35272811	6.227065e-07
21	0x3495f025	2.792814e-07
22	0x338adffa	6.466867e-08
23	0x34f35776	4.5325913e-07
24	0x360f3322	2.1338424e-06
25	0x35e7701c	1.7243469e-06
26	0x34bcd503	3.5172715e-07
27	0x361dc433	2.3509026e-06
28	0x36701cf6	3.5779644e-06
29	0x3591222e	1.081329e-06
30	0x344b982f	1.8961212e-07
31	0x36841c6b	3.937215e-06

exp_avg f4 [8]
0	0xb8a8fd74	-8.0580736e-05
1	0x39528c71	0.00020079479
2	0xb912c0d8	-0.00013995485
3	0x38469eb1	4.735467e-05
4	0x382f4023	4.1782983e-05
5	0xb6df7041	-6.658986e-06
6	0xb9f65880	-0.00046986714
7	0x3905c927	0.00012758803

exp_avg_sq f4 [8]
0	0x35410262	7.190157e-07
1	0x35916b59	1.0834584e-06
2	0x35d51d05	1.5878182e-06
3	0x34fe4171	4.7358802e-07
4	0x337d0a3b	5.8915457e-08
5	0x3524691e	6.1247727e-07
6	0x360d203d	2.1029402e-06
7	0x36108fd8	2.15414e-06

exp_avg f4 [2]
0	0x38c7059f	9.4901065e-05
1	0x3a1a02d4	0.0005875055

exp_avg_sq f4 [2]
0	0x367f9ff9	3.8091077e-06
1	0x376ff064	1.430148e-05

exp_avg f4 [2]
0	0xb9bcf0e3	-0.0003603763
1	0xb9857f63	-0.00025462647

exp_avg_sq f4 [2]
0	0x3805e72e	3.1924974e-05
1	0x36514a6a	3.1186742e-06

exp_avg f4 [8, 2, 1]
0	0x380b47e5	3.320714e-05
1	0x3898d0f4	7.286845e-05
2	0x390c1d56	0.00013362369
3	0x38b473e5	8.604656e-05
4	0x3925d1a0	0.00015813718
5	0x39064a1e	0.00012806847
6	0x39ea5904	0.0004469828
7	0x398054b7	0.0002447718
8	0xb82141a6	-3.844653e-05
9	0x395291a2	0.00020081413
10	0xb7b68221	-2.1756687e-05
11	0x39828237	0.0002489255
12	0xb8d23d9e	-0.000100250574
13	0xb81354e8	-3.5126606e-05
14	0x39dc436e	0.0004201191
15	0x392aa7ed	0.0001627502

exp_avg_sq f4 [8, 2, 1]
0	0x35ab1bf2	1.2748626e-06
1	0x3436e6f9	1.7034098e-07
2	0x3580965f	9.580507e-07
3	0x344d9d7a	1.9149402e-07
4	0x35907056	1.076153e-06
5	0x3504271b	4.923074e-07
6	0x36e1505a	6.7148767e-06
7	0x36029b82	1.9462027e-06
8	0x35f06308	1.7910215e-06
9	0x35f413f7	1.8185227e-06
10	0x34ed0606	4.4149073e-07
11	0x35872f45	1.0072041e-06
12	0x357d6f60	9.4411917e-07
13	0x337aa2e3	5.8355806e-08
14	0x3678e23d	3.7086568e-06
15	0x34f01177	4.471619e-07

exp_avg f4 [8]
0	0x39847cee	0.00025270082
1	0x395ceb50	0.00021068496
2	0x382e0b38	4.149528e-05
3	0xb966f8b7	-0.00022027163
4	0x38b1a98a	8.471597e-05
5	0x387db992	6.0492726e-05
6	0x381164dc	3.4664627e-05
7	0x3905fefb	0.00012778856

exp_avg_sq f4 [8]
0	0x358b1ba3	1.036435e-06
1	0x35a3d79e	1.2207199e-06
2	0x3528e6ae	6.292056e-07
3	0x366611e9	3.4283096e-06
4	0x35ab2693	1.2751719e-06
5	0x354d307d	7.643901e-07
6	0x353ce3d9	7.036702e-07
7	0x365a79c0	3.25554e-06

exp_avg f4 [8, 8, 3]
0	0xb7ab3fbc	-2.0414467e-05
1	0xb7d7bf74	-2.571915e-05
2	0x378524d8	1.5871992e-05
3	0xb7af0452	-2.0863637e-05
4	0x38231a20	3.888656e-05
5	0xb7efa312	-2.8566956e-05
6	0x38b2dd0d	8.528875e-05
7	0x3710a261	8.620876e-06
8	0xb853f568	-5.0534873e-05
9	0xb88aa4d6	-6.611056e-05
10	0xb7aa132d	-2.0274509e-05
11	0xb4d7bc91	-4.018407e-07
12	0xb552d5ee	-7.8542405e-07
13	0xb5424e36	-7.2384444e-07
14	0x37ede59b	2.835952e-05
15	0xb7cfb030	-2.4758367e-05
16	0x37a9fc2b	2.0263795e-05
17	0x38e6e0b8	0.00011009112
18	0xb7d79912	-2.5701276e-05
19	0xb7881497	-1.6222051e-05
20	0x374b3ad6	1.2113442e-05
21	0xb6166d9a	-2.2415538e-06
22	0xb6cb6bf1	-6.0624375e-06
23	0xb790e5c2	-1.7273127e-05
24	0xb66b3f5c	-3.5054609e-06
25	0xb65008e7	-3.0999597e-06
26	0x3602b821	1.9478687e-06
27	0xb6cff595	-6.1976702e-06
28	0x378c4899	1.6723106e-05
29	0xb6407586	-2.8678637e-06
30	0x378b4624	1.6602753e-05
31	0x36752a25	3.6532376e-06
32	0xb75f2b50	-1.330192e-05
33	0xb762581a	-1.34911625e-05
34	0xb7bd5ff5	-2.257524e-05
35	0xb6184740	-2.2691238e-06
36	0x3366eadb	5.3764648e-08
37	0xb516b267	-5.6138964e-07
38	0xb6bc82d9	-5.6180693e-06
39	0xb73b3b7c	-1.1159918e-05
40	0xb74cd2ac	-1.2208398e-05
41	0x3685f7f7	3.992576e-06
42	0xb585acdb	-9.95958e-07
43	0xb72bf8d1	-1.0250326e-05
44	0x360e6f50	2.1224441e-06
45	0x365ce08e	3.2913263e-06
46	0x36c5c90e	5.8944634e-06
47	0xb67335cb	-3.6241133e-06
48	0x37104089	8.598095e-06
49	0x369a2412	4.593757e-06
50	0x340969cf	1.2797612e-07
51	0xb6ec97e6	-7.0510314e-06
52	0xb6978df7	-4.5166776e-06
53	0x35fed9cb	1.8987861e-06
54	0x3717041f	9.001261e-06
55	0x360e0ad1	2.1165945e-06
56	0xb6910171	-4.3215045e-06
57	0xb62bc5ab	-2.5596044e-06
58	0x374351ca	1.1641949e-05
59	0xb624f64d	-2.458127e-06
60	0x3590040a	1.0730012e-06
61	0x3545be5d	7.3665234e-07
62	0xb73131c6	-1.0561611e-05
63	0xb72fb6de	-1.047339e-05
64	0x36082b91	2.0290938e-06
65	0xb7a6134b	-1.9797726e-05
66	0xb518a207	-5.6860193e-07
67	0xb6a2db02	-4.853472e-06
68	0x3437494c	1.7069868e-07
69	0x377d0027	1.5080011e-05
70	0xb5ae1be4	-1.2972127e-06
71	0xb52eed5b	-6.516545e-07
72	0xb849344f	-4.797085e-05
73	0x371088b0	8.614894e-06
74	0xb7b25336	-2.1258002e-05
75	0x37e001af	2.6703665e-05
76	0x376d3b6b	1.4140135e-05
77	0xb74094a1	-1.1478697e-05
78	0xb8a9b549	-8.092315e-05
79	0xb68598f3	-3.9815145e-06
80	0x37be3e12	2.2678669e-05
81	0x3828106f	4.0069626e-05
82	0x3705d7b6	7.977642e-06
83	0x372b194a	1.0198282e-05
84	0xb69b6d36	-4.632074e-06
85	0xb373a5c4	-5.672861e-08
86	0x38223a43	3.867807e-05
87	0x3818a66c	3.6394616e-05
88	0x3720e2ba	9.589532e-06
89	0x361f0140	2.3693574e-06
90	0x38340a2a	4.292481e-05
91	0x38323bef	4.2494325e-05
92	0xb6ca6b04	-6.0325274e-06
93	0xb7018229	-7.719304e-06
94	0x3830a4a5	4.2115007e-05
95	0x36a23bf6	4.8349566e-06
96	0xb707a21d	-8.084372e-06
97	0x36483b81	2.9836958e-06
98	0x363e13c1	2.8323705e-06
99	0xb71917e9	-9.125078e-06
100	0xb7c32ac7	-2.3265731e-05
101	0xb62034db	-2.3872624e-06
102	0x3694bf7f	4.433037e-06
103	0x35917276	1.0836654e-06
104	0xb6856d87	-3.9764595e-06
105	0x375cd3fb	1.3162377e-05
106	0xb770b4c3	-1.4347202e-05
107	0xb50a6841	-5.1560716e-07
108	0xb57f0565	-9.500275e-07
109	0x35276ee4	6.2373715e-07
110	0xb629dfef	-2.531331e-06
111	0x373de049	1.1317498e-05
112	0xb7db63f4	-2.6153379e-05
113	0x36bf03e2	5.6926956e-06
114	0xb62777bb	-2.4954631e-06
115	0x36d36d10	6.3009866e-06
116	0x35a951b1	1.2615257e-06
117	0xb8421576	-4.627319e-05
118	0x37bc4d43	2.2447324e-05
119	0xb5bd85a6	-1.4120494e-06
120	0x380d5be4	3.37026e-05
121	0xb678e1b3	-3.7086254e-06
122	0x37174423	9.016166e-06
123	0xb7368e60	-1.0881195e-05
124	0xb62ddf33	-2.5908928e-06
125	0x37225687	9.676099e-06
126	0x3825db8e	3.954354e-05
127	0x36dc868a	6.5721733e-06
128	0xb684ef70	-3.9617807e-06
129	0xb75ee435	-1.3285365e-05
130	0x365fd204	3.3351835e-06
131	0xb66af308	-3.501018e-06
132	0x36407afc	2.8681816e-06
133	0xb4e31f3b	-4.2304768e-07
134	0xb774d068	-1.4592057e-05
135	0xb721b0ab	-9.6374815e-06
136	0x372fccf8	1.0478536e-05
137	0x377c6a3e	1.5045107e-05
138	0xb6b03321	-5.251161e-06
139	0xb70f8424	-8.554231e-06
140	0x35bbbf2e	1.3988226e-06
141	0x37baaa3e	2.2252203e-05
142	0xb753196c	-1.2582499e-05
143	0xb4039ea2	-1.2258036e-07
144	0x37accce5	2.059941e-05
145	0x367fc59c	3.8112985e-06
146	0xb6cd4cf8	-6.1184364e-06
147	0x362ef7ea	2.6072325e-06
148	0xb7cec6f3	-2.4649757e-05
149	0xb61c3080	-2.3274042e-06
150	0xb7277771	-9.981785e-06
151	0xb5d64ba8	-1.5966261e-06
152	0xb6e9a47f	-6.963091e-06
153	0x371ae92e	9.233407e-06
154	0x37eabce4	2.7982933e-05
155	0x363502ea	2.6972798e-06
156	0xb42eb7ec	-1.6271923e-07
157	0xb59ba698	-1.1596885e-06
158	0x37a587af	1.9732715e-05
159	0x36ee256d	7.0973097e-06
160	0x37069626	8.021982e-06
161	0x38298972	4.0420746e-05
162	0x37b2dc69	2.132189e-05
163	0x3808aae3	3.2584077e-05
164	0x338a2844	6.43345e-08
165	0xb7c1c606	-2.3099605e-05
166	0x381af4d8	3.694449e-05
167	0xb6104718	-2.1499054e-06
168	0xb7477bf7	-1.1890187e-05
169	0xb436ea87	-1.7035391e-07
170	0x3698fdf3	4.5595166e-06
171	0xb6b12c3a	-5.2801597e-06
172	0x37251d09	9.841527e-06
173	0xb69b1ec5	-4.622942e-06
174	0x36c68e20	5.9174054e-06
175	0x36cd683f	6.121612e-06
176	0xb741bf38	-1.1548218e-05
177	0xb65f99f6	-3.3319207e-06
178	0xb70de5a3	-8.457721e-06
179	0xb57ad8de	-9.344784e-07
180	0xb5997cb1	-1.1435678e-06
181	0xb53337da	-6.676397e-07
182	0xb626f08b	-2.4875942e-06
183	0xb6d4bc7f	-6.340036e-06
184	0x36227382	2.4207116e-06
185	0x37250d8a	9.837919e-06
186	0xb754f01b	-1.2692089e-05
187	0xb691fc7e	-4.3507307e-06
188	0x3634df15	2.695194e-06
189	0xb8064f39	-3.202187e-05
190	0xb69602fa	-4.470695e-06
191	0xb6720103	-3.60614e-06
