nTupleAnalysis/pytorchModels/SvB_ResNet_9_9_9_np1713_lr0.008_epochs40_stdscale_epoch40_loss0.2138.onnx (onnx, 718774 bytes, 63 tensors)

4 f4 [1, 4, 1]
0.0 0.0 0.0 0.0
00000000: 0000 0000 0000 0000 0000 0000 0000 0000

5 f4 [1, 4, 1]
1.0 1.0 3.1415927 1.0
00000000: 0000 803f 0000 803f db0f 4940 0000 803f

6 f4 [1, 2, 1]
0.0 0.0
00000000: 0000 0000 0000 0000

7 f4 [1, 2, 1]
1.0 1.0
00000000: 0000 803f 0000 803f

8 f4 [1, 6, 1]
0.0 0.0 0.0 0.0 0.0 0.0
00000000: 0000 0000 0000 0000 0000 0000 0000 0000
00000010: 0000 0000 0000 0000

9 f4 [1, 6, 1]
1.0 1.0 1.0 1.0 1.0 1.0
00000000: 0000 803f 0000 803f 0000 803f 0000 803f
00000010: 0000 803f 0000 803f

37 f4 [9, 4, 1]
1.0102141 0.0150530515 0.044413973 0.14099516 -0.26637316 1.4459485 -0.42473298 0.71159226
0.7772646 0.53772235 0.1733989 -1.2863863 0.24630038 -0.14431502 -0.20426561 -1.6643506
0.13852865 0.18616658 -0.64468646 -0.24177843 0.25427184 -1.2946519 0.43442303 -0.40282485
-0.6002594 -0.75700104 -0.31850955 0.8630165 -1.4511374 -0.1600064 -0.067783706 0.716361
0.38540554 -1.5908103 0.057776723 0.15894876
00000000: b24e 813f 13a1 763c 6deb 353d 0961 103e
00000010: 1062 88be d714 b93f 9a76 d9be e92a 363f
00000020: d0fa 463f 2ca8 093f 7b8f 313e 4ea8 a4bf
00000030: 2b36 7c3e 51c7 13be 012b 51be 7109 d5bf
00000040: 74da 0d3e 74a2 3e3e 2c0a 25bf c494 77be
00000050: eb2f 823e 27b7 a5bf b26c de3e 0f3f cebe
00000060: 9aaa 19bf d2ca 41bf af13 a3be a6ee 5c3f
00000070: dfbe b9bf b8d8 23be 2fd2 8abd 6f63 373f
00000080: e053 c53e ac9f cbbf 49a7 6c3d 77c3 223e

38 f4 [9]
0.22729145 0.18466917 0.056335125 -0.22967225 -0.22609384 -0.30295002 -0.27358118 -0.104763344
-1.7292801
00000000: 17bf 683e ea19 3d3e a9bf 663d 342f 6bbe
00000010: 2585 67be 441c 9bbe d512 8cbe 2a8e d6bd
00000020: 0d59 ddbf

39 f4 [2]
1.5806197 0.73587465
00000000: bf51 ca3f 4862 3c3f

40 f4 [2]
0.45532018 0.84092665
00000000: ba1f e93e f846 573f

46 f4 [1, 2, 1]
182.45709 2.163487
00000000: 0475 3643 9276 0a40

47 f4 [1, 2, 1]
110.22976 0.94575363
00000000: a375 dc42 e91c 723f

48 f4 [9, 2, 1]
0.6360622 -1.3680708 -1.5156363 -0.2258801 -3.5923483 0.1591424 -0.106722794 0.06243841
0.25555304 0.06562266 0.74800044 -0.8579829 -0.24765977 -0.5795305 -0.38054037 -2.8658247
0.33464143 0.40876874
00000000: f9d4 223f f21c afbf 5f00 c2bf 1d4d 67be
00000010: 09e9 65c0 3af6 223e 7b91 dabd 6bbf 7f3d
00000020: d9d7 823e 2c65 863d f57c 3f3f c4a4 5bbf
00000030: 869a 7dbe 1c5c 14bf 30d6 c2be ac69 37c0
00000040: 1f56 ab3e 234a d13e

49 f4 [9]
1.119723 -0.7243902 1.0980095 -0.37477008 0.63280374 -0.8777975 -1.8761052 -0.3852633
-0.20393315
00000000: 1553 8f3f a371 39bf 938b 8c3f dde1 bfbe
00000010: 6dff 213f 56b7 60bf 3724 f0bf 3b41 c5be
00000020: dad3 50be

50 f4 [9, 9, 3]
-0.35630274 1.1182371 0.5729354 -0.02944826 0.80576783 -0.08578174 -0.078061774 0.22059532
-0.34292555 -1.1034712 0.56296736 -1.0252284 0.03577963 0.099164575 -2.7245464 0.15414082
-1.3025136 -3.0755403 -0.09024936 -0.30402163 -1.7987311 -0.22489277 -0.18299109 2.0749474
0.6048644 -0.04781925 -3.5421808 2.2853796 2.1996286 -0.41255862 0.9342081 -1.0998508
-0.5343934 1.015237 0.112185046 -0.029441576 -2.4260569 -0.5522236 -0.71321267 0.086789265
0.010772279 -0.20332246 -0.35735634 1.1559391 -1.4791795 -1.4026227 0.17634486 -1.0342653
-3.6485198 -1.0837075 1.8774145 0.46454492 1.3364758 -0.8170691 0.9206419 1.934793
-0.24780498 1.0562345 -0.8417048 -1.8621664 0.11779472 -3.9814267 -2.0819156 -0.6239786
1.6367598 1.7904589 0.02588311 -0.925652 -0.5256729 -1.2271463 0.44142196 -0.11159464
-0.7949615 1.1794488 -0.69569886 -1.4900166 1.3739377 -0.1415289 -1.6890868 -0.95971274
-0.63964564 0.7930341 0.50358564 0.2777858 0.6617904 -0.81025726 0.95213 -0.0869492
-0.38040334 4.0146613 -0.6310239 -1.6039535 0.7119525 0.29549298 -0.060715355 0.087548494
-0.34266418 0.8003543 -0.5537073 -0.9002027 0.67660147 -0.5447637 -0.8163849 -0.12657835
0.19417055 0.2487648 0.012769368 -0.5944574 0.281749 -2.6074378 -0.16030708 0.63617855
1.2949078 -2.5477684 -0.2549793 -0.16885553 -0.7737279 -0.09142737 -0.7045229 -1.9986544
0.043948207 0.38157102 -0.3146697 0.09924074 0.42443585 -2.7451723 0.53158385 1.5172677
-1.6165656 1.9644629 3.9158206 -1.4243942 -0.3447168 0.53602076 -1.1982638 1.0284419
0.28782073 -0.773451 -1.4549702 -1.8120983 -1.3206718 0.41497016 0.9664442 -2.5981607
0.5091678 1.1644093 -0.08132021 1.3300962 -0.9005295 1.1676315 -1.3416007 0.3175244
-0.7547489 -2.4932113 -2.1323094 0.16850327 -0.9617563 -1.538298 -0.32554436 0.2510604
1.5038743 0.8650501 -0.074219294 0.46013153 -2.1761196 0.3057327 -0.75868094 1.274557
0.03268656 -1.0596993 2.630526 -0.9722637 -1.2673737 3.6591334 0.23023504 0.9797486
0.016858838 -0.6644034 1.1096737 0.5021088 0.41022322 0.1263646 1.1101778 -1.1822648
-1.5117441 1.0647395 -0.70339286 0.16648349 0.36820978 -0.60252756 -1.4498835 -0.81231004
-1.0870299 0.21305051 0.82887965 -0.09480729 0.93432164 -1.8857704 0.042606812 1.0128385
1.3504754 -0.3537381 1.0316381 -0.7592395 1.5760714 -0.21103874 -0.026536351 -2.0767505
-1.1182482 -1.223552 0.40906036 -0.3892529 -2.353414 1.3398292 -0.101273544 -0.77698755
0.33382088 1.1378653 0.052056994 -0.42470804 -1.4866959 -1.8707004 0.046440143 -0.6703999
-1.8206704 0.667558 0.8249867 -0.7239354 0.13339363 -1.1980815 -0.49267837 0.35531032
0.9644618 -0.40050116 -0.4517984 -1.0254548 -0.12337585 -1.184327 -2.4647193 0.5350384
1.4153893 1.0779737 -1.1678091
00000000: 506d b6be 6522 8f3f e5ab 123f 7a3d f1bc
00000010: cd46 4e3f 56ae afbd dade 9fbd bde3 613e
00000020: f093 afbe 8b3e 8dbf a11e 103f af3a 83bf
00000030: a98d 123d cc16 cb3d f85e 2ec0 17d7 1d3e
00000040: c4b8 a6bf a7d5 44c0 a8d4 b8bd b9a8 9bbe
00000050: d23c e6bf 4a4a 66be 0462 3bbe f0cb 0440
00000060: 65d8 1a3f 1ede 43bd 17b3 62c0 a943 1240
00000070: b7c6 0c40 e23a d3be 4328 6f3f e9c7 8cbf
00000080: 02ce 08bf 49f3 813f 46c1 e53d 762f f1bc
00000090: 8444 1bc0 875e 0dbf 1b95 36bf 92be b13d
000000a0: 377e 303c c333 50be 69f7 b6be d0f5 933f
000000b0: c155 bdbf 2489 b3bf bf93 343e ce62 84bf
000000c0: 5981 69c0 edb6 8abf 1e4f f03f d5d8 ed3e
000000d0: a411 ab3f 712b 51bf 30af 6b3f 4ca7 f73f
000000e0: 97c0 7dbe b132 873f f779 57bf 785b eebf
000000f0: 5c3e f13d b2cf 7ec0 1b3e 05c0 10bd 1fbf
00000100: 5881 d13f c22d e53f d108 d43c 88f7 6cbf
00000110: 8092 06bf 2113 9dbf 0f02 e23e bb8b e4bd
00000120: 9982 4bbf 2ef8 963f 5219 32bf ddb8 bebf
00000130: 31dd af3f f4ec 10be ff33 d8bf bcaf 75bf
00000140: d1bf 23bf 4804 4b3f fdea 003f f139 8e3e
00000150: 186b 293f 056d 4fbf cbbe 733f 6c12 b2bd
00000160: 3ac4 c2be 1b78 8040 c88a 21bf 594e cdbf
00000170: 8542 363f db4a 973e aab0 78bd a04c b33d
00000180: ae71 afbe 05e4 4c3f c3bf 0dbf af73 66bf
00000190: c135 2d3f a275 0bbf 9afe 50bf c19d 01be
000001a0: a5d4 463e 33bc 7e3e 9c36 513c 5c2e 18bf
000001b0: 6841 903e 43e0 26c0 8a27 24be 99dc 223f
000001c0: 8abf a53f a30e 23c0 a68c 82be 77e8 2cbe
000001d0: 0813 46bf 463e bbbd 9d5b 34bf e8d3 ffbf
000001e0: 0903 343d 475d c33e 631c a1be bb3e cb3d
000001f0: a84f d93e e7b0 2fc0 e115 083f d435 c23f
00000200: 9feb cebf 8573 fb3f ce9c 7a40 8d52 b6bf
00000210: b87e b0be a838 093f b560 99bf fca3 833f
00000220: 3d5d 933e e200 46bf 773c babf d6f2 e7bf
00000230: c60b a9bf f876 d43e e368 773f 4448 26c0
00000240: d258 023f 5d0b 953f 368b a6bd 9840 aa3f
00000250: 1a89 66bf f374 953f 92b9 abbf 8f92 a23e
00000260: 3937 41bf c690 1fc0 c277 08c0 1f8c 2c3e
00000270: a935 76bf f3e6 c4bf c0ad a6be fd8a 803e
00000280: f47e c03f ec73 5d3f 4900 98bd 5c96 eb3e
00000290: 8b45 0bc0 ff88 9c3e ea38 42bf af24 a33f
000002a0: 58e2 053d 3aa4 87bf 8a5a 2840 46e6 78bf
000002b0: 4d39 a2bf 3e2f 6a40 bcc2 6b3e ced0 7a3f
000002c0: 8c1b 8a3c 5716 2abf ca09 8e3f 348a 003f
000002d0: c708 d23e b965 013e 4e1a 8e3f 7454 97bf
000002e0: d580 c1bf 6249 883f 8e11 34bf a67a 2a3e
000002f0: fe85 bc3e 3f3f 1abf c895 b9bf 8df3 4fbf
00000300: cc23 8bbf ea29 5a3e 7531 543f 532a c2bd
00000310: b42f 6f3f ed60 f1bf 7b84 2e3d b1a4 813f
00000320: 61dc ac3f 291d b5be b80c 843f 855d 42bf
00000330: b5bc c93f 8a1a 58be c362 d9bc 7be9 04c0
00000340: c222 8fbf 5a9d 9cbf 5c70 d13e 284c c7be
00000350: 569e 16c0 867f ab3f 8168 cfbd a8e8 46bf
00000360: 92ea aa3e 92a5 913f b739 553d 5573 d9be
00000370: 0d4c bebf 1c73 efbf 0538 3e3d 549f 2bbf
00000380: ba0b e9bf 15e5 2a3f 5432 533f d553 39bf
00000390: 5798 083e bc5a 99bf 5740 fcbe 3ceb b53e
000003a0: f8e6 763f 7d0e cdbe 1f52 e7be 1a42 83bf
000003b0: 7aac fcbd 0798 97bf f6bd 1dc0 47f8 083f
000003c0: 7a2b b53f 0bfb 893f c57a 95bf

51 f4 [9]
0.4387067 0.5624103 2.2171292 2.2895277 0.80834204 2.1443477 1.8496369 1.9332039
1.1816186
00000000: 2a9e e03e 1ffa 0f3f 72e5 0d40 9f87 1240
00000010: 81ef 4e3f fe3c 0940 e7c0 ec3f 3a73 f73f
00000020: 473f 973f

52 f4 [9]
-0.59381986 -1.1539907 -1.9386852 -0.7110826 -0.9691745 -0.41615838 -1.3306035 0.57764363
0.108161256
00000000: 9404 18bf f8b5 93bf d626 f8bf 8209 36bf
00000010: d21b 78bf b612 d5be 3751 aabf 74e0 133f
00000020: a683 dd3d

58 f4 [1, 9, 1]
-2.0095792 0.57938194 -3.1353092 6.5399675 0.017707856 -3.7215457 2.4132574 -4.13814
-4.3708057
00000000: f29c 00c0 6052 143f e8a8 48c0 6a47 d140
00000010: 1110 913c ce2d 6ec0 cf72 1a40 a56b 84c0
00000020: a4dd 8bc0

59 f4 [1, 9, 1]
3.911558 2.591754 4.780258 8.207096 3.2735283 6.3615 5.281533 3.613068
3.9386282
00000000: f756 7a40 4cdf 2540 e0f7 9840 4450 0341
00000010: 7d81 5140 6891 cb40 5102 a940 823c 6740
00000020: 7c12 7c40

60 f4 [9, 9, 1]
-0.97438073 -1.0877365 2.2072613 1.9853562 0.051496837 0.43179506 -1.0344405 -1.1027437
0.69650275 0.10277429 -2.8501153 -1.2913989 2.0804288 -0.6419561 2.0195792 0.7589915
-0.47026768 0.30386004 -0.92159265 -0.20783943 -1.2905171 -0.81622875 0.113437295 0.26741424
-0.40991548 3.8279684 -1.0244381 0.17735055 2.6617775 2.0880413 -1.3584667 -1.6264569
-0.8395968 0.20630102 0.42314333 0.70835656 0.16277677 -2.7671022 -1.6562186 0.79519546
-3.5927498 0.49427572 0.7573172 0.36749855 1.3920935 0.3138355 -3.0874493 -0.48454145
-0.22938254 -2.3772447 0.50017446 1.0536928 0.5622301 1.833869 0.10779745 -4.5121503
-1.0778631 0.4178575 -2.7623029 -1.1676196 -0.8353547 -0.2046774 -0.29653442 0.9420573
0.5183892 -2.7454515 -2.7668438 0.03149801 -0.74300444 -0.32024387 1.7460942 -0.14270419
-1.9031287 0.20841452 -0.2046357 -2.028384 -1.3333344 -0.07245955 1.1893836 2.9170997
-0.96646184
00000000: 0471 79bf f33a 8bbf c543 0d40 2720 fe3f
00000010: 59ee 523d 3e14 dd3e 8c68 84bf b526 8dbf
00000020: 014e 323f 547b d23d 4a68 36c0 8f4c a5bf
00000030: bf25 0540 3c57 24bf c940 0140 444d 423f
00000040: edc6 f0be 8b93 9b3e 7fed 6bbf dcd3 54be
00000050: aa2f a5bf 5ef4 50bf d051 e83d 85ea 883e
00000060: 71e0 d1be 6ffd 7440 ca20 83bf 629b 353e
00000070: 905a 2a40 78a2 0540 3de2 adbf bd2f d0bf
00000080: d1ef 56bf 9340 533e 3ea6 d83e db56 353f
00000090: f4ae 263e 3418 31c0 f9fe d3bf ee91 4b3f
000000a0: 9def 65c0 b511 fd3e 8adf 413f c528 bc3e
000000b0: 1f30 b23f 0caf a03e c598 45c0 d115 f8be
000000c0: 42e3 6abe c724 18c0 6f0b 003f 68df 863f
000000d0: 50ee 0f3f 38bc ea3f e9c4 dc3d 8963 90c0
000000e0: 6bf7 89bf 6bf1 d53e 92c9 30c0 8f74 95bf
000000f0: ced9 55bf f496 51be 5cd3 97be ab2a 713f
00000100: 28b5 043f 7ab5 2fc0 f813 31c0 0f04 013d
00000110: 8a35 3ebf 01f7 a3be 0480 df3f 0c21 12be
00000120: b999 f3bf 9e6a 553e 058c 51be 0bd1 01c0
00000130: b4aa aabf ac65 94bd b93d 983f c3b1 3a40
00000140: 0b6a 77bf

61 f4 [9]
0.19301736 0.98924804 0.6844877 0.71402323 0.24219826 0.009889368 0.305532 1.1290016
0.499756
00000000: 58a6 453e 5c3f 7d3f 963a 2f3f 3aca 363f
00000010: d202 783e 0407 223c b16e 9c3e 2083 903f
00000020: 05e0 ff3e

62 f4 [9]
0.0021311424 -0.22408667 -0.59080625 -0.926949 0.3785053 0.65827155 0.13245791 -0.69468385
0.019364262
00000000: a3aa 0b3b fa76 65be 143f 17bf 884c 6dbf
00000010: 72cb c13e 7c84 283f 0ca3 073e cdd6 31bf
00000020: cda1 9e3c

68 f4 [1, 9, 1]
-0.10498301 -0.7531802 0.037785262 0.75993156 -0.87955225 -1.025992 -0.87038326 -0.14119197
-0.051973745
00000000: 5501 d7bd 6bd0 40bf b8c4 1a3d e08a 423f
00000010: 562a 61bf b553 83bf 70d1 5ebf a194 10be
00000020: 6ce2 54bd

69 f4 [1, 9, 1]
1.2268208 2.3432124 1.24595 1.8196377 2.1270585 2.0275266 2.3530645 1.2371279
1.3331872
00000000: 7708 9d3f 31f7 1540 4a7b 9f3f e3e9 e83f
00000010: ba21 0840 ffc2 0140 9c98 1640 355a 9e3f
00000020: e1a5 aa3f

70 f4 [9, 9, 3]
0.8915817 1.4913311 0.29928255 0.1418161 -0.10807956 0.41827577 -1.0962957 -1.5138333
-0.42079484 -0.27938432 -0.34332508 -0.8300176 -0.34436423 0.3148274 0.2672311 1.3425115
1.1148367 -1.1084347 -0.06449623 0.40772566 -0.7333814 -0.14667773 -0.093283236 -1.7669202
-0.79577565 0.41585684 0.20235255 0.03274901 0.34438264 -0.15891078 1.0525404 -0.63692564
0.67773294 -0.5962053 -0.68826556 -1.0088004 -0.7073018 0.12507014 0.48471072 0.9916239
0.35633042 0.60143316 -0.2569146 -0.24758314 0.5022965 0.31299344 -0.14210992 -1.0512075
-0.35545182 -0.024794362 -0.6607818 -0.35471323 -0.19494882 -2.142636 0.97935176 0.047229666
0.9227007 -0.8736255 0.9132231 0.93720275 -0.6542875 0.40053904 -1.5049237 0.22166541
0.20337509 -0.6716719 -0.9099147 0.87574816 0.060216237 0.0103584835 0.4173549 -2.5835543
-0.45725727 0.96581995 -2.801879 -1.1763748 -0.86319906 0.24528164 0.67501837 0.7972066
-1.3896375 0.43014526 -1.2035912 -0.5072869 0.013660696 0.34823546 -0.23880558 0.57567656
0.46445817 -0.45275477 -1.3568367 -0.36200488 0.53701663 0.21500672 -0.042187486 0.92541903
0.9713162 0.8711667 -1.2584001 1.4181765 0.7896843 0.6110166 0.008803469 0.3870949
1.1480733 -0.39828774 -0.33047736 0.23738082 0.089272894 0.22868963 0.7973479 -0.23660855
0.16726398 -0.2986585 -1.5475183 -0.07283571 0.40080106 -0.30638596 0.6808515 -2.67
0.4689758 -0.23000003 -1.0320377 -0.19448616 -0.9183168 -1.4171251 -0.20208521 -0.344211
-1.4817917 0.23762015 0.2734634 0.55060524 -1.0700448 -0.97549415 0.2558491 -0.19608337
0.50649124 0.11655347 -1.0969222 0.859897 0.50492185 -0.3007103 -0.6183394 0.6808902
2.2913356 -2.4558434 0.2930225 -1.5121104 1.7144837 -0.84640014 -2.8062067 2.3409548
-0.22013472 -2.375127 1.9565477 0.92360973 -0.46471283 -0.13709085 0.118238814 -0.89883596
0.6243836 -1.5710154 -2.652629 0.37576562 -3.0583632 -0.46337274 0.8396555 -1.2477425
-1.3075874 -0.3708746 0.009301792 -0.13379331 0.72441 -0.5379841 0.31280568 0.42311066
-0.5508198 0.2631012 0.3970469 -1.9460084 0.21821867 -0.0034564668 -0.11781185 0.04861372
0.73970467 0.4285735 0.121876456 0.9228764 0.19095263 0.95674145 0.72003543 1.9450923
-0.17087963 -0.06736639 1.376785 -0.5960261 0.3119874 0.56478494 -0.5110892 0.41534314
0.42530054 0.13819602 -0.2195885 1.1111876 0.8401557 -0.26567984 -0.5835165 0.3979162
-0.12585326 -0.27057 0.2009354 -0.20298539 -0.087641105 -0.7365896 -0.36127603 -0.7205522
0.46640682 0.59394205 0.21612589 0.037289225 -0.15128416 0.4146075 0.3257385 -0.72900534
-0.55541396 0.15712734 -0.18588255 -1.1065304 0.39883834 -0.8886701 0.49798846 0.18960625
0.62261695 0.10977434 -0.19806966 0.11043359 -0.42430854 -1.7991723 -2.2340112 0.3381817
-0.987311 -0.6098633 -0.5209806
00000000: b33e 643f f0e3 be3f 903b 993e 3d38 113e
00000010: d158 ddbd 3e28 d63e 6b53 8cbf 4ac5 c1bf
00000020: 6c72 d7be 760b 8fbe 4ec8 afbe 097c 54bf
00000030: 8250 b0be 0f31 a13e 84d2 883e 6bd7 ab3f
00000040: f8b2 8e3f 30e1 8dbf 9916 84bd 6bc1 d03e
00000050: e2be 3bbf b032 16be 480b bfbd 712a e2bf
00000060: f4b7 4bbf 30eb d43e 8235 4f3e d323 063d
00000070: ec52 b03e 82b9 22be a5b9 863f 8f0d 23bf
00000080: e87f 2d3f e9a0 18bf 2c32 30bf 5f20 81bf
00000090: bb11 35bf 6312 003e 012c f83e 10db 7d3f
000000a0: f170 b63e 86f7 193f 4f8a 83be 6f86 7dbe
000000b0: 8196 003f ad40 a03e 4385 11be f88d 86bf
000000c0: c8fd b5be 8c1d cbbc ff28 29bf f99c b5be
000000d0: aaa0 47be f320 09c0 ccb6 7a3f e573 413d
000000e0: 1d36 6c3f eca5 5fbf fdc8 693f 85ec 6f3f
000000f0: 637f 27bf 7413 cd3e 57a1 c0bf 42fc 623e
00000100: 8f41 503e b1f2 2bbf 2bf0 68bf 0831 603f
00000110: 4da5 763d a1b6 293c 8baf d53e f458 25c0
00000120: a01d eabe fa3f 773f fc51 33c0 7393 96bf
00000130: 9dfa 5cbf 1c2b 7b3e 01ce 2c3f bb15 4c3f
00000140: a4df b1bf 003c dc3e 470f 9abf 8edd 01bf
00000150: 1dd1 5f3c eb4b b23e 7389 74be 8a5f 133f
00000160: 76cd ed3e 79cf e7be d3ac adbf b458 b9be
00000170: ec79 093f b92a 5c3e c9cc 2cbd 43e8 6c3f
00000180: 2ea8 783f c804 5f3f 4113 a1bf cf86 b53f
00000190: c028 4a3f 956b 1c3f 6d3c 103c 4d31 c63e
000001a0: 11f4 923f 5fec cbbe 5434 a9be f513 733e
000001b0: b5d4 b63d 9d2d 6a3e fe1e 4c3f 8349 72be
000001c0: 4047 2b3e c4e9 98be 1415 c6bf e42a 95bd
000001d0: cc35 cd3e 9fde 9cbe 494c 2e3f 48e1 2ac0
000001e0: 991d f03e 2185 6bbe d019 84bf 6127 47be
000001f0: cf16 6bbf 5b64 b5bf 6def 4ebe 6d3c b0be
00000200: 5aab bdbf b252 733e 6503 8c3e 77f4 0c3f
00000210: 3af7 88bf fcb9 79bf a7fe 823e 14ca 48be
00000220: 69a9 013f 96b3 ee3d f267 8cbf 3622 5c3f
00000230: 8f42 013f b3f6 99be 7e4b 1ebf d24e 2e3f
00000240: 3ea5 1240 8a2c 1dc0 0c07 963e d58c c1bf
00000250: 3474 db3f aead 58bf e498 33c0 34d2 1540
00000260: ff6a 61be 1502 18c0 2870 fa3f b071 6c3f
00000270: d7ee edbe 8b61 0cbe 3127 f23d 1d1a 66bf
00000280: 9bd7 1f3f 0817 c9bf acc4 29c0 5a64 c03e
00000290: 39bc 43c0 313f edbe aaf3 563f 07b6 9fbf
000002a0: 065f a7bf 47e3 bdbe 8b66 183c 1d01 09be
000002b0: ef72 393f 53b9 09bf 1128 a03e f6a1 d83e
000002c0: 8702 0dbf 33b5 863e bb49 cb3e ce16 f9bf
000002d0: b774 5f3e e485 62bb 5747 f1bd 2e1f 473d
000002e0: 495d 3d3f fc6d db3e 5d9a f93d a141 6c3f
000002f0: 1689 433e 02ed 743f 3e54 383f c9f8 f83f
00000300: 12fb 2ebe 64f7 89bd 7e3a b03f 2b95 18bf
00000310: d0bc 9f3e bf95 103f bed6 02bf dba7 d43e
00000320: fec0 d93e 4283 0d3e cfdb 60be 653b 8e3f
00000330: 7214 573f 3007 88be 5661 15bf acbb cb3e
00000340: addf 00be 2788 8abe 02c2 4d3e 67db 4fbe
00000350: 2e7d b3bd 2391 3cbf 2cf9 b8be 1c76 38bf
00000360: e0cc ee3e 960c 183f 1b50 5d3e 96bc 183d
00000370: 3cea 1abe 6f47 d43e 32c7 a63e 18a0 3abf
00000380: 9c2f 0ebf fde5 203e ff57 3ebe caa2 8dbf
00000390: 8a34 cc3e e27f 63bf 58f8 fe3e 2428 423e
000003a0: d363 1f3f 5fd1 e03d c6d2 4abe 022b e23d
000003b0: f83e d9be 474b e6bf 0afa 0ec0 2726 ad3e
000003c0: 6ac0 7cbf 0020 1cbf fc5e 05bf

71 f4 [9]
2.1293879 -0.73153 0.36677948 0.36853126 1.1045468 0.09590138 -0.87365615 1.4858532
0.5591585
00000000: e447 0840 8d45 3bbf 85ca bb3e 21b0 bc3e
00000010: ca61 8d3f f167 c43d eea7 5fbf 7030 be3f
00000020: 0325 0f3f

72 f4 [9, 9, 1]
-0.9195899 0.14079848 -0.053301536 0.13936615 0.33637345 0.43948555 3.1729693 0.8470564
0.20069638 0.23941223 0.31480926 0.4360818 0.5757093 1.1708335 0.64125377 -0.09586509
1.5739688 -1.7921889 0.49241495 -1.4584186 -0.1782881 -1.1368397 0.040263403 -0.48168805
1.7603542 -0.0026127894 0.7388928 1.4927884 0.5841686 0.15952611 1.5879143 -0.51562464
-0.091297336 -2.683059 -0.48837337 -0.3643986 0.35119978 -0.896605 0.07441654 0.3228653
1.0343877 -0.40340784 -0.958285 -0.20728303 -0.30362135 -0.12585354 -0.22545838 0.43144315
0.413928 0.11962155 3.2750378 1.1600709 -0.6584894 -0.43166977 -0.61905813 -3.030342
0.2863962 0.22782084 -0.19855592 1.1024315 -0.7522631 -3.5640652 0.86504066 -1.5822308
0.8164351 0.2986316 0.83376753 1.810503 0.5778521 -0.65060246 -0.3555383 -1.2526144
1.0459784 0.5818771 -2.1300395 0.49822137 1.0089841 -0.2322988 0.1455741 0.10001011
-0.41153756
00000000: 3e6a 6bbf 7a2d 103e b652 5abd 00b6 0e3e
00000010: 2439 ac3e 4004 e13e ee11 4b40 b0d8 583f
00000020: 5a83 4d3e 7b28 753e ae2e a13e 1d46 df3e
00000030: af61 133f dfdd 953f 3529 243f eb54 c4bd
00000040: cf77 c93f 7266 e5bf d01d fc3e 76ad babf
00000050: 2891 36be f783 91bf 3deb 243d d19f f6be
00000060: 4953 e13f 553b 2bbb 1428 3d3f b113 bf3f
00000070: 138c 153f d05a 233e c740 cb3f faff 03bf
00000080: 19fa babd 3db7 2bc0 130c fabe 7492 babe
00000090: 75d0 b33e e887 65bf b367 983d 9a4e a53e
000000a0: d166 843f 798b cebe 2a52 75bf 0142 54be
000000b0: 4274 9bbe c0df 00be 90de 66be 1ee6 dc3e
000000c0: 5fee d33e 25fc f43d 389a 5140 347d 943f
000000d0: c392 28bf d203 ddbe 987a 1ebf 20f1 41c0
000000e0: 86a2 923e de49 693e 3e52 4bbe 7a1c 8d3f
000000f0: 5194 40bf a519 64c0 4e73 5d3f 8a86 cabf
00000100: e401 513f 3ee6 983e ca71 553f 90be e73f
00000110: 1dee 133f e28d 26bf 1e09 b6be ab55 a0bf
00000120: 9fe2 853f e6f5 143f 9152 08c0 df16 ff3e
00000130: 6426 813f bddf 6dbe 6011 153e 1ad2 cc3d
00000140: 0db5 d2be

73 f4 [9]
3.983993 2.905956 -0.9531954 0.47800872 1.5744752 -1.0019463 -0.7784724 -1.4802947
1.1711857
00000000: bef9 7e40 2ffb 3940 9d04 74bf 8fbd f43e
00000010: 6788 c93f c73f 80bf f849 47bf 4c7a bdbf
00000020: 6ae9 953f

74 f4 [6]
0.85717666 0.8529711 0.66358536 0.2667592 0.946268 0.57050943
00000000: ee6f 5b3f 505c 5a3f bbe0 293f a994 883e
00000010: 9f3e 723f e80c 123f

75 f4 [6]
-0.41942656 -0.14937437 -0.1253098 0.15239714 0.16829321 0.09065747
00000000: 14bf d6be 98f5 18be 3651 00be ff0d 1c3e
00000010: 0e55 2c3e a0aa b93d

81 f4 [1, 6, 1]
2.577344 488.27887 3.5319092 1.2387779 4.9653196 2016.9417
00000000: 34f3 2440 b223 f443 cd0a 6240 4690 9e3f
00000010: e6e3 9e40 221e fc44

82 f4 [1, 6, 1]
0.88861805 178.85199 3.1399632 3.5255632 1.0144869 0.8808281
00000000: 797c 633f 1cda 3243 28f5 4840 d4a2 6140
00000010: b5da 813f f37d 613f

83 f4 [9, 6, 1]
-0.12997293 -1.201235 0.10405497 -0.18797982 1.0597463 1.0121757 -1.0681916 -0.14096744
-0.10925211 -0.4657335 -0.4513877 0.0456312 0.61312926 0.3880409 0.42432544 0.41057977
-1.6490465 -0.8679148 -0.37306765 -1.9572726 -0.9430236 0.5249445 -0.20100787 -1.3863717
1.9077188 -0.6166104 -0.38007858 -0.4949833 -1.5172001 0.76385 0.50747776 -0.38085145
-0.7933422 0.6367526 -0.050938632 1.4255956 1.0332872 0.39405695 0.18315817 -0.49079975
0.8437552 -0.68334895 0.5776447 0.8962135 -0.50841284 -0.13070022 -0.44278595 -0.24251002
-0.06565952 -0.024393374 2.640106 1.778776 -0.0868934 0.14924848
00000000: a017 05be 12c2 99bf c61a d53d c87d 40be
00000010: c4a5 873f f98e 813f 81ba 88bf c559 10be
00000020: 92bf dfbd 9f74 eebe 4a1c e7be c8e7 3a3d
00000030: 0af6 1c3f 4cad c63e 2f41 d93e 8337 d23e
00000040: f513 d3bf aa2f 5ebf b902 bfbe e987 fabf
00000050: ff69 71bf c362 063f 02d5 4dbe a174 b1bf
00000060: 2130 f43f 2eda 1dbf a999 c2be 736e fdbe
00000070: 9d33 c2bf ac8b 433f 10ea 013f f6fe c2be
00000080: 7918 4bbf 3802 233f 07a5 50bd eb79 b63f
00000090: c142 843f d5c1 c93e d18d 3b3e 1b4a fbbe
000000a0: 5700 583f f5ef 2ebf 86e0 133f 3f6e 653f
000000b0: 5827 02bf 47d6 05be d7b4 e2be 8c54 78be
000000c0: 8078 86bd 9dd4 c7bc 7ff7 2840 efae e33f
000000d0: 2bf5 b1bd 98d4 183e

84 f4 [9]
0.28216293 0.83189654 0.269994 -0.14719333 0.89334875 1.890353 0.30509397 0.02664631
0.5361124
00000000: a977 903e 2cf7 543f a73c 8a3e d9b9 16be
00000010: 81b2 643f 16f7 f13f 4735 9c3e 5d49 da3c
00000020: aa3e 093f

85 f4 [9, 1, 2]
0.5 0.5 0.5 0.5 0.5 0.5 0.5 0.5
0.5 0.5 0.5 0.5 0.5 0.5 0.5 0.5
0.5 0.5
00000000: 0000 003f 0000 003f 0000 003f 0000 003f
00000010: 0000 003f 0000 003f 0000 003f 0000 003f
00000020: 0000 003f 0000 003f 0000 003f 0000 003f
00000030: 0000 003f 0000 003f 0000 003f 0000 003f
00000040: 0000 003f 0000 003f

86 f4 [9, 1, 2]
0.5 -0.5 0.5 -0.5 0.5 -0.5 0.5 -0.5
0.5 -0.5 0.5 -0.5 0.5 -0.5 0.5 -0.5
0.5 -0.5
00000000: 0000 003f 0000 00bf 0000 003f 0000 00bf
00000010: 0000 003f 0000 00bf 0000 003f 0000 00bf
00000020: 0000 003f 0000 00bf 0000 003f 0000 00bf
00000030: 0000 003f 0000 00bf 0000 003f 0000 00bf
00000040: 0000 003f 0000 00bf

87 f4 [9, 9, 3]
0.29723495 -2.3246787 -1.0197818 0.35694066 -1.8509374 -3.4324498 -0.45680845 1.3663273
-2.8351126 -0.3684038 0.3263789 -0.71407175 0.76085764 0.6405686 -3.4936066 1.8059678
0.19142129 -1.1665555 3.7987666 -4.868478 2.048551 1.5298558 0.02916287 3.3122559
1.2263565 -0.55550134 0.3312744 -0.18614884 0.7233305 -0.68420166 0.041533146 3.4757798
-3.4644554 -0.042037204 -1.7507519 1.4882163 -0.7396295 0.33328196 0.41996306 -0.07070349
1.5953442 0.50119764 -1.1897238 -0.21975596 0.583969 1.6556523 -1.2130516 3.0477037
-0.055070512 0.564016 1.115686 1.2898797 2.0437129 -0.4975363 -0.006159687 -1.1015598
-0.67758375 0.1817366 1.3598729 0.19745216 0.29722774 -1.0694746 3.6757088 0.32152635
-1.6540538 -0.22244579 -1.3636549 -0.83131576 3.9473872 1.0993369 -0.84542036 2.5665953
1.7148316 -3.274336 -2.8120081 -1.2588156 0.67127603 1.3563231 -0.14079292 -0.7308209
-2.0938826 -0.9354089 -0.36926246 -4.409332 -0.2293276 -0.18011373 -1.7979642 -0.62535745
0.08509609 2.8232563 0.188403 0.07530483 0.9027587 -0.35364756 -0.15420198 0.21957865
0.5820031 0.40419996 -5.0160728 -5.366952 6.9156756 5.3047423 -0.11723391 0.13137399
3.921794 -0.037381798 0.11526299 0.26563472 0.21025747 1.1542653 0.02652955 -2.19872
2.8165946 -0.44233027 -0.9306525 -0.6787552 0.36394507 -0.12840359 -1.106637 0.22926366
0.31355083 0.10995845 -1.0996814 1.5795174 0.56712824 -1.7637051 -2.864187 3.6015725
0.5143413 -0.1864141 0.31223932 2.039115 0.6194646 0.5495334 1.7085367 0.42966625
-0.43606612 -1.5543014 -1.6303018 0.28412178 -0.7107987 -0.48076963 -1.5034566 0.73832804
0.24275893 1.8590547 -1.1670636 1.1114303 -0.18096393 -1.7627057 -0.058334652 0.76458466
-3.628863 -0.1114261 3.2657802 -0.9455505 -1.364707 -0.20323753 2.3330457 1.3140401
0.9059507 1.9651674 -0.32138097 -4.002983 0.7392258 0.09240916 -0.26680306 -1.2529027
-0.070141144 0.21699297 2.7316985 0.53338546 -2.5148647 -0.09313164 -0.9673945 -0.07795005
4.8495617 -0.22549398 0.6417179 0.16803254 4.848189 -9.9075 -4.402242 0.4617075
0.8560741 2.163104 0.031994514 0.007641384 -0.22692065 -0.5020339 2.1748726 -2.0481052
1.3697367 -0.8863312 -0.042121153 0.409643 1.4497309 0.5581469 -0.46144068 2.4534192
-1.9525621 0.37928426 0.006844418 -0.0011304936 0.47462803 0.67762107 1.4938618 1.3000436
-1.4184673 0.5422818 1.3062184 0.47747666 -4.408686 -1.3475794 -1.5808371 -0.27650678
0.09013719 -0.70621336 0.83082837 -0.042311832 -0.033564158 -2.9125504 0.49273685 -0.20979513
-3.2275674 -0.38304695 0.0921495 -0.69622725 -0.07239655 0.3154626 -0.6034146 0.85800683
-0.415072 -1.7574474 0.19393663 -0.620296 -1.0501924 -0.3236803 0.16281946 0.49995473
-0.11350448 -0.48204562 -8.258798
00000000: 2e2f 983e 89c7 14c0 3688 82bf edc0 b63e
00000010: 84eb ecbf 42ad 5bc0 cce2 e9be d0e3 ae3f
00000020: 7c72 35c0 6c9f bcbe 231b a73e 68cd 36bf
00000030: 91c7 423f 4efc 233f 4097 5fc0 f429 e73f
00000040: f103 443e b151 95bf fe1e 7340 92ca 9bc0
00000050: 761b 0340 51d2 c33f f9e6 ee3c 00fc 5340
00000060: 40f9 9c3f 5635 0ebf cc9c a93e cd9d 3ebe
00000070: 302c 393f d727 2fbf a91e 2a3d 2d73 5e40
00000080: a3b9 5dc0 342f 2cbd a318 e0bf df7d be3f
00000090: 5c58 3dbf efa3 aa3e 6605 d73e fecc 90bd
000000a0: 3d34 cc3f 7d4e 003f df48 98bf b507 61be
000000b0: fe7e 153f 6aec d33f 4645 9bbf 940d 4340
000000c0: 9e91 61bd 5a63 103f cdce 8e3f c71a a53f
000000d0: 31cc 0240 14bd febe 33d7 c9bb e9ff 8cbf
000000e0: 2176 2dbf 2919 3a3e 5110 ae3f e630 4a3e
000000f0: 3c2e 983e 8be4 88bf d03e 6b40 1a9f a43e
00000100: 09b8 d3bf d4c8 63be 3e8c aebf 1cd1 54bf
00000110: fea1 7c40 12b7 8c3f 786d 58bf 1943 2440
00000120: 9a7f db3f b98e 51c0 f1f7 33c0 df20 a1bf
00000130: bfd8 2b3f ff9b ad3f 052c 10be 1417 3bbf
00000140: 2c02 06c0 f576 6fbf f80f bdbe 3f19 8dc0
00000150: dbd4 6abe bc6f 38be b123 e6bf 6d17 20bf
00000160: dc46 ae3d 3bb0 3440 b7ec 403e 6b39 9a3d
00000170: 321b 673f 4b11 b5be 20e7 1dbe 3ad9 603e
00000180: 28fe 143f 4cf3 ce3e ab83 a0c0 12be abc0
00000190: 374d dd40 73c0 a940 5518 f0bd e786 063e
000001a0: acfe 7a40 a81d 19bd 010f ec3d 4601 883e
000001b0: bc4d 573e f7be 933f 8054 d93c d4b7 0cc0
000001c0: 1643 3440 1d79 e2be 3e3f 6ebf e7c2 2dbf
000001d0: 0257 ba3e 3b7c 03be 48a6 8dbf 18c4 6a3e
000001e0: bc89 a03e e531 e13d 5cc2 8cbf a02d ca3f
000001f0: 512f 113f 17c1 e1bf d74e 37c0 2a80 6640
00000200: dfab 033f 56e3 3ebe d5dd 9f3e dc80 0240
00000210: 3b95 1e3f 39ae 0c3f 55b1 da3f 37fd db3e
00000220: 0f44 dfbe 59f3 c6bf bbad d0bf 6978 913e
00000230: e7f6 35bf 7027 f6be 4471 c0bf 1103 3d3f
00000240: cc95 783e 81f5 ed3f 5762 95bf 5943 8e3f
00000250: 9c4e 39be 57a0 e1bf 51f0 6ebd d2bb 433f
00000260: 4b3f 68c0 5e33 e4bd 8b02 5140 990f 72bf
00000270: b8ae aebf 801d 50be 9f50 1540 7732 a83f
00000280: 63ec 673f 9b8a fb3f 0c8c a4be 7018 80c0
00000290: e73d 3d3f 0441 bd3d 699a 88be 1e5f a0bf
000002a0: 29a6 8fbd 6833 5e3e 26d4 2e40 f38b 083f
000002b0: 8bf3 20c0 cdbb bebd 2aa7 77bf 47a4 9fbd
000002c0: 9c2f 9b40 e5e7 66be a047 243f b910 2c3e
000002d0: 5d24 9b40 1f85 1ec1 2bdf 8cc0 ed64 ec3e
000002e0: ac27 5b3f 4c70 0a40 ae0c 033d 9364 fa3b
000002f0: e35d 68be 4b85 00bf 1d31 0b40 2814 03c0
00000300: 8853 af3f 9ae6 62bf 3b87 2cbd babc d13e
00000310: c890 b93f b7e2 0e3f f441 ecbe d204 1d40
00000320: 8eed f9bf 8c31 c23e 2447 e03b 122d 94ba
00000330: 7202 f33e 9378 2d3f dd36 bf3f d467 a63f
00000340: 5690 b5bf fbd2 0a3f 2a32 a73f d277 f43e
00000350: f513 8dc0 7b7d acbf df58 cabf 4c92 8dbe
00000360: d999 b83d 66ca 34bf 2bb1 543f 2c4f 2dbd
00000370: 927a 09bd 3a67 3ac0 0148 fc3e 89d4 56be
00000380: 7790 4ec0 bb1e c4be e1b8 bc3d f33b 32bf
00000390: a444 94bd 5084 a13e 6179 1abf 56a6 5b3f
000003a0: 5184 d4be 09f4 e0bf 5397 463e b8cb 1ebf
000003b0: b46c 86bf 6db9 a5be 25ba 263e 11fa ff3e
000003c0: 0975 e8bd afce f6be 0924 04c1

88 f4 [9]
1.731921 2.073084 1.3469481 2.6458197 1.9069172 2.65648 2.247828 1.8613724
0.98629874
00000000: 96af dd3f 69ad 0440 cc68 ac3f 1c55 2940
00000010: dd15 f43f c503 2a40 6adc 0f40 7341 ee3f
00000020: 137e 7c3f

89 f4 [9]
-0.42519972 -0.43507823 -1.5494483 0.07763604 -0.40557045 -0.11354003 -0.24589968 -1.0254812
-0.74703604
00000000: c7b3 d9be 93c2 debe 5254 c6bf a5ff 9e3d
00000010: eea6 cfbe ad87 e8bd 20cd 7bbe f842 83bf
00000020: c13d 3fbf

95 f4 [1, 9, 1]
-0.79062384 11.976241 -3.7086966 -18.767624 -2.9825468 4.3191648 -7.053395 -0.47099805
-18.66462
00000000: 5366 4abf af9e 3f41 495b 6dc0 1824 96c1
00000010: 0ce2 3ec0 9936 8a40 69b5 e1c0 a826 f1be
00000020: 2451 95c1

96 f4 [1, 9, 1]
9.842212 12.003547 10.17713 12.882425 14.181029 18.627254 9.521798 15.114738
9.464337
00000000: b379 1d41 870e 4041 86d5 2241 6a1e 4e41
00000010: 7fe5 6241 9e04 9541 4959 1841 f8d5 7141
00000020: ed6d 1741

97 f4 [9, 9, 1]
-0.8872994 0.34110558 -0.013741705 -2.1375637 0.97614473 3.7678914 1.1694635 1.9421828
-0.26105392 1.5097922 1.088477 1.0716825 -0.40383694 -1.4949164 0.0039851423 -0.9258948
-0.87200236 -1.3662844 0.18762629 -0.87392426 1.0563197 0.979463 -0.94696033 -3.4240565
-2.6134706 -1.691079 1.413529 -1.1485755 1.3671881 -1.1670552 -2.559875 -0.6470591
0.83966845 1.099944 1.1161382 0.6217246 -0.025631046 -0.19566506 2.4614842 1.6185458
-0.6011054 -1.109161 1.9549304 -0.780059 -1.285671 0.20684963 -1.764749 0.8460511
0.42941222 0.86684215 -1.0263495 1.9577973 -3.8127115 0.095222674 -1.3576635 -0.8429667
0.5816339 -1.4476686 -2.0102615 -1.1405054 -2.0148983 1.934417 0.32765922 1.7169605
2.436519 -0.22156616 -0.58121026 -0.6054277 2.634032 0.5231742 -0.5494989 0.13293175
-0.48365277 -0.6819211 0.905053 -0.76969975 4.506547 -0.5137943 -0.34165385 -0.9965497
-0.22517103
00000000: 0e26 63bf 64a5 ae3e e324 61bc d8cd 08c0
00000010: 9fe4 793f 2225 7140 fbb0 953f 7299 f83f
00000020: dca8 85be df40 c13f 3753 8b3f e42c 893f
00000030: b7c3 cebe 6c59 bfbf cc95 823b 7107 6dbf
00000040: 8c3b 5fbf 68e2 aebf 1b21 403e 80b9 5fbf
00000050: 7c35 873f 16be 7a3f fe6b 72bf be23 5bc0
00000060: 1a43 27c0 4775 d8bf 85ee b43f 8604 93bf
00000070: 0500 af3f 1162 95bf fed4 23c0 aaa5 25bf
00000080: 83f4 563f f7ca 8c3f 9edd 8e3f 5829 1f3f
00000090: 33f8 d1bc 6c5c 48be f588 1d40 822c cf3f
000000a0: 0be2 19bf fdf8 8dbf 293b fa3f f2b1 47bf
000000b0: de90 a4bf 64d0 533e 4ce3 e1bf ce96 583f
000000c0: ebdb db3e 5ee9 5d3f 6c5f 83bf 1a99 fa3f
000000d0: 7703 74c0 1b04 c33d ebc7 adbf aacc 57bf
000000e0: f6e5 143f 344d b9bf 20a8 00c0 15fc 91bf
000000f0: 18f4 00c0 fa9a f73f f3c2 a73e 5dc5 db3f
00000100: edef 1b40 3de2 62be 32ca 14bf 4ffd 1abf
00000110: fb93 2840 bfee 053f f6ab 0cbf 431f 083e
00000120: 56a1 f7be 6292 2ebf 8eb1 673f 0b0b 45bf
00000130: a235 9040 0688 03bf 41ed aebe e21d 7fbf
00000140: 3c93 66be

98 f4 [9]
0.76507497 0.49778247 1.1970866 1.4132392 0.8501725 1.7630833 0.67480874 0.71491843
1.640559
00000000: f4db 433f 58dd fe3e 223a 993f 06e5 b43f
00000010: e8a4 593f b7ac e13f 44c0 2c3f e504 373f
00000020: d6fd d13f

99 f4 [9]
1.0395452 -0.14000739 0.4784257 -1.5079817 0.36868602 0.9880045 0.23706956 0.9578372
0.04494496
00000000: d10f 853f 195e 0fbe 37f4 f43e 8b05 c1bf
00000010: 6ac4 bc3e dded 7c3f 5dc2 723e d234 753f
00000020: 3518 383d

105 f4 [1, 9, 1]
-13.155312 -4.5222945 4.1138515 -21.116924 2.745893 -1.2396202 -34.238934 16.688646
13.192935
00000000: 287c 52c1 a3b6 90c0 aca4 8340 76ef a8c1
00000010: b6bc 2f40 e0ab 9ebf abf4 08c2 5982 8541
00000020: 4316 5341

106 f4 [1, 9, 1]
15.271234 17.61511 15.179552 15.279718 10.955215 18.507738 11.117863 20.401728
21.761827
00000000: f956 7441 bfeb 8c41 72df 7241 ba79 7441
00000010: 9048 2f41 d90f 9441 c4e2 3141 bd36 a341
00000020: 3918 ae41

107 f4 [9, 1, 2]
0.5 0.5 0.5 0.5 0.5 0.5 0.5 0.5
0.5 0.5 0.5 0.5 0.5 0.5 0.5 0.5
0.5 0.5
00000000: 0000 003f 0000 003f 0000 003f 0000 003f
00000010: 0000 003f 0000 003f 0000 003f 0000 003f
00000020: 0000 003f 0000 003f 0000 003f 0000 003f
00000030: 0000 003f 0000 003f 0000 003f 0000 003f
00000040: 0000 003f 0000 003f

108 f4 [9, 1, 2]
0.5 -0.5 0.5 -0.5 0.5 -0.5 0.5 -0.5
0.5 -0.5 0.5 -0.5 0.5 -0.5 0.5 -0.5
0.5 -0.5
00000000: 0000 003f 0000 00bf 0000 003f 0000 00bf
00000010: 0000 003f 0000 00bf 0000 003f 0000 00bf
00000020: 0000 003f 0000 00bf 0000 003f 0000 00bf
00000030: 0000 003f 0000 00bf 0000 003f 0000 00bf
00000040: 0000 003f 0000 00bf

109 f4 [9, 9, 3]
0.07204495 0.8264756 -0.5874094 -0.006186419 -1.8863513 -0.7255065 0.48359513 -0.8851258
-3.601832 0.58943677 -1.0447975 0.6311176 -0.11017158 -1.2165154 0.67550915 -1.8543936
-1.0453782 0.54518276 -1.0205334 1.3582395 -0.4974491 -0.32909724 0.921532 1.6478007
-1.4324276 -1.8166827 1.2209105 1.4104176 0.57755756 0.53788453 0.376934 1.1018362
-1.3230759 0.5003152 -1.3031608 -0.089945406 0.6164414 1.7088594 0.12125069 0.45758522
1.2087432 -0.72384727 -0.22796011 -0.4622067 -0.35855702 -2.0281463 -2.8129356 0.6995089
0.034459498 0.5418402 -1.0063846 0.35573032 0.4568827 0.18976672 1.160254 0.38641205
-0.22829343 0.34578913 -0.2557791 -0.055411335 2.683168 0.6152714 -0.21750627 -0.45885664
-0.779454 -0.81631815 -2.1236389 0.33491796 -0.76118207 -2.983081 0.10598596 -1.5100243
-1.4780556 -5.170552 0.9119205 -0.2563706 -0.16990803 -1.0483735 -2.1170661 0.9144977
1.2053162 1.9442929 0.09090537 -0.022129294 0.22810087 1.9522917 -0.7749951 -0.19135071
-0.13567409 -0.73923725 -0.9608288 -0.052321758 -0.5923035 -0.056295205 1.1150713 -0.23225772
-0.8010039 -0.26064128 0.0022636536 1.0720495 -1.2716743 1.6278045 0.032222606 0.21409799
-0.90473485 0.05208801 0.24276936 0.32058385 0.7700202 -0.9194732 0.14744785 -0.22318015
0.77555585 -1.2944827 -0.032928824 -0.2932911 1.3734441 -1.839626 0.18018265 -0.09073493
1.3357508 0.45472616 -1.579811 1.6933097 -0.18120477 -0.39675593 3.195104 -1.100097
-0.24571495 0.14936909 0.65314955 -0.73251754 1.1224437 1.6961464 1.0678984 -0.2967172
0.10013603 1.0908027 -0.59773004 -0.69070625 -0.47521815 -1.1333311 -0.88961434 -1.4514308
-0.99808115 -0.15007779 0.25783217 -0.62453055 0.73542273 -0.57108355 -1.2850964 -0.99618644
0.7408195 1.2960287 1.3044227 0.770967 -0.21822922 -1.1385508 -1.4304852 -0.72831863
-1.3047912 -2.199368 0.59550524 -0.45015612 0.26156917 0.5476431 -0.14164971 0.49298435
-0.03187107 -0.00492707 -1.3361026 0.07336546 0.11727653 -0.6924786 0.53794074 -0.637452
-0.36942217 -0.6905281 0.12727943 -0.6783881 -7.500081 -6.2332106 -0.276988 -0.69272894
-0.044711143 0.006474347 0.30776247 -0.6037752 -6.211514 -0.25417158 0.78898567 -3.3104753
0.50268835 -1.1943499 -1.4925961 0.12171587 0.1005172 0.16058315 0.46201035 -0.15860231
0.20451887 -0.42483434 -0.40279663 -1.9672409 -0.9522862 1.1730251 -0.7772597 -0.24995686
-2.82671 0.81805396 -0.10836668 -7.0600324 0.64360005 0.33917284 -0.3874895 0.39559343
-0.89648265 -0.4870384 0.052214846 0.2494046 2.111085 -0.40976647 0.089959614 -1.3991461
0.50146085 0.69622225 0.9449458 0.85004497 1.2348928 2.3616457 -1.2730308 2.2732728
-0.6577936 -2.814854 3.6021445 -0.71542495 1.0661331 0.63379467 0.28414863 0.0773689
-1.3770436 -0.31407243 -0.8457118
00000000: 4e8c 933d e893 533f 7660 16bf 72b7 cabb
00000010: f673 f1bf cbba 39bf c899 f73e 9b97 62bf
00000020: 6a84 66c0 54e5 163f edbb 85bf ec90 213f
00000030: a3a1 e1bd c7b6 9bbf 2bee 2c3f c55c edbf
00000040: f4ce 85bf 1991 0b3f d7a0 82bf cbda ad3f
00000050: a6b1 febe 6f7f a8be 85e9 6b3f 22eb d23f
00000060: ca59 b7bf 0f89 e8bf cc46 9c3f 9088 b43f
00000070: d0da 133f cdb2 093f 7efd c03e f808 8d3f
00000080: 8d5a a9bf a814 003f f9cd a6bf 4c35 b8bd
00000090: 1bcf 1d3f e8bb da3f 4852 f83d 9c48 ea3e
000000a0: 19b8 9a3f 0e4e 39bf 606e 69be 5ba6 ecbe
000000b0: c994 b7be 26cd 01c0 2307 34c0 0413 333f
000000c0: 6725 0d3d 0ab6 0a3f 36d1 80bf 4922 b63e
000000d0: 87ec e93e 3552 423e 3483 943f cdd7 c53e
000000e0: c1c5 69be 460b b13e 7af5 82be fff6 62bd
000000f0: 06b9 2b40 6d82 1d3f f7b9 5ebe 42ef eabe
00000100: 4c8a 47bf 3afa 50bf b3e9 07c0 5e7a ab3e
00000110: d4dc 42bf cdea 3ec0 2b0f d93d 7a48 c1bf
00000120: ed30 bdbf 2975 a5c0 9f73 693f 0243 83be
00000130: 5ffc 2dbe 1a31 86bf 037e 07c0 851c 6a3f
00000140: cd47 9a3f 97de f83f 982c ba3d 7e48 b5bc
00000150: 4693 693e b2e4 f93f 1466 46bf 71f1 43be
00000160: 26ee 0abe a73e 3dbf e0f8 75bf 574f 56bd
00000170: 34a1 17bf cd95 66bd a8ba 8e3f f8d4 6dbe
00000180: 970e 4dbf c672 85be ce59 143b eb38 893f
00000190: 39c6 a2bf e65b d03f dafb 033d 813c 5b3e
000001a0: b49c 67bf 3d5a 553d 8898 783e 9123 a43e
000001b0: 0b20 453f 9862 6bbf 92fc 163e 5689 64be
000001c0: d48a 463f 9cb1 a5bf 60e0 06bd 402a 96be
000001d0: 04cd af3f dd78 ebbf cd81 383e 3cd3 b9bd
000001e0: e2f9 aa3f ded1 e83e 3f37 cabf 5fbe d83f
000001f0: be8d 39be 9823 cbbe 957c 4c40 facf 8cbf
00000200: b39c 7bbe 36f4 183e cf34 273f 4586 3bbf
00000210: 3cac 8f3f 531b d93f e5b0 883f 51eb 97be
00000220: 1e14 cd3d 6c9f 8b3f d604 19bf 20d2 30bf
00000230: cb4f f3be fe10 91bf c4bd 63bf 7cc8 b9bf
00000240: 3f82 7fbf fead 19be 9402 843e 3ce1 1fbf
00000250: aa44 3c3f 8832 12bf 0a7e a4bf 1306 7fbf
00000260: 59a6 3d3f 45e4 a53f 53f7 a63f 185e 453f
00000270: 7b77 5fbe 08bc 91bf 241a b7bf 1773 3abf
00000280: 6603 a7bf 72c2 0cc0 0873 183f dd7a e6be
00000290: 65ec 853e 5732 0c3f 9f0c 11be 7268 fc3e
000002a0: 3d8b 02bd 4273 a1bb 6905 abbf a140 963d
000002b0: ad2e f03d 4746 31bf 7cb6 093f 0e30 23bf
000002c0: e724 bdbe 73c6 30bf 8a55 023e d8aa 2dbf
000002d0: aa00 f0c0 7676 c7c0 5fd1 8dbe af56 31bf
000002e0: 0823 37bd c226 d43b 0b93 9d3e 0391 1abf
000002f0: b9c4 c6c0 c722 82be f7fa 493f d4de 53c0
00000300: 2fb0 003f 75e0 98bf 640d bfbf 2c46 f93d
00000310: f6db cd3d e96f 243e 9f8c ec3e a568 22be
00000320: 656d 513e e383 d9be 5c3b cebe 8dce fbbf
00000330: 07c9 73bf b025 963f 7efa 46bf b1f4 7fbe
00000340: d1e8 34c0 fc6b 513f 5aef ddbd c9eb e1c0
00000350: f9c2 243f 10a8 ad3e 0665 c6be 398b ca3e
00000360: e37f 65bf 195d f9be 3cdf 553d eb63 7f3e
00000370: 041c 0740 e9cc d1be bf3c b83d 3817 b3bf
00000380: bd5f 003f 9f3b 323f f8e7 713f 8c9c 593f
00000390: f810 9e3f 3425 1740 acf2 a2bf 4d7d 1140
000003a0: 2965 28bf 9126 34c0 8989 6640 1726 37bf
000003b0: 0d77 883f 5e40 223f ee7b 913e 9673 9e3d
000003c0: f742 b0bf 1ace a0be 9280 58bf

110 f4 [9]
0.49783254 2.3129733 1.4156059 -0.47484967 -2.0643055 -0.6401704 0.24921809 0.33086228
-0.20474352
00000000: e8e3 fe3e c107 1440 9332 b53f 7f1f f3be
00000010: 951d 04c0 35e2 23bf 0733 7f3e c866 a93e
00000020: 49a8 51be

111 f4 [9, 9, 1]
-2.2738361 1.5829141 0.99170405 -0.11123206 0.039238926 0.31501347 -0.856058 -3.7118757
0.90746 -0.014288557 -3.511187 -0.7455122 -0.9138221 0.121201575 -1.6128235 0.3852676
1.4339868 -0.62403977 0.27879843 -0.11321684 -5.511718 -0.4414001 0.39134178 0.3686984
-1.2815588 -0.36980295 0.6067054 1.0632766 -2.0539994 -1.2221504 -2.034836 0.696624
-0.98510844 -0.56015337 0.1873063 -0.5915252 0.069555424 -0.773351 -0.6616014 1.4037641
-4.098515 0.80092686 0.6524623 1.1542455 0.82856935 0.041987363 1.7208481 0.045407504
-0.7007277 -0.9054154 -0.38764217 1.997068 -1.0976294 -0.42350543 0.2123772 -1.7605747
-0.064416796 0.25318778 1.4808202 0.8020041 -1.5249376 0.3829098 -0.93824023 -3.3650677
1.0985034 0.6604052 -0.059972167 1.0034047 0.1408337 -0.19099608 -1.7857376 2.005496
-2.5152326 -2.1998184 -0.90094924 0.36491638 -0.38908988 0.03890752 0.35267955 0.31771567
-1.5935664
00000000: 8886 11c0 ee9c ca3f 51e0 7d3f a2cd e3bd
00000010: ffb8 203d 7249 a13e 9e26 5bbf 5f8f 6dc0
00000020: 4c4f 683f 8d1a 6abc 4ab7 60c0 e3d9 3ebf
00000030: 3ff0 69bf 8838 f83d 0071 cebf cb41 c53e
00000040: e18c b73f 12c1 1fbf abbe 8e3e 3bde e7bd
00000050: fe5f b0c0 32ff e1be f35d c83e 09c6 bc3e
00000060: 1e0a a4bf d056 bdbe 0c51 1b3f 7319 883f
00000070: ba74 03c0 6d6f 9cbf c13a 02c0 f355 323f
00000080: 1130 7cbf 3666 0fbf 39cd 3f3e 326e 17bf
00000090: 1373 8e3d 55fa 45bf b65e 29bf 8bae b33f
000000a0: 0927 83c0 8b09 4d3f c507 273f 51be 933f
000000b0: 1f1d 543f f1fa 2b3d c044 dc3f 38fd 393d
000000c0: e462 33bf 4ec9 67bf 0979 c6be ed9f ff3f
000000d0: 1f7f 8cbf b4d5 d8be 6979 593e 835a e1bf
000000e0: f4ec 83bd d4a1 813e 848b bd3f 2450 4d3f
000000f0: 2831 c3bf c10c c43e 8330 70bf 455d 57c0
00000100: c29b 8c3f 5110 293f 60a5 75bd 916f 803f
00000110: b636 103e 7a94 43be 0d93 e4bf 0c5a 0040
00000120: 92f9 20c0 d3c9 0cc0 9ca4 66bf 52d6 ba3e
00000130: ca36 c7be 7e5d 1f3d 6a92 b43e a1ab a23e
00000140: fcf9 cbbf

112 f4 [9]
1.627243 2.8259282 3.4900277 2.9897335 3.0226054 1.6063237 1.374655 1.781635
3.7711198
00000000: 8049 d03f 02dc 3440 9d5c 5f40 cb57 3f40
00000010: 5e72 4140 049c cd3f b2f4 af3f 9e0c e43f
00000020: 075a 7140

113 f4 [9]
-0.9430655 -0.47386596 -2.6482804 -2.068782 -2.1923358 0.22670268 -1.7216262 0.28858462
-4.8548136
00000000: be6c 71bf 8f9e f2be 6d7d 29c0 ed66 04c0
00000010: 3b4f 0cc0 bf24 683e 3f5e dcbf 5dc1 933e
00000020: a25a 9bc0

119 f4 [1, 9, 1]
22.289396 -55.82601 -19.094185 -45.83081 -14.884953 13.062059 -17.256422 22.202618
-33.45661
00000000: af50 b241 d64d 5fc2 e4c0 98c1 c052 37c2
00000010: c428 6ec1 32fe 5041 270d 8ac1 f69e b141
00000020: 92d3 05c2

120 f4 [1, 9, 1]
10.9974375 16.755493 25.779768 14.833017 14.55154 5.7754083 8.61154 13.594485
15.903786
00000000: 81f5 2f41 400b 8641 f73c ce41 0a54 6d41
00000010: 1cd3 6841 25d0 b840 dec8 0941 0383 5941
00000020: e875 7e41

121 f4 [9, 9, 1]
-1.5607545 -1.023508 -0.51452583 -0.6895086 0.567114 1.3090148 -0.7046451 0.68303555
-0.3077154 -0.14481898 -0.7338282 -1.0481769 -0.8539572 0.3827607 -0.030572947 1.801056
-0.17050597 -0.29983506 0.25788808 -0.10919052 1.0295163 0.4605189 0.69313776 -0.8708001
-0.16527976 0.049241435 0.30547166 -0.4195359 0.68964535 -0.13546027 0.87029254 -0.20253816
0.11594802 -0.30898288 -0.39319307 -0.31669477 -0.76438826 0.15765697 0.99611 -0.07935607
-0.4470106 -1.5539833 -0.81717324 -1.2318981 -0.6791859 -2.1382017 -0.3593871 -0.7984045
0.2485206 -0.26541883 -0.4530718 -0.6005264 1.1390547 -0.20899245 0.06859999 0.3521901
-0.016437475 -0.18277541 -0.30205047 -0.14551896 -0.09698732 0.07700737 0.15406497 -3.7317708
-0.6820027 0.54932535 0.5790696 0.33707294 -0.4792014 -0.24839634 0.71881056 -1.5362179
0.08602703 0.65707743 -0.39219797 0.3822766 0.0042418162 1.2483557 0.74394697 -0.25781804
-0.13013384
00000000: cec6 c7bf 4f02 83bf f7b7 03bf a383 30bf
00000010: 622e 113f cc8d a73f 9f63 34bf 6bdb 2e3f
00000020: df8c 9dbe 6d4b 14be 2adc 3bbf a92a 86bf
00000030: f09c 5abf 36f9 c33e 1e74 fabc 0189 e63f
00000040: 1e99 2ebe fb83 99be e809 843e 489f dfbd
00000050: 31c7 833f 22c9 eb3e 7a71 313f c1ec 5ebf
00000060: 193f 29be 63b1 493d c866 9c3e 69cd d6be
00000070: 998c 303f 19b6 0abe 7ecb 5e3f 2a66 4fbe
00000080: 2876 ed3d 0133 9ebe 9a50 c9be d125 a2be
00000090: f3ae 43bf d470 213e 1101 7f3f 6f85 a2bd
000000a0: 93de e4be ede8 c6bf 4432 51bf d6ae 9dbf
000000b0: 21df 2dbf 4cd8 08c0 9601 b8be 3d64 4cbf
000000c0: 2f7c 7e3e fae4 87be 07f9 e7be 19bc 19bf
000000d0: 8bcc 913f 1e02 56be 277e 8c3d 4352 b43e
000000e0: e2a7 86bc 7a29 3bbe 5ca6 9abe ec02 15be
000000f0: 4aa1 c6bd 0ab6 9d3d 35c3 1d3e 55d5 6ec0
00000100: bb97 2ebf 96a0 0c3f e83d 143f d394 ac3e
00000110: e359 f5be 9c5b 7ebe f803 383f caa2 c4bf
00000120: f12e b03d 3a36 283f 2cce c8be c2b9 c33e
00000130: effe 8a3b 1fca 9f3f 4f73 3e3f ba00 84be
00000140: ce41 05be

122 f4 [9]
-1.2196989 6.6937294 4.4698935 1.5103588 -0.2386099 -0.36008304 4.5570807 -1.091539
0.7608331
00000000: 181f 9cbf 0833 d640 5e09 8f40 7053 c13f
00000010: 2756 74be ce5c b8be 9bd3 9140 8db7 8bbf
00000020: f5c5 423f

123 f4 [1, 9, 1]
0.4000683 0.046723396 0.09765342 -0.090136774 0.010948846 0.267711 -0.012713082 0.029946499
0.072062425
00000000: c1d5 cc3e 0861 3f3d 84fe c73d a199 b8bd
00000010: ca62 333c 6b11 893e 884a 50bc 5c52 f53c
00000020: 7795 933d

125 f4 [4, 9, 1]
0.13283327 -2.4100254 0.797294 0.05566412 -1.4991869 2.1204064 -0.3327859 0.40014678
-2.01283 0.52098227 -1.1435215 -0.16635275 3.214372 1.8857296 -1.7037154 -0.599366
-1.5544572 -0.5232949 -0.91984534 -0.4661971 -1.609879 0.59040797 0.5358863 9.472294
2.416792 -0.22735283 -1.1409823 0.02588323 -2.0279443 -2.4692914 -0.51682794 0.44332674
-3.018108 -1.0136504 -0.3452347 -0.08501311
00000000: 7205 083e db3d 1ac0 761b 4c3f 0f00 643d
00000010: 5be5 bfbf bdb4 0740 ea62 aabe 0ae0 cc3e
00000020: 35d2 00c0 185f 053f ea5e 92bf 6058 2abe
00000030: 45b8 4d40 965f f13f 5913 dabf 0d70 19bf
00000040: 74f8 c6bf a8f6 05bf fc7a 6bbf 63b1 eebe
00000050: 8410 cebf fa24 173f d82f 093f 848e 1741
00000060: b8ac 1a40 2ecf 68be b50b 92bf 1109 d43c
00000070: d7c9 01c0 df08 1ec0 d64e 04bf b9fb e23e
00000080: ae28 41c0 4cbf 81bf 9ac2 b0be 5a1b aebd

126 f4 [4]
0.86468107 1.1215751 1.9584868 1.7174275
00000000: bd5b 5d3f c68f 8f3f b2af fa3f aad4 db3f

127 f4 [4]
0.3888692 0.6442894 -1.3805307 1.2646067
00000000: dd19 c73e 26f0 243f 3bb5 b0bf a2de a13f

133 f4 [1, 4, 1]
-41.00281 58.878952 -9.742314 -64.08811
00000000: e102 24c2 0c84 6b42 85e0 1bc1 1d2d 80c2

134 f4 [1, 4, 1]
18.689775 22.386932 22.370173 21.559402
00000000: a984 9541 7018 b341 1df6 b241 a879 ac41
